anode/3/model.pth (torch, 13557 bytes, 9 tensors)

weight f4 [32, 3]
00000000: daab 8ebd 6c66 c5be 1a9e 523e a4ff 7c3e
00000010: 4d13 a3be 7c1d e2bd ea61 05bf 64cd e73d
00000020: bcd5 56bd cadb 003f 3163 bd3e 4f8a d93d
00000030: d165 27be b55a 88be c23c 8abb 571c 6ebe
00000040: 7732 9d3e 565c 0abf 42ba 203f a3d8 bcbe
00000050: f3be d63e 246b e9bc bb8f 5a3e 5b6c 403e
00000060: eb9c 42bd e83b 373e 5819 f13e eab5 3e3e
00000070: 6129 ba3e 1f88 babe fcd3 063f 6ca2 313e
00000080: 82eb e03d 5254 ed3d 073f 803e f992 cc3e
00000090: 3850 77be 9652 cebe 2330 6dbe 609d 03bf
000000a0: 98f9 8f3e 137f 61be e758 cfbe e96c 033f
000000b0: 881e 103f 8895 ccbd 8dfe babd cbe7 cdbd
000000c0: 4d36 f13e 19bf 04bf 0b7f 00bf 6318 1c3f
000000d0: 3bb9 0e3f b526 83bc 4bb7 d2be 05bb 04be
000000e0: 3710 60be 71e5 9fbd 6fbf c63e 4422 c23d
000000f0: 8a22 13bd 80ed ed3c 34c8 fb3d 4f09 ccbe
00000100: 11f0 85be 9c1e cabd f955 8ebe d458 acbe
00000110: 3adb 1e3e 7565 8a3e 5d3e 8b3e 0997 f5bd
00000120: 841e f23e bb2c 83be cba5 47bd 8c21 f83e
00000130: 8358 2a3e 9e78 9ebc e4d9 4b3e 0137 4bbe
00000140: 27a1 c43e 2349 d6be f6e3 71be 22ae 59bd
00000150: cac0 a3be f190 11be ca97 a53e b4a8 d23e
00000160: fc70 ad3c d956 d83e 4187 07bf 62e2 cebe
00000170: 4b96 c53e 211f 143e f524 06bf 96b8 e6be
-0.06966372 -0.38554704 0.20568123 0.24706894 -0.31850663 -0.1104078 -0.5210253 0.11318472
-0.052449927 0.5033537 0.3698974 0.106220834 -0.16347434 -0.26631704 -0.0042186687 -0.23252998
0.30702564 -0.54047143 0.62784207 -0.3688403 0.41942558 -0.028493471 0.21343891 0.18791334
-0.04751293 0.17893946 0.47089648 0.18624082 0.36359695 -0.36431977 0.5266721 0.17347115
0.109824196 0.115883484 0.25048086 0.3995588 -0.24151695 -0.40297383 -0.23162894 -0.5141201
0.28120112 -0.22021131 -0.40497515 0.5133806 0.56296587 -0.09989458 -0.09130583 -0.100539766
0.4711174 -0.5185409 -0.5019385 0.6097471 0.5575139 -0.016009668 -0.41155466 -0.12961967
-0.21881185 -0.07807434 0.38817927 0.09479192 -0.03592161 0.029043913 0.12294045 -0.39850852
-0.2615972 -0.098691195 -0.27799967 -0.3366152 0.15513316 0.2703053 0.27196017 -0.11991698
0.47288907 -0.25620064 -0.048742097 0.48463094 0.16635327 -0.019344624 0.19907337 -0.19845201
0.384042 -0.41852674 -0.23622116 -0.05314458 -0.31983024 -0.14215447 0.32342368 0.41144335
0.02117204 0.4225376 -0.52940756 -0.4040709 0.38591227 0.14465 -0.5240014 -0.45062703

bias f4 [32]
00000000: b8b9 a6be b4ae c63e f1b6 8a3e e1b6 d03e
00000010: 60fa 00bf 0a5f 03bf 0600 c6be 2a6e 503c
00000020: 7b92 9abd 9cdb dfbe dda1 c93e 7f98 a0be
00000030: cf5e 7fbe 7391 7a3e 62c1 fabd 049b 963e
00000040: b20f 1c3e 1740 f93d 97e1 9f3d 1705 ffbe
00000050: c2a9 afbe 565c a4be 9fe4 bcbe 5d60 103c
00000060: 2c47 2c3e fd8d 99be ece6 8c3e 7948 bcbe
00000070: 97ff 6d3e cb08 6fbe 399e bfbe e331 adbe
-0.32563567 0.38805163 0.27092698 0.40764526 -0.5038204 -0.51316893 -0.38671893 0.012721578
-0.0754747 -0.43722236 0.39381304 -0.31366345 -0.2493851 0.24469547 -0.12243916 0.29415143
0.15240362 0.12170427 0.078067 -0.4980857 -0.34309202 -0.32101697 -0.36893174 0.008812037
0.16824025 -0.2999114 0.2751993 -0.36774042 0.23242031 -0.23343198 -0.37425402 -0.33827123

weight f4 [32, 32]
00000000: 3d3f 153d fa48 6e3d 3881 20be ff83 7dbd
00000010: 4242 64be 6611 1e3d e463 823e 1d8e b43c
00000020: 21b0 f5bd 290a 193d bb36 1b3e 6c5b 6abd
00000030: 69ef b1bd c180 463c 8cec 94bc f00d acbd
00000040: 5fcd 3ebe b05f f53c e390 2abd 2cc4 83bd
00000050: b57a 153e 8e84 4fbd df30 fdbd 8a96 2bbe
00000060: ccf9 b0bd 2c8e 083e a4e3 1f3e 7ccb 6ebd
00000070: 79c1 3ebe 91ed de3d bf07 423c 2bb3 1cbe
00000080: 8935 b6bd 41f9 2bbd 310e 24be 4ed9 27be
00000090: 54e5 bc3c 6f8a 14be 9c4d c3bd 883c c0bd
000000a0: d0e7 a63d 40ce 0b3d 8888 103d 5129 f5bd
000000b0: 1ba5 ba3d f8e8 3abd 99cc c8bd 8c59 8dbd
000000c0: 43ee 3abe 00b1 05bc edeb 253d 88c0 a2bd
000000d0: bf02 193e 851a 23bb 3aa1 9abd 5bcf 04b9
000000e0: 02ac b6bd 8449 28bd 08f9 28be 943d 3c3d
000000f0: bdbd 593d 6fdd 153c 14af 583d e4fc f33d
00000100: 49e8 d33d a551 42be be29 a33b b359 1b3d
00000110: a8b7 24bc 31f7 69be c8db 4c3d 060d 8cbd
00000120: c71b e93d f462 9a3d 18da a7ba d9a3 b23a
00000130: 8a74 66be ebfd 77bd 0b3a 1e3e 1e8e b73b
00000140: a891 69bb acfd 993e b1b4 adbd 5ffc 823d
00000150: a081 c2bd 8afa b83d 6507 8dbc 6956 553c
00000160: a40d cc3d 2228 803d 54c1 c63c 15f7 f1bd
00000170: ed87 3abc c70f 763d cf2d 47be 1efd 42bd
00000180: f41d 1e3d 1f5d 28be 659e 873d c868 e6bd
00000190: f199 16be 28d2 d8bd d897 6cbe 3058 1d3d
000001a0: 9053 993d d991 243e 0f7a ee3d fa7f 443d
000001b0: be12 b13d ff10 993c 8061 213e 3d23 dcbd
000001c0: 94c2 44bd 9b6d 39be 8df5 72bd c872 a9bd
000001d0: cc9a 13bd 0831 4b3e a126 05bd 1853 7ebe
000001e0: 7670 11be f970 cd3d 8555 d23a 2ec8 353d
000001f0: bbe2 87bd 3624 ac3d 0b1e eabd a225 cd3d
00000200: 5099 443d 078b 573d fdf1 adbd 2346 dbbd
00000210: ed25 98bd dc7c b13e 57b2 acbd 3866 d9bd
00000220: 0820 db3d b93d d43d 34e7 2fbd a22a 97bd
00000230: f092 29be e097 3a3e c393 753e 09c1 9abd
00000240: d84e c4bd 787b ac3d c496 fbbd de21 873d
00000250: bbef bbbd 5a89 09bd 967a dd3d 91d7 4e3d
00000260: 55e2 1ebc 6dc3 133e 5767 4fbe 89ad 603d
00000270: 488c 59be 67a0 75bd eeb6 1abe 8791 8fbe
00000280: 29ae 353e 12d8 f6bd 5af6 e13c dca1 d4bd
00000290: 13ae a3bd bc9e 263d 508c 8abd 3649 0e3e
000002a0: c385 02be 6082 673e b844 15be b79a 8e3d
000002b0: daba 5b3e b33b 883d c9e5 2bbd 99b1 df3d
000002c0: 905e 84bd b3fc 43be b787 f6bb cb31 c3bd
000002d0: d8b4 90bc 334f 91bd 5030 733e dc49 66be
000002e0: f5f8 6abe 51c3 cbbc 2eb3 513d 51fc 663e
000002f0: a5ed 29be a4a2 5a3d d6a6 753e b39a 6bbd
00000300: 52f0 963d 793b d6bd c331 743b 3767 57be
00000310: a4df cfbd fd85 e5bd ed5c c1bd c160 63bd
00000320: 5af6 61bd 33df d5bd 2adf 073d 9a1f 203d
00000330: 3fcb 1ebe 7923 53be 3e78 a8bd c835 a4bb
00000340: 0257 47be dc45 9cbd c4b1 4cbd 5c51 0abe
00000350: e582 293e b31a 033e 5d43 0a3e 1648 07be
00000360: 9fbd 3ebe 78b1 1cbd f4ed 4c3d 721b b13d
00000370: ef71 29be 9b03 ae3d c9a2 abbd 382c fdbc
00000380: 0d41 af3c 4bee 733d 858a 59be acc4 20be
00000390: 7ec4 433d f9b0 833d 1a19 a43c 6e32 783d
000003a0: 6c0b f73d 4bf1 ebbc 5e83 20be 16b0 3fbd
000003b0: ab9a 123e dd67 b1bd ea3f 64be cf58 8b3d
000003c0: afa6 a9bd 4a67 c6bd 5e82 313d 8086 42bc
000003d0: fbe2 033e d2f8 98bd 2a4b 0d3e c27b 6ebd
000003e0: d36f a0bd 0747 643e 6a36 113e a269 993d
000003f0: ff29 adbd 57f6 d5bd c446 c13d 1757 273e
0.03643726 0.058175065 -0.15674293 -0.06189346 -0.222909 0.03859081 0.25466835 0.022040421
-0.119964845 0.037363205 0.15157597 -0.057216093 -0.08688242 0.012115658 -0.0181792 -0.08401096
-0.1863303 0.029952854 -0.04164208 -0.06433901 0.1459759 -0.050663523 -0.12362837 -0.16756645
-0.08641395 0.13335484 0.15614182 -0.058299527 -0.18628491 0.10885156 0.011842667 -0.15302722
-0.0889693 -0.041985754 -0.16021039 -0.16391489 0.02305857 -0.14505933 -0.09536287 -0.093865454
0.081496835 0.034132242 0.035286456 -0.11970771 0.091135226 -0.045632333 -0.09804649 -0.06901845
-0.18254952 -0.008159876 0.0405082 -0.07946879 0.14942454 -0.0024887633 -0.07550283 -0.00012665747
-0.08919527 -0.041085735 -0.16501248 0.045957163 0.053159464 0.009147032 0.052901343 0.119134694
0.10347039 -0.18976457 0.0049793413 0.03792734 -0.010053553 -0.22848202 0.050014287 -0.068384215
0.11382251 0.07538405 -0.0012806086 0.0013629153 -0.22505394 -0.06054489 0.15451829 0.0056016585
-0.0035639796 0.3007635 -0.0848173 0.06395792 -0.0949738 0.090321615 -0.01721544 0.01302109
0.09963539 0.06257655 0.024262108 -0.11814705 -0.011384946 0.06007364 -0.19451068 -0.047604673
0.038602784 -0.16441773 0.06622008 -0.11250454 -0.14707161 -0.10586959 -0.23104799 0.03841418
0.074866414 0.16071261 0.116443746 0.04797361 0.08646153 0.018684862 0.1575985 -0.10748909
-0.048037127 -0.18108217 -0.059316207 -0.08273846 -0.036036298 0.19842923 -0.032507543 -0.24836385
-0.14203057 0.100313134 0.0016047215 0.04438036 -0.06635042 0.08405344 -0.114315115 0.100169435
0.047997773 0.05262282 -0.08493421 -0.10706737 -0.07429109 0.34665573 -0.08432453 -0.106152
0.10699469 0.10363335 -0.0429451 -0.073811784 -0.16559958 0.18221998 0.23982148 -0.0755635
-0.09585351 0.08421987 -0.12284616 0.065982565 -0.09176584 -0.033578254 0.10814397 0.05049855
-0.009697516 0.14430018 -0.20254265 0.054852996 -0.2124492 -0.059967425 -0.15108845 -0.28040716
0.17742218 -0.12052931 0.02758329 -0.10382435 -0.079921864 0.040678725 -0.06765044 0.13895115
-0.12746339 0.22608328 -0.14576995 0.06963103 0.21457997 0.06652012 -0.041967187 0.10922546
-0.06463349 -0.19139366 -0.0075235027 -0.09530982 -0.017664358 -0.07095184 0.23748899 -0.22489113
-0.22946532 -0.024873408 0.05119627 0.22557189 -0.1659456 0.053377762 0.23989424 -0.05752058
0.07370056 -0.10460562 0.0037261106 -0.21035467 -0.10150078 -0.11207197 -0.09441552 -0.055512194
-0.05516658 -0.104429625 0.03317181 0.039092638 -0.1550722 -0.20619 -0.082260594 -0.005011294
-0.19466785 -0.07630512 -0.049974218 -0.13507599 0.16553839 0.12803154 0.1350226 -0.13211092
-0.18627022 -0.038255185 0.050031617 0.08647813 -0.16547368 0.084967814 -0.08380658 -0.030904874
0.021393323 0.059553426 -0.21244247 -0.15700024 0.04779481 0.06430239 0.0200315 0.06059497
0.120627254 -0.02880158 -0.15675113 -0.046798788 0.14316814 -0.086623885 -0.22290006 0.06804048
-0.082837455 -0.096876696 0.04333722 -0.011872888 0.12879555 -0.07469334 0.13798204 -0.058223493
-0.07833829 0.2229272 0.14180914 0.07490851 -0.08455276 -0.10447376 0.094373256 0.16341816

bias f4 [32]
00000000: b1c8 5b3d 4909 e0bd dd42 adba 86f7 b6bd
00000010: d585 8b3d 5eb3 f23d c610 3fbc 0f57 ee3d
00000020: 3950 a73c 524b 19be 6616 1abe 56d4 9cbd
00000030: df48 25be 5e4c 0d3d 86bd cf3d 9417 d9bd
00000040: 137e e3bd cba7 09be d4d8 c23c 7edb 4fbd
00000050: e4f9 8a3d e898 e0bd 735f 3fbe 6a37 2e3d
00000060: 0320 313e 517a c9bd d991 07be 6c5b cebd
00000070: 6b42 31be fc11 2bbe ce24 b83d 494a de3d
0.05365819 -0.10939271 -0.0013218779 -0.0893393 0.06812636 0.11850618 -0.011661714 0.11637699
0.020423995 -0.14970139 -0.15047607 -0.07657687 -0.1614108 0.034496658 0.101435706 -0.106002
-0.11108031 -0.13442914 0.023785032 -0.050746433 0.06785944 -0.109666646 -0.18688755 0.042533316
0.17297368 -0.09837783 -0.1323923 -0.10076031 -0.17310493 -0.16706079 0.08991395 0.108540125

weight f4 [32, 32]
00000000: 94ea ab3c 04ce 20be 48f2 1ebd 2c81 463d
00000010: 2826 f73c 126e d2bd fc30 6dbd f9fc 903c
00000020: 3574 c23d 6d86 283e 4194 d53d fd8f c73d
00000030: de7f 11be fe08 db3d 27d6 88bd 74eb 37bd
00000040: df72 193e 1a2c a8bd 208d 12bd 7074 5bbc
00000050: 89b2 3dbe a1e1 46be 6f5e 203e fb65 db3d
00000060: 28d3 9dbd ef25 32be c7ac e93d f4b4 233d
00000070: ae06 c23d 734d 19be 0f6b 443c ad69 3cbd
00000080: d35d 203e 7134 0a3e 2e1f d53d b4b7 383d
00000090: 2087 8b3d 0cff 783d 5b47 293e 763d c93d
000000a0: 800e 8cbb 1c42 4f3d 2958 86bd bd70 103e
000000b0: 3d4e b6bd ab54 253e ff47 093e 7433 0bbe
000000c0: 79e1 23be 4026 8bbb 7a95 a83d 67a7 0f3e
000000d0: 1e25 1bbe dc83 33bd 84ee 313d f6f4 6dbd
000000e0: 8680 14be 3c4d 493d 0e86 9c3d 68b1 aebc
000000f0: 1205 bd3d 68ea ee3c ab68 123e 54d0 3e3d
00000100: 8e14 393c df54 adbd 47d1 22be e01e 6d3d
00000110: f2aa 563e f010 293d 0f7a d6bd 17eb 9f3d
00000120: 02dc 203e e737 16bd 5777 2cbe 59a2 293c
00000130: 80c2 a43d 85e2 c43d 7f17 273d a9b4 98bc
00000140: 9d05 983b 35b6 4ebe 03c2 ad3d 8176 9dbd
00000150: 0887 31be d514 c33d 5411 1d3d 2665 c4bd
00000160: 2f54 3bbd 8eca 4ebe 5974 423d 3d60 fbbc
00000170: 0edf bb3d 08d7 12bd b831 073e a274 37be
00000180: 459a 0bbd 4238 9cbd 7eb6 85bd d1da 083e
00000190: 3d62 c63c 1d1b 103e 70e4 ae3c 2ad2 91bd
000001a0: 7ba8 89bd 02d5 18be 781a 553e 6c3f a8bd
000001b0: 2f32 2ebc 8df9 1f3d 80ac a9bd 2058 bcbd
000001c0: 1689 08bc 3c5c f23d 209a 033e e97e dbbd
000001d0: 54dd 1d3e 42b0 813c 947d e9bd 6ed9 9dbd
000001e0: 8111 cbbd 6f58 803d 9e4f 3abe 92ce 6e3c
000001f0: 4251 d63d 2864 ebbc 53f4 2e3d 1b60 e2bd
00000200: 0aa3 d83d 760f af3d 5306 b0bc 8ab1 c23b
00000210: 1b7f 683e b764 3ebe f353 083e 1f28 1dbe
00000220: 7241 80bd cf37 47be 077f fdbb fbe4 553e
00000230: d79f a7bc ce78 c63d 469a 0d3d 6b21 44be
00000240: 1363 05be 9eca 433c 7d31 ca3d 1bda 903d
00000250: 04a3 a3bd d2e7 bc3d a101 cd3d e385 acbd
00000260: 7dea 4abe d76a 5dbe 014a 023e e13d 4dbe
00000270: 5798 e5bd d004 703d e98f a23d 849c d03d
00000280: 9489 37be 758c e63d 8d76 b13d e475 85bd
00000290: 94e6 79bd 973a efbd 2650 36bd b631 3fbe
000002a0: 58ef cb3d 86d4 ce3d 6ddb 4b3c 37f0 143e
000002b0: 1e89 c9bd 63ac ef3d 0d4d 543e b694 5b3d
000002c0: c546 273e ab00 91bd 755b 3a3d a65c fcbd
000002d0: f2e3 6dbd 4d19 683e 487b 8dbd b6cc 813d
000002e0: fda6 68bc c2e1 b6bc fcad 5fbd 84f3 973d
000002f0: f3ab 353e 6bac c9bd bd75 42be 45da c0bc
00000300: cbdb acbd 8e90 ee3d 54a6 74bd 57da 003e
00000310: 2001 253d 47f7 80bd 5cf9 b4bd 380b 153d
00000320: 84a5 11be a81e bcbc 59b0 2fbe 125b 1fbe
00000330: f967 debd 9272 c13d 9708 0bbe 351c 2d3e
00000340: fdc9 2ebe de96 20be c21e a13d e045 b33b
00000350: dd8b 063e b8ab 25bd 0af0 983d 1fdd 103e
00000360: 6b81 f9bd 7d00 febd 51b8 1d3e e5a0 1b3e
00000370: 6027 ebbb 727e d03d bd21 03be f942 103e
00000380: 438a 45bd a892 123e 53fa 37bd 9b6f 1abe
00000390: 43d6 03be abe2 f4bc 112f 44bd b431 703d
000003a0: 2f7a 40be 4ab6 9ebd bf51 a9bc f5e4 a4bc
000003b0: c9e8 14be 3941 f03d 87dc 0cbe e815 473e
000003c0: b914 2e3c 245a 263d f210 08bd f143 073e
000003d0: 02a9 b5bd e810 3fbd 898e 2b3e 3412 9abd
000003e0: 9732 5ebc 0ed5 3d3d 8129 0ebe 71db 93bd
000003f0: 9f10 48bd 2052 b13c 87f4 1d3e 8a1b 8dbd
0.020985879 -0.15703589 -0.038805276 0.04846303 0.030169562 -0.102749005 -0.057908043 0.017698752
0.09494821 0.1645753 0.10428668 0.097442605 -0.14208934 0.106950745 -0.06681471 -0.04490228
0.14985226 -0.08211537 -0.03577912 -0.01339446 -0.18525137 -0.19422008 0.15661024 0.107128106
-0.077062905 -0.17397283 0.11409908 0.039967492 0.0947393 -0.14970951 0.011988415 -0.045999218
0.15660791 0.13496567 0.10406338 0.045097068 0.068128824 0.060790107 0.16531126 0.09826176
-0.0042741895 0.050600156 -0.06559784 0.14105506 -0.089016415 0.1614558 0.1340637 -0.13593847
-0.1600398 -0.004246503 0.082316354 0.14028703 -0.15150878 -0.043826923 0.043440357 -0.05809494
-0.14502153 0.049145922 0.076427564 -0.021324828 0.09229483 0.029164508 0.1429774 0.046585396
0.0112964045 -0.084634535 -0.15900145 0.057890773 0.20963648 0.04127592 -0.104724996 0.07808512
0.15708926 -0.036674406 -0.168424 0.010353648 0.080449104 0.09613518 0.040793892 -0.018640833
0.004639341 -0.20186694 0.084842704 -0.076886185 -0.17336667 0.09525458 0.038346604 -0.09589605
-0.04573458 -0.20194456 0.04747424 -0.030685538 0.09173404 -0.0358496 0.1320256 -0.17915586
-0.03408267 -0.07627918 -0.06528948 0.13364722 0.024216766 0.14072843 0.021349162 -0.07120164
-0.06721588 -0.14925006 0.20810878 -0.08215222 -0.010632082 0.03905635 -0.08284855 -0.09196496
-0.008333465 0.118339986 0.12851763 -0.107175656 0.15416461 0.015831117 -0.11400905 -0.07707487
-0.09915448 0.06266867 -0.18194434 0.014575617 0.104647174 -0.028734282 0.042713474 -0.11053487
0.10577972 0.08547871 -0.02148739 0.0059415745 0.22704737 -0.18593107 0.13313274 -0.15347336
-0.06262483 -0.19454883 -0.00773609 0.2088813 -0.02046196 0.096910104 0.034570955 -0.19153373
-0.13026075 0.011950163 0.098727204 0.0707285 -0.07990077 0.09223904 0.10010076 -0.08423974
-0.19816013 -0.21622787 0.12723543 -0.20043136 -0.11210697 0.05859834 0.07937605 0.10186103
-0.17923576 0.11257259 0.0866519 -0.065166265 -0.061010912 -0.11681097 -0.04451003 -0.18671307
0.099577606 0.100991294 0.012442452 0.1454476 -0.09840606 0.11702802 0.20732518 0.05360862
0.1633559 -0.070802055 0.045497376 -0.12322359 -0.058078714 0.22665901 -0.0690828 0.06337874
-0.014199969 -0.022324447 -0.054609284 0.07419494 0.17741375 -0.09847339 -0.18990226 -0.023541579
-0.0844036 0.11648665 -0.059728935 0.1258329 0.040284276 -0.062971644 -0.08836624 0.036387652
-0.14223295 -0.022963837 -0.17157115 -0.15562084 -0.10859675 0.09445681 -0.13577496 0.16905291
-0.1706924 -0.15682551 0.07867195 0.0054709762 0.13139291 -0.040446967 0.07467659 0.14146851
-0.12182888 -0.12402437 0.15402342 0.15198095 -0.0071763247 0.101803675 -0.12805839 0.14088048
-0.04822756 0.14313757 -0.044916462 -0.15081637 -0.12874703 -0.02989324 -0.04789645 0.05864115
-0.1879661 -0.07749613 -0.020668862 -0.020128706 -0.14541925 0.1173119 -0.13756 0.1944195
0.010625058 0.04061331 -0.033219285 0.13209511 -0.08870126 -0.046646982 0.16753592 -0.07523003
-0.013561866 0.046345763 -0.1388302 -0.072195895 -0.048843976 0.021645606 0.15425311 -0.06890018

bias f4 [32]
00000000: e0d5 10be 5fdd 2fbe 0948 ef3c e421 fc3d
00000010: df7c 2a3e 26ee 0a3e 0043 1cbe 533a e73d
00000020: 2c0c e93d 4cb1 3a3d 90a6 dc3d ac9d c93d
00000030: 97d9 ec3d 5554 8b3c 7cc9 01be 3d5b 5c3c
00000040: 295d 19be c2f3 1b3e de11 243e 5271 62bd
00000050: bfc7 0c3e 4976 e33c f653 0cbe f5c9 803d
00000060: db8e 133e 161c 123e 4ae4 b23c 4344 dd3d
00000070: f2b3 d13d 1f2f 123d 182d 1bbe f516 a6bd
-0.14144087 -0.1717429 0.029209154 0.123111516 0.16649197 0.13567409 -0.15259933 0.11290421
0.11379275 0.04557924 0.10773957 0.09844527 0.115649395 0.017007986 -0.12674516 0.013449487
-0.14976944 0.15229705 0.16022441 -0.055283852 0.13748072 0.027766364 -0.13703904 0.0628852
0.14409964 0.14268526 0.021837372 0.108040355 0.102394 0.03568947 -0.1515392 -0.081098475

weight f4 [2, 32]
00000000: bad4 0fbd 59a9 103e 8a2a 5fbb bb1e a53d
00000010: 0bda 1ebe 08fc 70bd 0c9a 653d 3bda 493d
00000020: b68c 653c 6f1e 87bb d176 873d 4923 0ebd
00000030: 9f30 f03d 9add 2d3e f065 e3bc 6c3e dabd
00000040: 1040 1c3d 3eed a03d a063 923d 0127 28be
00000050: c7ca 0fbc bf72 e3bb a2da 913d da38 1ebc
00000060: 09f2 083e b595 13bd 3d03 563d ad6c 16be
00000070: 2894 283e c271 22bd b785 babd 1368 f73d
00000080: b4ef 3a3b 0edd d3bd 1480 c7bd f664 1c3e
00000090: df64 3b3e b4d2 853d 1893 a7bc 62d5 bdbd
000000a0: c081 17bd 137d d9bd 3197 15be 1bc3 303d
000000b0: 4e55 153e 544a 99bc 0d90 12be 1e61 a8bd
000000c0: 163e de3d dbf9 353d 10a5 6b3d 08b5 1cbe
000000d0: 77da 1dbd 517e 733e fd94 89bd f943 a2bd
000000e0: ff9b 03be 31dc d13d 583a e33d 5ad9 b0bb
000000f0: 5fd9 043e f546 0d3e 6a37 c43d 5859 963c
-0.03511498 0.14127101 -0.0034052455 0.08062502 -0.15512864 -0.058834106 0.056055114 0.049280386
0.014010599 -0.004123501 0.06614459 -0.03470162 0.11728024 0.16979066 -0.027758569 -0.10656437
0.038147032 0.0785775 0.07147908 -0.16421129 -0.008776373 -0.006941169 0.07121779 -0.009657109
0.13373579 -0.036031444 0.052249182 -0.14689894 0.16462767 -0.03965927 -0.09107535 0.120803975
0.0028524222 -0.10344897 -0.09741226 0.15272889 0.18300198 0.06534329 -0.020455882 -0.09269215
-0.036988974 -0.10619559 -0.14608456 0.043154817 0.14583322 -0.0187122 -0.14312764 -0.08221649
0.10851686 0.044427734 0.057530463 -0.15303433 -0.038538422 0.23778655 -0.067178704 -0.07923121
-0.12852477 0.10247076 0.110951126 -0.005397004 0.12973545 0.13796599 0.09580882 0.01835315

bias f4 [2]
00000000: cd98 73bc 26f9 37bd
-0.0148679735 -0.04491534

z0 f4 [2]
00000000: 0000 0000 0000 0000
0.0 0.0
