s3node/3/model.pth (torch, 13429 bytes, 8 tensors)

weight f4 [32, 3]
00000000: 7ae7 75be cf38 c5be cf7b 1e3e 2032 073e
00000010: 43d4 9dbe e9c4 a6be 9d7f 8dbe c9b1 b03e
00000020: 264c e2bd 8140 003f aa86 d33e 0447 babe
00000030: 4029 31be cd72 1dbf 6c2b 94be cbc1 23be
00000040: f9d8 093f 211d efbe 379b e93e dbce 02bf
00000050: a09d 023f 8260 5cbe 3a20 bb3e 4192 953e
00000060: 1ca5 25be 8759 36bd ec83 083f 9929 003e
00000070: 8a09 903e 11e0 c0be e1a2 db3e 1fbc d33d
00000080: ef23 84be 0b63 8bbd 09a6 263e f129 0b3f
00000090: bb68 cdbd 039b c9be 729e 16be 0f45 98be
000000a0: 9427 b33e cfc0 b5be 6fd8 cdbe ff67 ad3e
000000b0: 3a3a 3d3f 3dfb c63e 5794 873d e689 66be
000000c0: 903f 953e 0cee 12bf da57 76be dc50 083f
000000d0: c886 cf3e e45d ec3b 91c2 c3be eebe 3a3e
000000e0: 2e5b f6be e4ff 643d 80cf a53e e3b1 743e
000000f0: 18ea 30be 7037 1abd a454 073f bb57 07bf
00000100: 0f90 f9be bdc1 ce3e 54ef f3be ba8f e7be
00000110: 8ba6 a53e d681 063f 8620 8bbd 7c88 9ebe
00000120: 66b1 c13f 0bac 8cbe 90fa bf3d 9917 fc3e
00000130: c45d 5d3d 2a2a 3ebc 0c87 c63d 3330 7fbe
00000140: ca91 0c3f f8e4 cabe 6ba6 803d cf32 63be
00000150: afbb c2be ca08 71be 510a 6a3e 87fd 5a3e
00000160: 5a3f f8bd 84c4 f93e 322d e1be c7e2 2ebf
00000170: be28 c33e 025e e8bc ade6 12bf 1703 12bf
-0.24014083 -0.38519904 0.15476917 0.13202715 -0.30826005 -0.32572106 -0.27636424 0.3451064
-0.110496804 0.50098425 0.41313678 -0.36382306 -0.17300892 -0.615033 -0.28939378 -0.15991895
0.538467 -0.4670191 0.45626232 -0.51096886 0.51021767 -0.2152119 0.36548024 0.29213145
-0.16176265 -0.044518974 0.53326297 0.12515868 0.28132278 -0.3767095 0.42897704 0.103386156
-0.25808665 -0.06806 0.16274275 0.5436087 -0.100297414 -0.39376077 -0.1470888 -0.29740188
0.34991133 -0.35498664 -0.40204188 0.33868405 0.7391697 0.38863555 0.066200905 -0.22513542
0.29150057 -0.5739448 -0.2405695 0.5324838 0.40532517 0.007213341 -0.3823438 0.18236896
-0.4811644 0.0559081 0.32384872 0.23895983 -0.172768 -0.037650526 0.52863526 -0.5286824
-0.4874272 0.40382186 -0.4764353 -0.45226842 0.32353625 0.52541864 -0.06793313 -0.30963504
1.5132263 -0.27475008 0.09373963 0.49236754 0.0540445 -0.011606732 0.09693727 -0.2492073
0.54909956 -0.39627814 0.06281742 -0.2218735 -0.38033816 -0.23538509 0.22855498 0.21385776
-0.12121458 0.48782742 -0.43979794 -0.68314785 0.3811702 -0.028365139 -0.57383233 -0.57035965

bias f4 [32]
00000000: 8af1 c73e c4d0 813e da05 6f3e 56b9 973e
00000010: c541 0fbe 5683 f0be d43c cabe 4a3e 3b3d
00000020: 6c02 babd e805 e1be a831 753d 8ee3 33be
00000030: 7f20 b4bd 0187 283e df94 c5bd 9692 8b3d
00000040: bba4 ae3e a3e4 443d 0fda 5f3d 3547 e6be
00000050: 2428 4d3e fb80 243e 5297 9f3e e1b8 c13c
00000060: e4aa 073f c497 95be a8b3 c53e 7b28 bbbe
00000070: 47fe a03e fc07 5ebe 5f42 a9be 7b87 61bd
0.39051467 0.25354588 0.23342076 0.29633588 -0.13989933 -0.469752 -0.39499533 0.0457137
-0.09082493 -0.4394982 0.05986181 -0.17567274 -0.08795261 0.1645775 -0.096475355 0.068150684
0.34110054 0.048069607 0.054651316 -0.44976202 0.20034844 0.16064827 0.31170136 0.023647727
0.52995133 -0.2921735 0.3861363 -0.36554322 0.31443998 -0.21682733 -0.3305845 -0.055060845

weight f4 [32, 32]
00000000: 8ae2 933d a353 8abc b910 56be b487 0cbe
00000010: 80fb 61be 829c c23d 2551 963d 7384 07bd
00000020: ec54 49be 56c3 273d 62cd 823d 56a0 f5bd
00000030: 7063 edbc 0b15 5f3c 70df 8dbd 4692 15be
00000040: f91f 15be 2f1b 28be b929 473b 9cf1 7cbd
00000050: b57a 153e e366 98bd 3cbc 06be bcb7 50be
00000060: 656d 4cbe 9539 ad3c bb6d 8e3d c630 33bb
00000070: 0465 81be b796 90bc 0319 873d 86c9 d9bd
00000080: 23ca 9dbe 2a3f d53d 0bae ddbd b583 a23d
00000090: 91f5 343d 557a 4f3c b06a 82bf bf55 4fbe
000000a0: b01f 95bd 6ebe 313f 8470 b73e 8457 32be
000000b0: b1ae f13d ef1f 123d 6d7d 4bbe 2672 ec3e
000000c0: bca9 b83d da16 33bf 3cd9 e03d 88c0 a2bd
000000d0: 2b42 07bc 4307 2dbd 312a 2dbe 74f3 1e3f
000000e0: b1bf 413f 8449 28bd d4fe f1be 64e4 a23d
000000f0: 303c 1bbd e913 963e 381e 93ba 5d73 813e
00000100: a72f 20be 7afa 2d3e b9e2 aebd 2af6 303e
00000110: 53d3 2bbd c489 efbb d3dc 203e 3717 25be
00000120: 28dc 2b3f d3fe 663e dcdc 083e a57f 0e3f
00000130: 48c4 60bd 3404 25bd f5f3 6c3e 4870 6c3e
00000140: c26c d13e 2f83 4c3e 2ab8 b43d 8066 d23d
00000150: d9eb a33e 31a4 a2bd f3bf 91be d4f2 273e
00000160: b2a9 ef3e dd3d eb3d 778b 453e 0141 f0be
00000170: 53a2 65be 3458 163f 1d6c 0b3e 5a21 233f
00000180: 9524 763e 5dc8 e6bd eba7 2a3e b84c 99bd
00000190: 5151 f8bc 7c62 96be 9ba3 2cbe 1d47 ed3d
000001a0: 5b88 233e f30d de3d c182 233e 40e5 6d3d
000001b0: 2957 4d3e 4e1d 993d f1b6 8a3e 0f36 a5bd
000001c0: 117b a4bd 1e90 bbbd 9afa d0bb 3a67 40be
000001d0: 0ded 6b3e c84b a03e 7826 dc3d 0a4a 4abe
000001e0: 3a15 6abd f6f8 dc3d 91ff 5c3d 9704 ed3d
000001f0: 00d2 b03d b636 073e d2fe 08bc 29f1 123e
00000200: 0fb7 46bf dd4c b13d ffef 44be ea17 07be
00000210: 6889 72bf 4132 443f 9458 f13c 41c9 edbe
00000220: 4061 6b3d d40f 8a3d da7a afbc be56 93bd
00000230: 471b 7a3e 38b9 7c3d 270c 1d3f 652e 923d
00000240: 8e5e 293d c3e7 253e c95c 57be e042 48bd
00000250: fde2 fbbe fc89 febe 86a9 e2bf a270 373e
00000260: 6d59 143f 494e 493e 91f3 c33e 4df5 543f
00000270: 86a3 aabf e9f9 533d f900 b3be c946 763c
00000280: 29fc b73e 2298 e9bd 7759 973d c0f2 36bd
00000290: c0f5 c9bc 8018 29be 0c8f d3bc 43d2 873e
000002a0: 640f 793c fca6 c03d 7363 a9bd d1f2 e43d
000002b0: db01 1f3e 0332 3d3d 20c4 b03d 7672 ee3d
000002c0: 86d3 68be 4f19 9ebd 8169 acbc 2010 d8bd
000002d0: 15a1 6a3e aa84 eb3c 9eed a33e 26e6 75be
000002e0: 8eb0 a3be ad40 8dbc 4f89 153e bcbe 933e
000002f0: fcd0 a43c 554b da3d 1ec3 993e b5ed 78be
00000300: 20d4 9e3e 0ec8 41bd 3765 1a3e 6f94 29be
00000310: 60b5 bebc 753b 4abe ce4e 9cbd fb98 e63d
00000320: f5f3 e83d 747a 20be 1774 a13d c6ec d13d
00000330: 14f3 1cbe c58a 07be a05d 0c3e 7ccb 553d
00000340: 6c41 59be c925 efbc 55ae 3f3d 6c47 38be
00000350: 8332 ca3e 1bb9 943e c069 af3e 210b bbbd
00000360: c358 54be 0a86 fabc 9155 163e 5e82 233e
00000370: 57bf 6c3d 50c0 e13d 089a c23d 4d33 cbbd
00000380: 70f4 e8bd 4364 693d 9cbc 7bbe ca30 0fbe
00000390: 87c6 2dbe 04c7 6a3d de07 e0bd c1d7 293d
000003a0: e3a2 bd3d 5c18 b2bc 40f6 3dbe 4883 85bd
000003b0: fd97 f4bd 872d ebbd 1da6 72be 9a79 a73d
000003c0: f56c cfbd 0853 1cbe ff99 91bc e357 033e
000003d0: 7a69 253e e84e 89be b04d 41bd c9d9 8abd
000003e0: 4ffb 0abe 0421 e33d 6d08 d73d f517 c4bb
000003f0: 2994 11be 792f 11be 9d7a 0bbe a193 73bc
0.07220943 -0.016885584 -0.20904817 -0.13723642 -0.22068596 0.09502508 0.07339696 -0.033085298
-0.19661301 0.04095777 0.0638683 -0.11993472 -0.02897808 0.013615857 -0.06927383 -0.1460658
-0.14562978 -0.1641662 0.003038986 -0.061753854 0.1459759 -0.07441499 -0.13157743 -0.20382589
-0.19963606 0.021145621 0.06954523 -0.0027342304 -0.2527238 -0.017649991 0.065965675 -0.10634141
-0.3081828 0.10412438 -0.10824212 0.079352774 0.044179503 0.012663444 -1.0188808 -0.20247553
-0.072814345 0.694312 0.3582803 -0.17416197 0.11800898 0.035674985 -0.19872065 0.46180838
0.09016749 -0.69956744 0.10978934 -0.07946879 -0.008255522 -0.042243253 -0.16910626 0.6209023
0.7568312 -0.041085735 -0.4726473 0.07953718 -0.037899196 0.29312065 -0.0011224216 0.25283328
-0.15643178 0.1699008 -0.08539338 0.17281404 -0.04194958 -0.007310124 0.15709238 -0.16122137
0.67132807 0.22558145 0.13365501 0.5566352 -0.05487469 -0.04028721 0.23139937 0.23089707
0.40903288 0.19971918 0.08824189 0.102734566 0.32015875 -0.07941473 -0.28466758 0.16401225
0.46809155 0.11486409 0.19291483 -0.46924594 -0.22425203 0.5872834 0.1361546 0.63722765
0.24037392 -0.11268685 0.16665618 -0.07485336 -0.030312212 -0.29372013 -0.16859286 0.115858294
0.15969984 0.10842504 0.15967847 0.058079958 0.2005278 0.074762926 0.27092698 -0.080669515
-0.080312856 -0.091583475 -0.0063775303 -0.18789378 0.23039646 0.31307817 0.10749525 -0.19754806
-0.05714915 0.10789673 0.053954665 0.11573141 0.08633804 0.13204464 -0.008361535 0.14349808
-0.77623075 0.08657239 -0.19232176 -0.13192716 -0.94740915 0.7663918 0.029461183 -0.46442607
0.05746579 0.067413 -0.021420885 -0.07194279 0.24424468 0.061700076 0.6134667 0.07137755
0.04134994 0.16201691 -0.21031488 -0.048891902 -0.49196616 -0.4971465 -1.7707984 0.1791406
0.5794895 0.1965877 0.38271764 0.831868 -1.3331153 0.051752005 -0.3496168 0.015031525
0.3593457 -0.1140597 0.07390111 -0.0446651 -0.024653316 -0.16513252 -0.025825046 0.26527604
0.015201423 0.0940685 -0.082709216 0.11179126 0.15528052 0.046190273 0.08631158 0.116429254
-0.2273694 -0.07719671 -0.021046402 -0.105499506 0.2291301 0.028749783 0.32017225 -0.24013576
-0.31970638 -0.017242754 0.1460316 0.28856456 0.020119183 0.106589 0.30031675 -0.24309428
0.31021214 -0.047309928 0.15077673 -0.16560529 -0.023279846 -0.19749244 -0.07632218 0.112596475
0.11374656 -0.15671712 0.078834705 0.10250239 -0.15327102 -0.1323653 0.1370759 0.05219601
-0.21216363 -0.029192822 0.046797115 -0.17995995 0.39491662 0.29047474 0.34260368 -0.09132982
-0.20736985 -0.030581493 0.14681078 0.159677 0.057799663 0.11023009 0.095020354 -0.09921894
-0.11374748 0.056980383 -0.24583668 -0.13983455 -0.16970263 0.057318702 -0.109390005 0.041465525
0.09259584 -0.021740131 -0.18550968 -0.065191805 -0.11943052 -0.11483293 -0.2369618 0.081774905
-0.10128204 -0.15266049 -0.017773626 0.12826495 0.16153517 -0.26818013 -0.04719323 -0.067798205
-0.13572429 0.110902816 0.10499654 -0.005984301 -0.14216675 -0.14178266 -0.13620992 -0.01486674

bias f4 [32]
00000000: e37b 08bc 7cd4 01be eadf 1e3e 72a1 23bd
00000010: 6e5e e1bc 3ecd 1f3e 3592 a33d 2b4a 003e
00000020: e07c 973d b326 6abe 8e66 55be c55a a2bd
00000030: e0ae a8bd fad1 47bc 5442 303e ce4f b1be
00000040: da4f dbbd 6fd2 edbd e622 4f3d 91dd eb3c
00000050: 5a87 eb3d 19ac 5dbd abae 2ebe 319f 723e
00000060: 2b99 213e 4f87 05be ae25 9fbd f66b 193e
00000070: e13e a9bd c095 7ebe f3e1 2c3d f1db 373b
-0.008330318 -0.12678713 0.15515104 -0.039948888 -0.027510848 0.15605637 0.07986871 0.12528293
0.07396865 -0.22866325 -0.20839903 -0.07927469 -0.0823648 -0.012196058 0.17212802 -0.346312
-0.1070859 -0.11612403 0.05057039 0.028792175 0.11500426 -0.054119203 -0.17058818 0.23693539
0.15781085 -0.13039897 -0.07770859 0.1498259 -0.08263946 -0.24861813 0.04220767 0.002805468

weight f4 [32, 32]
00000000: 72f2 8f3d f17c 7dbe d12a 9ebd f19b b33d
00000010: 49c0 283d 612a 67bd b7ec 68bc 288e 2b3d
00000020: 9164 083e 2df7 e53d f9bb 683e bd53 723e
00000030: e62f 19be 08ff 133e 7523 22bd 700b c7bd
00000040: df72 193e 3b1a 2fbd aaaa d2bc c4d0 d9bd
00000050: 7960 14be ede0 20be df2c ab3d 1482 073e
00000060: af3a 4abd 2ba0 0cbe ae9d 1c3e 2a17 c73d
00000070: 17e2 2d3d 0589 3cbe 78a0 a83c 7da0 c1b8
00000080: 31a6 d53d 8c9e 633d 47fb 1d3d 8b9e ebbb
00000090: 7ac5 813c 00d7 d13c 5f82 013e e3ae b53c
000000a0: f643 93bd c42c ddba cfe8 adbd bd70 103e
000000b0: 5c1d 20be 9793 df3d 017e a73d 4fbe 40be
000000c0: 79e1 23be dd4c 55bd 3200 053a 028e 7b3d
000000d0: 4cd4 60be acd7 c4bd a8b1 f6bc f6f4 6dbd
000000e0: 1d82 6cbe b2c2 0cbb 715d e83b 68b1 aebc
000000f0: b3de 233d 1215 eebb 072a 863d 8840 d13d
00000100: 08eb 603d 6726 583d 9d86 863d bad8 933d
00000110: 837b 863e a69f 243c 1354 48be 1a6e 083e
00000120: f514 773e 4228 8e3d d26a 97bd 99f1 c93b
00000130: 4ff9 553e c8c1 163e 44dc 95bd 8d59 1e3e
00000140: 160e 493d ff6a 06be 7223 5c3e 92ee 1c3e
00000150: 704f 13be a83b c03c df92 853e 990c 4fbe
00000160: a5be d23b 5dfa e9bd 10c7 5f3d a6ac 9d3d
00000170: b7ff 1c3e ec65 b53c 5a84 8e3e 4741 0ebe
00000180: f85a 3cbd 4114 80bd 0af0 35be a12e 413e
00000190: 9093 a53c ca74 823e 42ac 383e 2f0b b6bd
000001a0: 05ca d8bd b6c5 67be 597d 813e 96d6 a4bd
000001b0: f51f b6bd 2de1 2d3c 0769 263d 5e83 2fbe
000001c0: 20a4 0c3c f328 6e3e 29df c43d 9b50 80be
000001d0: b0da 0e3e a081 b73d c025 53be 31e2 b5bd
000001e0: e86d 8ebc 3ade 473d 6904 10be 2014 76be
000001f0: 20be a63d 98f0 57bd 4b8c ccbb e4ab c5bd
00000200: 6cd1 033e b241 3e3e 1123 e13c f084 b3bc
00000210: 574c 803e 299d 8bbe 5a33 cbbc aac8 f3bd
00000220: d60e d6bb aabf c5bd d36c ee3b b207 543e
00000230: 166b 3f3d c022 053e 238f 0abe 4118 3ebd
00000240: a913 cebd 6d0d a0bd b845 443e 8793 8d3e
00000250: 4282 98bd cd9b 253c 230e 963e f0bd 47be
00000260: f266 6cbe e302 4dbe 72a9 a93d bd88 04be
00000270: 8108 c5bd e7d7 ad3d b4b0 4e3e 5217 b43d
00000280: 94f7 1fbe 2dc7 4b3e 76f7 583e a0ab 90bd
00000290: 690a 10bd fda3 1dbe 622a 11be bc4c 2dbe
000002a0: 52e5 263e f32d 4e3e 50e1 9f3c 4fcc 123e
000002b0: acd2 9dbc df0c 1c3e 2ece 0d3e a7a9 403e
000002c0: 7ef2 473e d3ed cdbd 6f3d 183e 1103 e63d
000002d0: 3568 edbc 37bc 1f3e 3749 de3d f43e 243d
000002e0: 971a 66bc e5a8 0d3d eb30 a8bd 2ac1 8c3e
000002f0: 0366 503e 6f37 94bd fdb1 81bd 84d1 d4bc
00000300: cbdb acbd cf7f 083d 096a e5bd 579e 963d
00000310: edaf 44bc 47f7 80bd 5806 10be 380b 153d
00000320: 4031 47be 281d 9abd 59b0 2fbe 125b 1fbe
00000330: 9dc1 24be cab9 2c3d 9708 0bbe f122 ef3d
00000340: fdc9 2ebe a321 56be 2414 d83c 56cc 97bd
00000350: 4102 a23d bfec bdbd ff69 b73c 8ec4 703d
00000360: 68eb 02be 108b 34be f35a d03d 8214 8b3d
00000370: 458f 73bd cdd1 4a3d ec88 4bbe f942 103e
00000380: 58fc 57bd fc25 a13c 1e6a 79bf 89e8 07bd
00000390: 2a87 7ebe 96ed ca3d 6640 0a3e 8855 563d
000003a0: 7e34 42be 7fbc 1dbe d507 f43d 8e4c 9bbc
000003b0: 9e94 1cbe 4271 bc3d 29d8 05bc be93 eebe
000003c0: f84b 3a3d b4ea 8a3e 74d9 e53c db67 aa3d
000003d0: bbd6 a4bd ca93 e83d 0717 d03d b6c3 3ebe
000003e0: 9655 fd3d d2e4 313e 38b5 8ebc 8677 a1be
000003f0: 35b9 43be 8acd e43d 9fb0 0f3e 6570 633c
0.07028665 -0.24754693 -0.0772301 0.08769978 0.041199002 -0.0564369 -0.0142165935 0.041883618
0.13319613 0.11228786 0.22727956 0.23664756 -0.14959678 0.14452755 -0.039584596 -0.097189784
0.14985226 -0.042749625 -0.025716145 -0.10635522 -0.14489926 -0.15710802 0.08358168 0.13233215
-0.04937237 -0.13732974 0.15294525 0.09721215 0.042451944 -0.18411644 0.02058433 -9.2328504e-05
0.10432089 0.055571124 0.038569715 -0.0071905307 0.015841234 0.025615215 0.12647389 0.022178119
-0.07190697 -0.0016874303 -0.0849167 0.14105506 -0.156362 0.109168224 0.0817833 -0.18822597
-0.1600398 -0.052075256 0.00050735765 0.061414726 -0.21955985 -0.09611449 -0.03011401 -0.05809494
-0.2309651 -0.0021478352 0.007091217 -0.021324828 0.040007304 -0.0072656954 0.06550985 0.102173865
0.054911643 0.052771 0.06568644 0.07219072 0.26266107 0.010047829 -0.19563322 0.1332325
0.24129088 0.06941272 -0.07393421 0.006162834 0.20895885 0.14722359 -0.07317403 0.15463848
0.0490857 -0.13126753 0.21497896 0.15325382 -0.14385772 0.023465946 0.26088616 -0.2021965
0.006431418 -0.11424706 0.0546332 0.07698946 0.15331922 0.022143327 0.2783535 -0.13892089
-0.045985192 -0.06253863 -0.17767349 0.18865444 0.020211965 0.25479728 0.18034461 -0.08888852
-0.10585407 -0.22634014 0.25290945 -0.080487415 -0.08892814 0.010612768 0.040627506 -0.17139956
0.008584052 0.23257808 0.09612877 -0.25061497 0.1395061 0.08960271 -0.20619869 -0.08881033
-0.017386392 0.048795916 -0.14064182 -0.24031115 0.08141732 -0.052719682 -0.00624231 -0.09651926
0.12872857 0.18579748 0.027482541 -0.021913975 0.25058243 -0.2726834 -0.02480476 -0.11903508
-0.0065325303 -0.09655698 0.0072761565 0.2070606 0.046732984 0.13001537 -0.13531165 -0.04640985
-0.100623436 -0.07815061 0.1916722 0.27651617 -0.0744672 0.010107947 0.2930766 -0.19506049
-0.23086146 -0.20020632 0.08284272 -0.12942787 -0.096207626 0.08488446 0.20184594 0.087935105
-0.15621787 0.19900198 0.21188149 -0.07063985 -0.035166178 -0.15394588 -0.14176324 -0.16923803
0.16298416 0.20134716 0.019516617 0.1433575 -0.019265495 0.15239285 0.13848183 0.18814717
0.19526097 -0.10055127 0.14867185 0.112310536 -0.028980354 0.15599142 0.108538084 0.0400991
-0.014044425 0.0345849 -0.08212455 0.27491122 0.20351414 -0.072371356 -0.06332777 -0.025978811
-0.0844036 0.033325013 -0.11201865 0.0735442 -0.012004835 -0.062971644 -0.1406492 0.036387652
-0.19452381 -0.07525092 -0.17157115 -0.15562084 -0.16089483 0.04216937 -0.13577496 0.116765864
-0.1706924 -0.20911269 0.026376791 -0.07412021 0.07910586 -0.09273671 0.02238941 0.0587812
-0.12785113 -0.17631173 0.10173597 0.06791021 -0.059462804 0.049516488 -0.1987645 0.14088048
-0.052730888 0.019671433 -0.97427547 -0.033180747 -0.24856248 0.09908597 0.13501129 0.052327663
-0.18965337 -0.15403937 0.11915556 -0.018957403 -0.15291068 0.0920129 -0.008169212 -0.46597093
0.045482606 0.2713219 0.028057791 0.0832059 -0.08048769 0.113563135 0.10160642 -0.18629345
0.1236984 0.17372444 -0.017420396 -0.31536502 -0.1911362 0.11172016 0.1403222 0.013881777

bias f4 [32]
00000000: d0a1 ccbd b4ce 7abe 9250 c53d e1bb bb3d
00000010: 0a12 413e 07ba 383e a9d6 51be 70ca e23d
00000020: f4bb a33d 1baf 823d 424f b73d 57fc 133e
00000030: 0dee b03d d40c 973b 8f8c a0be 5751 3f3d
00000040: 941d 3abe a5c6 013e f734 0b3e 6f1c 52bd
00000050: 45d9 2b3e ba24 6cbd d3de 41be 5ff2 ad3d
00000060: 33fe ff3d 9f09 293e 0f0d 1e3d 88c9 0f3e
00000070: 5575 943d 5dd8 f53c 5f14 88be bc05 f5bd
-0.09991801 -0.24492913 0.09634508 0.091666944 0.18854538 0.18039714 -0.20492043 0.11073768
0.079948336 0.06381055 0.08950664 0.14451729 0.086391546 0.0046096835 -0.31357238 0.04670843
-0.18175346 0.12673433 0.13594423 -0.051296648 0.167821 -0.057652213 -0.18932657 0.08493494
0.124996565 0.16507576 0.038586672 0.14041722 0.07248942 0.030010397 -0.26578042 -0.11963984

weight f4 [1, 32]
00000000: ccc6 bebc 5555 923d 5971 c9bd 0a19 b53d
00000010: f8b1 76be 5e1c 9cbd 1514 613b 11c9 1b3e
00000020: 96d7 d43c 7d7e 423d e1c9 193e c7f3 40bd
00000030: fe3c 0e3e 9a92 9a3e 0f26 b8be dfc0 12be
00000040: 374c fb3d 6117 a73d 371f 953d 762f f7bd
00000050: d948 07bb 7470 c93c 8113 9b3c 174e b9bb
00000060: c2e8 583e 9f43 c6bd c7eb 383d 002d 55be
00000070: 22e8 213e f1cb e0bc b7ba 933b 3d46 693d
-0.023288153 0.07145182 -0.098360725 0.088426664 -0.24091327 -0.07622598 0.0034344245 0.1521342
0.025981706 0.04748391 0.15018417 -0.047107484 0.13890454 0.30189973 -0.35966536 -0.14331387
0.12270396 0.08158756 0.072813444 -0.12069599 -0.0020642786 0.024589755 0.018930199 -0.005655061
0.2118254 -0.096808665 0.04514673 -0.20817947 0.15811208 -0.027440997 0.004508342 0.05695175

z0 f4 [2]
00000000: 0000 0000 0000 0000
0.0 0.0
