saved_models/sonode/2/model.pth (torch, 13429 bytes, 8 tensors)

weight f4 [32, 3]
00000000: 5ab9 de3e 1da6 cdbe cb4c 153f e0f3 a43e
00000010: afab a63e 6660 55bf 322b adbe a33c 623e
00000020: 72f4 1cbf 28b7 023f 8b8b 693d d732 1b3d
00000030: 51e0 0cbf 6751 843e 983c 98bc 8350 f93c
00000040: 2ec5 f63e 424e cb3d e6c0 15bf 51df 193f
00000050: ab7b c33e 2572 b3be 94a3 35bf 6a3e 973e
00000060: 59c8 163f 6bf8 d3be 4f0a 853e 345d 1e3e
00000070: c7d1 8ebe 26cd 6fbe bd79 8abe e226 4ebe
00000080: 9b15 32bf 377f cdbd 244a f93e f072 a03e
00000090: ee25 f63e 80c8 11bf 8d64 acbe bd20 013f
000000a0: 8b04 5f3c 222d 7cbe 1d45 26bf 11a1 7a3e
000000b0: 3c56 643e 6bab d53e 6bf8 e23e 175d 643e
000000c0: 6695 f13e 5edf b0bd c8fb 2a3f 78c4 d5bb
000000d0: 25af a2bd cf10 7fbe 22e4 bd3e a27a 9b3e
000000e0: e599 f33e 0467 92be 05c6 8fbe 4252 e33e
000000f0: 8544 44be 11c5 67be fbad 35be 0a84 63bd
00000100: 8999 cdbe fceb df3e 2b7e bb3d 8d49 a43e
00000110: 0bd2 e33e 0a2e fdbe 6e88 813e aafc 86be
00000120: e450 09be 877c d43e a7ff d03e 88bb 163f
00000130: a145 753e 30f3 823f 7e42 2abe a957 c2bc
00000140: b4f2 ddbe 45c4 f33d a8f0 69bc 82f6 553e
00000150: 6a67 ec3e d2e9 a0be d0e0 04bf 43f6 6ebe
00000160: 53e2 9dbc 687b b2be fe9f a2be f75a 48bd
00000170: c24a 3dbf ca64 0d3e ae7d d0bd 87df a5be
0.43500787 -0.40165797 0.583203 0.32217312 0.3255286 -0.8335022 -0.33822018 0.22093444
-0.61310494 0.51060724 0.057017844 0.03789028 -0.5502978 0.25843355 -0.01858358 0.030433899
0.4819731 0.09927036 -0.58497465 0.6010638 0.3818029 -0.35048023 -0.70952725 0.29539806
0.58899456 -0.41400465 0.25984427 0.15465242 -0.27894422 -0.23418102 -0.27046004 -0.2013202
-0.6956422 -0.1003403 0.48689377 0.3133769 0.48075813 -0.56946564 -0.33670464 0.5044058
0.013611923 -0.24626592 -0.6494921 0.24475504 0.22298521 0.41732344 0.44330153 0.22301136
0.47184294 -0.08636354 0.6679044 -0.006523665 -0.079435624 -0.24908756 0.37088114 0.30367
0.4757835 -0.2859422 -0.28080764 0.44398695 -0.19166763 -0.22633769 -0.1774215 -0.055545844
-0.401562 0.4373473 0.09154924 0.32087365 0.44496188 -0.49449188 0.252994 -0.26364642
-0.13409764 0.41501257 0.40820047 0.588799 0.23952343 1.0230465 -0.16626927 -0.02372344
-0.4334923 0.1190267 -0.014278568 0.20894817 0.4617265 -0.3142839 -0.51905537 -0.23336129
-0.019272959 -0.34859776 -0.3176269 -0.048914876 -0.73942196 0.13807979 -0.101802215 -0.323971

bias f4 [32]
00000000: a443 13be a784 83bd c6b2 1e3f 495d a33e
00000010: e51a 42be fe01 1bbf e697 87be 9560 c6be
00000020: 56d7 983c e4ee bebe c8ff d4be 49b3 353e
00000030: 7032 a7bc 148c 22be f942 a8be 5739 be3e
00000040: c22c debe 7d2c e1bd ee0c a03e 2909 903e
00000050: 2a5c 32bf b165 d6bd ff42 d43e 56a8 d93e
00000060: 3ab4 4c3d 0213 78be 6f4d 013f d310 9bbe
00000070: 6f64 9bbe 7d52 043f cc16 583e dc19 c7bd
-0.14381272 -0.06421786 0.61991537 0.31907108 -0.18955572 -0.60549915 -0.26483077 -0.3874556
0.018657368 -0.37291634 -0.41601396 0.17744173 -0.020409793 -0.15873748 -0.32863596 0.37153122
-0.43393523 -0.109948136 0.31259865 0.2813199 -0.6967188 -0.10468615 0.41457364 0.42511243
0.049976565 -0.24226001 0.5050878 -0.30286273 -0.30350062 0.5168837 0.21102446 -0.09721729

weight f4 [32, 32]
00000000: 6e84 a2be ff1d 61be 0319 a13d f26e a1be
00000010: 3064 cfbc 28fb 0b3d 1f85 a7be b55f 98bc
00000020: 6151 84bd f957 bfbe 2a4d e23d fcb7 a1be
00000030: 2ece adbe 0bc2 4dbd 6995 91bd e2fb 86be
00000040: a84f 32be cd92 943e eeda 39be 5620 76be
00000050: 5091 753c 6ec2 91be 1b6d a5be dee4 26be
00000060: fc1c 36be 8ea4 dbbd 2ed8 83be beea 32be
00000070: 74d7 83be 58db b8be b6bf 4abe 9d89 dcbd
00000080: abfd 32bd d278 293d 1cdc ddbc 5b04 813c
00000090: 65f1 223e 333f 0abd d8fd f03c dce5 92bd
000000a0: ef85 4d3d 13b6 b43d 2275 fbbd 3d68 e43d
000000b0: 5983 dcbb 6984 adbd 18ac 25be 3a66 72be
000000c0: a5b1 4bbe 82ea 54be 1236 36be 54dc 52bd
000000d0: 4342 16be 7254 17be 3d49 a3bd cc4c 18be
000000e0: 67b9 9bbd fc44 f5bc 9069 093d 1233 e33d
000000f0: 6a3e 153d 8d07 23be 28dd 73bd 80aa 843b
00000100: b2b3 b63d 67d6 d23c b018 23be 6b7e a5bd
00000110: 944b 7a3d 5ee5 af3a 6487 86bd 453f a5bd
00000120: c4ef 2bbe 1f17 5dbd b50f f7bd 47f2 2bbc
00000130: b813 513d f8ec 7dbd 46fe 5d3d 7aa1 823d
00000140: 7d42 583d 62e5 69be 7b4b cd3d df9b 54bb
00000150: 0274 33be 7b47 7c3b b7c7 39be 341e d43d
00000160: dc44 a63d 87ec 34be 9c94 3ebe 1467 20bc
00000170: 15e6 dabd 1eb4 8e3c 7af2 a5bd 2f5b 9b3d
00000180: d3f2 9d3d c417 823d c25c fbbd 012e 913d
00000190: d981 493d fe74 6d3e 5d90 50be f687 1dbe
000001a0: 9b90 c73d 7493 223e eda7 6dbe 9357 4cbc
000001b0: fee5 a3bd fd46 633e 21d5 febd 530b 2a3e
000001c0: 9ee9 203e 65d6 b63c 7275 c03d 173d c73d
000001d0: e0a7 dcbd 3394 6a3d 8106 f13c 9923 8abd
000001e0: 859c d53d 18f7 c9bd d4dd babd a589 42be
000001f0: b2ed a93b 06a6 253c b6e5 d3ba 0341 4abe
00000200: 7b3a bcbd 38b2 3a3e cb36 5abc 58f2 fbbc
00000210: 539b 4cbb eb32 953d 6582 57bd b626 cf3e
00000220: 5059 6abd 68de 573e 4bf2 55bc ae08 f2bd
00000230: e5d5 ffbc 7bad 4a3e 80d2 963e 83bf bb3d
00000240: 8354 213e f381 c13c b692 203e 2b82 61be
00000250: bdcb d63c 297b adbe 6ab8 fcbd e32a 063e
00000260: 1867 7e3d b9ad 013e dcd4 98bc b457 883e
00000270: 8e99 503e 25ad 0abe 03f0 31be b82d 19bd
00000280: 2554 02be 038e 4cbc cdeb 6cbe 2be9 b23b
00000290: 596e 64be a9f3 1b3d d920 babd 2e7d 68be
000002a0: c776 d1bd 476e b7bd 31b1 863c 1266 15be
000002b0: 6af6 35bd 6bc5 0ebe fd5f d6bd 2725 c03d
000002c0: 6629 833c 9444 c5bc e417 65be 55c5 5e3c
000002d0: bdb9 ee3d 8c4c 81bd 7791 a33d cb0f 033c
000002e0: 4850 c13d 0a04 aabd b25f 0cbe 5a88 99bc
000002f0: e62c dcbd 087e b2bd 87f0 dfbd c8db 10be
00000300: e616 f3bc 2d1e c3bd 2546 3abe 5200 ce3d
00000310: dc8b 63be b15e 1dbe 03bc 253e 161f 2fbe
00000320: 2043 59be e25c 2d3d e529 303e f205 793d
00000330: b3b3 3abe d5d5 6dbe 696b 3fbe 83be 8abd
00000340: e28d 90bc 951d 82bd 6b87 7bbc e5d3 2ebe
00000350: 00a8 d339 af13 f13d 06fd fdbd 3852 44be
00000360: 78d6 b03d bf1e 6c3d b631 963d 6c45 bd3d
00000370: 5106 6ebd f6e5 973c 4911 3ebd c31d f3bb
00000380: 2797 043e e8d0 163e 7c2a 56be 8393 493d
00000390: 1e83 cb3d 67c1 e13d ba30 143e ebbd d83c
000003a0: 6dee 273d 7b9e eabd 06e1 28be b243 a23b
000003b0: 5b09 4d3e 6a4d dbbd 41e1 bebd faec 133e
000003c0: 32cf 5c3e f625 c4bc 5b43 8d3e 54d5 8fba
000003d0: e00a 45be bba8 ad3d fccb 1b3e 8c03 d8bd
000003e0: 9ecf f83d cc2c 5c3e a307 2fbe e847 a0be
000003f0: 757a 47be 4b41 d7bd 27b2 53bd ba56 60be
-0.3174166 -0.21984099 0.07866099 -0.31529957 -0.025316328 0.03417507 -0.3271875 -0.018600324
-0.06460834 -0.37371805 0.11049874 -0.3158568 -0.33946365 -0.050233882 -0.07108576 -0.26364046
-0.17413199 0.2901825 -0.18149921 -0.24035773 0.0149882585 -0.2846865 -0.32309803 -0.16298243
-0.17784494 -0.10724746 -0.2575087 -0.1747236 -0.25750315 -0.36104846 -0.19799694 -0.10768435
-0.043698948 0.04137499 -0.027082495 0.015749147 0.15912397 -0.033751678 0.029417917 -0.071727484
0.050176557 0.088237904 -0.12278201 0.111526944 -0.006729525 -0.08472521 -0.1617893 -0.23671809
-0.19891985 -0.20792583 -0.17794064 -0.051479653 -0.14673714 -0.14778307 -0.079729535 -0.14873046
-0.07603722 -0.02994012 0.033547938 0.11093725 0.036436476 -0.15920849 -0.059537083 0.0040486455
0.08920993 0.025737 -0.15927386 -0.08080753 0.061107233 0.0013419797 -0.065687925 -0.08068708
-0.16790682 -0.053977128 -0.12063543 -0.010494775 0.051044196 -0.06199357 0.054197572 0.063784555
0.052797783 -0.22841409 0.100241624 -0.003244154 -0.17524722 0.0038494754 -0.18142591 0.10357323
0.08118603 -0.17668353 -0.18611377 -0.009790201 -0.10688416 0.017419871 -0.08102889 0.07585751
0.07712331 0.06352189 -0.122735515 0.07088853 0.049196098 0.2318916 -0.2036757 -0.15383896
0.09744378 0.15876561 -0.2320859 -0.012472051 -0.08002852 0.22195049 -0.12442995 0.16605882
0.15714118 0.022319028 0.09397401 0.09728449 -0.10774207 0.05727024 0.029422047 -0.06745071
0.10430244 -0.098615825 -0.091243416 -0.1899782 0.005185806 0.010110384 -0.0016166482 -0.19751363
-0.09190842 0.18232048 -0.013318728 -0.030755207 -0.003122051 0.072851025 -0.05261459 0.40459222
-0.05721408 0.21080935 -0.013058255 -0.11818062 -0.031229923 0.1979274 0.29457474 0.09167387
0.15754895 0.023621535 0.15680966 -0.22022311 0.026220197 -0.33883026 -0.12339862 0.13102297
0.062110037 0.12663926 -0.018656187 0.26629412 0.20371076 -0.13542612 -0.17376713 -0.037397116
-0.12727411 -0.01248503 -0.23136826 0.0054599247 -0.2230772 0.03807417 -0.090882964 -0.22704002
-0.10227733 -0.089565806 0.016441913 -0.14589718 -0.044424452 -0.13942496 -0.10467527 0.09382086
0.016010951 -0.024080552 -0.22372395 0.013596852 0.116565205 -0.06313428 0.079867296 0.007999371
0.094391406 -0.08301552 -0.1370838 -0.018741775 -0.10750751 -0.08715445 -0.10934549 -0.1414634
-0.029674005 -0.0952724 -0.1819082 0.10058655 -0.22221321 -0.15368153 0.16185002 -0.17101702
-0.21217012 0.042324908 0.17203481 0.060796686 -0.18232612 -0.23226102 -0.18693317 -0.067746185
-0.01764578 -0.063532986 -0.01535211 -0.17073019 0.00040370226 0.117713325 -0.12401776 -0.19171989
0.08634657 0.05764651 0.073337 0.09241757 -0.058111493 0.018542271 -0.046403203 -0.0074193194
0.12948285 0.14728129 -0.20914644 0.049212944 0.09937118 0.11023217 0.14471713 0.026457747
0.040998865 -0.11456009 -0.1649209 0.0049519176 0.200231 -0.10708125 -0.093203075 0.14445868
0.21563414 -0.023943882 0.2759045 -0.0010973611 -0.1924243 0.084794484 0.15214533 -0.105475515
0.12148975 0.21501464 -0.17092757 -0.3130486 -0.19480307 -0.105105005 -0.05168357 -0.21908084

bias f4 [32]
00000000: 7ed7 bdbd 1917 b4bd d73a 18be 9c15 643c
00000010: 07c1 073e 26be cc3d 0647 cbbd 8359 8e3d
00000020: 78ae bdbe b907 4d3d 88df fbbc 9c7b 3cbe
00000030: c741 103e e4ce 413e ec95 9c3c eb2b 523d
00000040: 766b 3a3e 4891 4e3e e134 4bbd 3ece 2abe
00000050: d07c 433c 3817 33be 41ef 053e 3a2c a23e
00000060: 8c8d 9a3d 40a1 1b3b 4576 5abe ddc1 3fbe
00000070: 56ff f5bd f829 7cbc 6adf 4ebe a184 053e
-0.092696175 -0.08793468 -0.14866196 0.013921168 0.13257228 0.099972054 -0.09925656 0.06950667
-0.37047172 0.050056193 -0.030746236 -0.18406528 0.14087592 0.18926579 0.019114457 0.051311415
0.18205056 0.20172608 -0.049610976 -0.16680238 0.011931613 -0.17489326 0.1307955 0.31674367
0.07546529 0.0023747236 -0.21334179 -0.18726297 -0.12011592 -0.0153908655 -0.20202413 0.13038875

weight f4 [32, 32]
00000000: 1566 84be c6e3 ad3d 04b6 edbd d4dc d9bd
00000010: c99c ddbc ee14 503d 9fe7 1fbe 1a19 a2bc
00000020: 4efb 373e a830 253d 0cdd 813d 4cb2 f23d
00000030: ca2d 883e cac5 cabb 78dd f43c f670 61bd
00000040: 512e 52bf 2f94 133f e31f c8bc a864 273d
00000050: c8e9 cc3f 67df 083e 555f 7c3e 5d3a 813f
00000060: 59cc aebd 5d17 0c3e f8de b0bc d97f bc3d
00000070: 9b08 263e 6de9 33bd cf1b b9bd c560 0abe
00000080: 10b7 0dbe 21cf abbd 8222 48be 5b45 38be
00000090: e47f 893c 4f99 39be 26c3 db3d d651 82bc
000000a0: 5abd 883d 1f0e a93d 21c7 0b3e 6120 4dbc
000000b0: eeac febd 0c95 48be d0f2 043d d35e 99bd
000000c0: ae2f eabd 1d8e a9bd cade 2abe 5ac0 8f3d
000000d0: a48a 50be d322 b6bd 8936 b8bc 4bdd acbd
000000e0: 965d d23d 0482 023d 8df6 3cbc 7183 a9bd
000000f0: 5024 513d d000 cdbd a8fc 47bd 352a 37bc
00000100: 19ed 503e ec35 92bd 6f66 36bd 8b8a 28be
00000110: c9ce 13bd c373 2d3e 2c21 b7bd 2cfc 1dbd
00000120: a2e8 e2bd 1c10 c13b 00e9 513d 5fbb a6bc
00000130: fa42 20be afa1 163e ff41 84bd 9c70 0f3e
00000140: f1fe 98bd 89e7 213d 9289 68bd 9056 7d3d
00000150: 4386 10be a8d4 96bd d9fc b0bd b14c 97bc
00000160: 5e6a d5bd 6d59 0dbe b31a 093e be96 d63d
00000170: feb7 a13d 1319 173a b0c5 51bd ce89 0c3e
00000180: ba5c d43d 729e bb3d 4c5f 44bd a6c4 853e
00000190: 7f0e 0ac0 3983 33be 827a c83d 7c75 8340
000001a0: e3ce 3bbd cec5 cf3e 807f 1cbc bbfc 343e
000001b0: 0373 09bf df70 bc3e f0d4 c8bd dc65 303f
000001c0: c8e6 793f a34b d9bf 097a 67be 6741 0d3e
000001d0: acd5 1ebe 931e 113e 3e23 293e 92dd a8bd
000001e0: 6458 25be 3fdf 9cbd 1009 bdbd 4c5c 0bbe
000001f0: 9db2 29be 0aaf 25be 16e9 aa3d 43a5 ca3e
00000200: c56e 81bd 7cec 633c 43fc 20be fcce 1dbe
00000210: 7bb6 c3bd d701 8e3c fe8b b8bd 6c78 dc3c
00000220: add2 93bd d166 45be 609a dfbc 7800 09be
00000230: cecf 5cbd 4999 2fbd bb0a e63c 228c afbd
00000240: 059c a43d dd0d 0bbe cb18 4e3e d632 28be
00000250: 1b54 3bbe 2d5f 96bd 5127 0cbe e01f 60bd
00000260: 8968 df3c ed11 2b3e 3c10 94bd 8626 02be
00000270: d463 debd 2164 19be 8074 c3ba 9728 2fbd
00000280: d4e1 433e 6db3 0b3e a586 5d3d a8d3 0abd
00000290: 2ffc b5bd 24cf 8cbd 0e38 623d 8683 ed3d
000002a0: 1732 ecbb 8004 f83d f2a9 993d 182d b2bd
000002b0: 98ce 9f3d d675 dfba 3274 143e c109 933d
000002c0: ff6e 173e 7a0c 13be 0c35 303d 29d8 b4bd
000002d0: 3274 df3d 038f 1a3e 0e00 d83d 25ca 4dbe
000002e0: 004d e63c 208a eebb b3b4 813c 87ae efbc
000002f0: 6f2d 1abe b3f6 e0bc 5823 3bbd 27b4 d9bc
00000300: 9604 de3d bdb0 dabb 0e53 1cbd 58b5 55be
00000310: 8350 393d ba61 29bd 78f2 3bbd d40a 7a3d
00000320: c0d5 473c 67d8 053c f83b 07be fccb 1cbd
00000330: bbe7 6ebe db80 af3d e38e 6dbe 0bdb 0dbe
00000340: 84e6 10be 0efd fa3f 40da 673b dc60 45bd
00000350: 1104 ef3c 01e3 92bd 6a9d 4dbe 34ef fa3f
00000360: d2bd 973d f8c1 6b3d 12cb 89bc 807f 843d
00000370: e20e 913d f6cf a83d 454a 303e a819 a6bd
00000380: 00df 41bc 0eee 1dbe 2086 c0bd 1884 cb3d
00000390: d8d9 7b3d a388 13be 938e 613b 2957 29bd
000003a0: 5013 30bd 5e24 3ebe 92f7 bf3d d289 ef3c
000003b0: 2a57 37be 79c0 b13d ce6c 53be 04a3 863d
000003c0: 69e8 27be cdf1 1dbe 0bea 0d3e b59f e3bd
000003d0: 243d 313d 5805 353d fd18 a1bd ac0b 4c3d
000003e0: 3dc1 183e def1 f5bd 9e2d b83d faae e3bd
000003f0: 0982 99bd 981f 76bd 332c 1a3e 0976 b03b
-0.25859132 0.0849071 -0.11606982 -0.10637823 -0.0270523 0.05080121 -0.156157 -0.01978736
0.17966959 0.040329605 0.063409895 0.11850414 0.26597434 -0.006188129 0.02989076 -0.05503937
-0.82101923 0.57647985 -0.024429267 0.040867478 1.6008844 0.13366471 0.24645741 1.0095936
-0.0853507 0.13680787 -0.021590695 0.092040725 0.1621422 -0.043923784 -0.09038507 -0.13513477
-0.13839364 -0.08389116 -0.19544414 -0.17995207 0.016784616 -0.18124889 0.10730581 -0.015908163
0.06676741 0.082546465 0.1365018 -0.012519927 -0.124353275 -0.19588107 0.032458127 -0.074887894
-0.114348754 -0.08279059 -0.1668655 0.0701911 -0.20365387 -0.08893361 -0.022486942 -0.08440646
0.10271756 0.031862274 -0.011533392 -0.082770236 0.05106002 -0.100099206 -0.048824936 -0.0111794965
0.20402946 -0.07139191 -0.044531282 -0.164591 -0.036085878 0.16938691 -0.08941874 -0.038570568
-0.110795274 0.005891813 0.051247597 -0.020353017 -0.1565055 0.14710115 -0.064579 0.14007801
-0.07470501 0.03952745 -0.056771822 0.06185013 -0.14113717 -0.0736478 -0.08641977 -0.018469186
-0.104206786 -0.13803644 0.13389091 0.104779705 0.07896422 0.0005763929 -0.05121392 0.13724443
0.10369249 0.091610804 -0.047942445 0.26126593 -2.1571348 -0.17530526 0.097889915 4.1080914
-0.0458516 0.405806 -0.009551883 0.17674534 -0.5369112 0.36804864 -0.098062396 0.68905425
0.9761777 -1.6976207 -0.22605146 0.1379448 -0.15511197 0.1417182 0.1651735 -0.08245386
-0.16147 -0.07659768 -0.09230244 -0.13609427 -0.16572042 -0.16180053 0.08345239 0.3957921
-0.06319956 0.013911363 -0.1572123 -0.1541099 -0.0955629 0.017334862 -0.090110764 0.02691289
-0.072179176 -0.19277503 -0.027295291 -0.13379085 -0.053909115 -0.042870793 0.028081289 -0.0857165
0.08037571 -0.13579507 0.20126645 -0.16425642 -0.18293802 -0.07342372 -0.13686873 -0.0547179
0.027271526 0.16706057 -0.07229659 -0.12710008 -0.108588845 -0.14979602 -0.0014912039 -0.04276332
0.19129115 0.13642664 0.054083485 -0.033893257 -0.08885991 -0.068754464 0.05522924 0.11597352
-0.0072081196 0.12110233 0.075031176 -0.08700007 0.078030765 -0.0017048668 0.1449745 0.07179595
0.14788435 -0.14360228 0.04301934 -0.08830292 0.10910834 0.15093617 0.105468854 -0.20096643
0.028112888 -0.0072796494 0.015833234 -0.029258026 -0.15056394 -0.027461385 -0.045688003 -0.026575161
0.108407184 -0.006673901 -0.038165145 -0.20869958 0.045242798 -0.041352965 -0.045885533 0.061045483
0.012196958 0.00816927 -0.1320647 -0.038280472 -0.23330586 0.08569499 -0.23199038 -0.1385309
-0.14150435 1.9608476 0.003537789 -0.048188075 0.029176744 -0.07172204 -0.2007958 1.9604249
0.07409252 0.05755803 -0.016820464 0.06469631 0.07082917 0.082427904 0.17215832 -0.08110362
-0.0118329525 -0.15422842 -0.09400582 0.09937304 0.06148705 -0.14407592 0.0034417256 -0.041342888
-0.042987168 -0.1856856 0.09373392 0.029240523 -0.17904344 0.08679289 -0.20646974 0.065740615
-0.16397251 -0.15424271 0.13858812 -0.11114446 0.0432712 0.04419455 -0.07866094 0.04981582
0.14917465 -0.12009023 0.08993076 -0.111173585 -0.07495505 -0.060088724 0.15055923 0.0053851646

bias f4 [32]
00000000: 01da 843e 04ab a0bd c131 17bd 2c71 fbbd
00000010: 2b8b 64bd ff7c 553d 7832 b4bd c4d0 7abd
00000020: b20e c23d 2053 043e 28e1 c2bd 4565 dd3d
00000030: 1643 bdbc 7d36 b5be 89b9 153d 2306 4cbe
00000040: c547 c4bd fa92 44be ddba f53d 13b6 cb3d
00000050: 0d9e 0dbe 9dda d53d 74e6 76bd caf3 abbe
00000060: 707e cebd 58f9 b83d 1278 f33d 83e2 693d
00000070: 6983 6e3c 4b40 0bbe 53a2 103d 50ca 7bbd
0.25947574 -0.07845119 -0.036912683 -0.12277445 -0.055796783 0.05212116 -0.08798689 -0.06123425
0.09475459 0.12922335 -0.095156014 0.10810331 -0.023103278 -0.35393134 0.036553893 -0.19924216
-0.095840015 -0.19196692 0.11998532 0.09946837 -0.13829823 0.10442088 -0.06027837 -0.33584434
-0.1008271 0.090319335 0.11888136 0.057100784 0.014557698 -0.13598745 0.035311054 -0.061472237

weight f4 [1, 32]
00000000: 613d 373f 0af1 c03d 8bae 95bb 10bb 98bf
00000010: cc46 dc3d cc6e 99bb aa7b b73c 6a05 533d
00000020: d996 e73c 6388 65bd 24fc fbbd 8c64 273d
00000030: ae71 d73c eb9c 8fbd 8b92 0fbe a39f 0b3e
00000040: 879f 16be 0dd0 20bd 16f0 163e 5b4c 773b
00000050: 3db2 22bd 8e7f ddbc 1a57 46be 132e 983c
00000060: 8957 6cbc 6eb0 9b3d cb87 943d ae2b 0abe
00000070: e822 fa3c 39cc 98bc ef76 03be 6aa9 1ebe
0.7157803 0.094209746 -0.0045679263 -1.1932087 0.10755691 -0.0046823975 0.022397835 0.051518835
0.028270172 -0.05603827 -0.123039514 0.040867373 0.026299324 -0.070123516 -0.14020745 0.13635115
-0.14709292 -0.039260913 0.14740023 0.003773472 -0.039720763 -0.027038362 -0.19369164 0.018576657
-0.014425167 0.07602011 0.07252463 -0.13493225 0.030534223 -0.018652068 -0.12838338 -0.15494314

z0 f4 [2]
00000000: 0000 0000 0000 0000
0.0 0.0
