saved_models/s3node/2/model.pth (torch, 13429 bytes, 8 tensors)

weight f4 [32, 3]
0.3407669 -0.5380493 0.5399018 0.8041143 0.22749445 -0.57051486 -0.29564667 0.44880655
-0.8156537 0.5633363 0.08118056 0.11934408 -0.44821352 0.084584706 0.45707855 0.03154456
0.49527165 0.23344305 -0.6477765 0.18739036 0.5795619 -0.30277082 -0.6428056 0.49319544
1.0053365 -0.22659834 0.07616063 0.2304163 -0.20201881 -0.11652433 -0.30250072 -0.113169126
-0.7614515 -0.106328264 0.23114735 0.5261753 0.5459551 -0.35514727 0.109503195 0.6885807
0.00022448595 -0.33626872 -0.55985457 0.122129716 0.5863354 0.4136661 0.40879446 -0.10324674
0.35643986 -0.55884767 0.7311212 -0.048191562 -0.08020294 -0.4949813 0.26403564 0.10305631
-0.01697589 -0.34670678 -0.42497653 0.7364022 -0.29758155 -0.18991807 -0.27263403 -0.112984985
-0.3698471 0.70247096 0.013858465 0.136479 0.6221487 -0.34465322 0.51153654 -0.6105246
-0.09928715 0.4510694 0.5678979 0.6876236 0.57931983 0.6206045 -0.18997055 0.032464612
-0.22684117 -0.052414857 -0.076146275 0.4883291 0.5902075 -0.05467231 -0.37272897 -0.20720334
0.101385 -0.2840952 -0.3903753 -0.19142805 -0.27940124 0.054273695 -0.31151596 -0.36676934
00000000: 0079 ae3e 99bd 09bf 0137 0a3f 6fda 4d3f
00000010: 4ef4 683e 430d 12bf 005f 97be f9c9 e53e
00000020: aece 50bf cf36 103f fe41 a63d ab6a f43d
00000030: 3e7c e5be bf3a ad3d 3306 ea3e de34 013d
00000040: 3f94 fd3e b20b 6f3e aed4 25bf 42e3 3f3e
00000050: 2b5e 143f c704 9bbe e88e 24bf 1d84 fc3e
00000060: deae 803f 6509 68be 1bfa 9b3d 40f2 6b3e
00000070: 05de 4ebe 4fa4 eebd 60e1 9abe 37c5 e7bd
00000080: 7cee 42bf a2c2 d9bd e4b1 6c3e 6db3 063f
00000090: b7c3 0b3f ddd5 b5be 3643 e03d d346 303f
000000a0: fd63 6b39 6a2b acbe a152 0fbf 251f fa3d
000000b0: 141a 163f 0bcc d33e 824d d13e 0773 d3bd
000000c0: 497f b63e a410 0fbf c22a 3b3f 8464 45bd
000000d0: 7041 a4bd 306e fdbe ae2f 873e 300f d33d
000000e0: 0611 8bbc 8d83 b1be 8696 d9be db84 3c3f
000000f0: 9c5c 98be e279 42be b096 8bbe ac64 e7bd
00000100: 995c bdbe 23d5 333f 9d0e 633c 27c1 0b3e
00000110: 2345 1f3f 6376 b0be 0ff4 023f 574b 1cbf
00000120: 1057 cbbd 92f2 e63e c261 113f 1a08 303f
00000130: 4e4e 143f f0df 1e3f a487 42be 9df9 043d
00000140: 0d49 68be f6b0 56bd 94f2 9bbd 4606 fa3e
00000150: d717 173f 12f0 5fbd 55d6 bebe 1d2d 54be
00000160: f0a2 cf3d ed74 91be 45df c7be b705 44be
00000170: ae0d 8fbe 184e 5e3d 057f 9fbe 31c9 bbbe

bias f4 [32]
-0.13168116 -0.34164152 0.29033378 0.21113569 -0.09354733 -0.5893825 -0.09269799 -0.5253707
0.3542296 -0.390938 -0.43738937 0.28102311 0.2886817 0.0012380771 0.094872996 0.5111141
-0.4660449 -0.05766758 0.50674635 0.40600398 -0.63000983 -0.24547939 0.3592732 0.17506166
0.05550809 0.023541493 0.45227042 -0.26065218 -0.16620094 0.36298096 0.03845196 -0.049556646
00000000: 6dd7 06be a3eb aebe a1a6 943e f433 583e
00000010: be95 bfbd c6e1 16bf 72d8 bdbd b27e 06bf
00000020: 955d b53e 0729 c8be 80f1 dfbe 43e2 8f3e
00000030: 16ce 933e f946 a23a c64c c23d 60d8 023f
00000040: 709d eebe d734 6cbd 21ba 013f c1df cf3e
00000050: 5348 21bf f35e 7bbe a8f2 b73e 5d43 333e
00000060: 735c 633d 17da c03c fd8f e73e 3474 85be
00000070: 9430 2abe a4d8 b93e cd7f 1d3d e9fb 4abd

weight f4 [32, 32]
-0.3406741 -0.23593971 -0.32955307 -0.31495738 -0.025316328 0.03417507 -0.14484632 0.17181002
-0.064952135 -0.16451517 0.3779232 -0.3236613 -0.33848754 -0.029520491 -0.07108576 -0.2539753
0.022029296 -0.093090445 -0.18113698 -0.24744269 0.0149882585 -0.09158948 -0.3465607 -0.14811586
-0.19573161 -0.12986495 -0.2592604 -0.1747236 -0.23913315 -0.36469203 -0.19953294 -0.10657643
-0.043698944 0.04137499 -0.027074052 0.015749153 0.15912397 -0.033751648 0.029417917 -0.071727484
0.05017656 0.08823792 -0.12278201 0.11152701 -0.006729515 -0.08472521 -0.1617893 -0.23671809
-0.19891985 -0.20786907 -0.17794062 -0.051479653 -0.14673714 -0.14778307 -0.07972952 -0.14873046
-0.07602403 -0.029940106 0.033547938 0.11093725 0.036436483 -0.1592067 -0.059537083 0.0040486455
0.09074667 0.02543744 -0.20659885 -0.07986945 -0.017913736 0.0013419912 -0.23093703 -0.24683464
-0.16768505 -0.05412637 -0.2170808 -0.0064006327 0.05110984 -0.062020622 0.029183123 0.06498795
0.05314458 -0.25111553 0.10237589 0.060395095 -0.29421732 0.047966577 -0.17587735 -0.004437612
0.15047322 -0.17593315 -0.17574751 -0.039277494 -0.1071921 0.031513687 -0.2342359 -0.031433355
0.106456324 0.06305395 -0.10491496 0.09557035 -0.0025306682 0.23227581 -0.28104708 -0.079050034
0.15377142 0.15971637 -0.29674265 0.025146618 -0.05220857 0.22639878 -0.1854569 0.19051512
0.17576542 -0.056417394 0.12978366 0.06530295 -0.09265939 0.14709873 0.07557377 -0.16431876
0.11462492 -0.091886245 -0.117567696 0.070252985 0.014959573 -0.045548454 -0.15439942 -0.2414485
-0.113822706 0.19917692 0.06727109 -0.003206845 -0.044224095 0.069483116 -0.12769549 -0.20873368
0.0058127292 0.20021415 0.102709725 -0.18970072 -0.008439521 0.21838719 0.15548311 0.13006496
0.1432849 0.11375689 0.207311 -0.16894834 0.031950068 -0.22568686 -0.05565953 0.21615942
0.02356755 0.11291879 0.039926466 -0.29296345 0.22568719 -0.08980967 -0.081287764 0.11961348
-0.12683776 -0.012960136 -0.24045809 0.0049552517 -0.22380567 0.038074188 -0.077096716 -0.22949722
-0.10228855 -0.08958032 0.0094582895 -0.15005164 -0.044582576 -0.13954295 -0.115710564 0.093440056
0.016070873 -0.03672487 -0.22355615 -0.011118749 0.11670871 -0.09239104 0.07824936 -0.0034477564
0.08152262 -0.08289441 -0.15011497 -0.019297685 -0.107619286 -0.09711197 -0.12061885 -0.1578349
-0.039379925 -0.09501258 -0.16683775 0.09698285 -0.239315 -0.15368114 0.16185002 -0.18006007
-0.21245313 0.04232625 0.17203481 0.044517294 -0.18213974 -0.2320541 -0.22657472 -0.07181517
-0.017587274 -0.0616243 -0.023238458 -0.14920881 0.00040370226 0.086031914 -0.13854353 -0.17896567
0.06541625 0.05561901 0.073582865 0.062002644 -0.058103867 0.009882173 -0.038971875 -0.0045160684
0.17429149 0.26253375 0.03606549 0.1497761 0.0729335 0.12655945 0.14073147 -0.06791257
0.23324612 -0.062076945 -0.019078609 -0.22930063 0.28966594 0.020500377 -0.094060436 0.12446704
0.2951532 0.20738746 0.19478427 -0.07842217 -0.05473346 -0.2822334 0.032417294 0.12868617
-0.09052967 0.06596154 0.028815724 -0.13458256 -0.0069648065 0.08453149 0.08702676 -0.00021075048
00000000: d66c aebe 2e9a 71be 2ebb a8be 1842 a1be
00000010: 3064 cfbc 28fb 0b3d 9852 14be f7ee 2f3e
00000020: a005 85bd aa76 28be 267f c13e efb6 a5be
00000030: 3d4e adbe f5d4 f1bc 6995 91bd 0d09 82be
00000040: c876 b43c 34a6 bebd f97b 39be 9e61 7dbe
00000050: 5091 753c 4493 bbbd 6770 b1be afab 17be
00000060: de6d 48be 51fb 04be c7bd 84be beea 32be
00000070: 52df 74be eab8 babe 5d52 4cbe be44 dabd
00000080: aafd 32bd d278 293d 67ca ddbc 5e04 813c
00000090: 65f1 223e 2b3f 0abd d8fd f03c dce5 92bd
000000a0: f085 4d3d 15b6 b43d 2275 fbbd 4668 e43d
000000b0: 4383 dcbb 6984 adbd 18ac 25be 3a66 72be
000000c0: a5b1 4bbe a1db 54be 1136 36be 54dc 52bd
000000d0: 4342 16be 7254 17be 3b49 a3bd cc4c 18be
000000e0: 7db2 9bbd f444 f5bc 9069 093d 1233 e33d
000000f0: 6c3e 153d 1507 23be 28dd 73bd 80aa 843b
00000100: 64d9 b93d 2e62 d03c a68e 53be 9892 a3bd
00000110: d4bf 92bc c1e5 af3a c27a 6cbe 38c2 7cbe
00000120: a1b5 2bbe 9db3 5dbd 6e4a 5ebe 66bc d1bb
00000130: 8d58 513d 5609 7ebd 7211 ef3c 6718 853d
00000140: 22ae 593d 3792 80be 73aa d13d d960 773d
00000150: a7a3 96be 9a78 443d 3119 34be 6369 91bb
00000160: a715 1a3e d227 34be 28f7 33be 70e1 20bd
00000170: 8887 dbbd 7f14 013d 89db 6fbe 43c0 00bd
00000180: c605 da3d 6e22 813d a8dd d6bd 63ba c33d
00000190: 91d9 25bb b6d9 6d3e 67e5 8fbe fce4 a1bd
000001a0: 4176 1d3e b08c 233e a7ee 97be 4800 ce3c
000001b0: a7d8 55bd 15d5 673e 6ae8 3dbe 6516 433e
000001c0: dafb 333e ed15 67bd 02e6 043e 8ebd 853d
000001d0: 35c4 bdbd 0da1 163e 6cc6 9a3d 2d43 28be
000001e0: 78c0 ea3d db2e bcbd 55c7 f0bd cce0 8f3d
000001f0: ff18 753c 0491 3abd e21a 1ebe 473e 77be
00000200: e11b e9bd 09f5 4b3e 6dc5 893d ee29 52bb
00000210: 5324 35bd 2a4d 8e3d 9bc2 02be 48be 55be
00000220: b578 be3b f004 4d3e 7a59 d23d e840 42be
00000230: eb45 0abc e4a0 5f3e f736 1f3e c02f 053e
00000240: 47b9 123e 5ff9 e83d 5649 543e cb00 2dbe
00000250: 13de 023d 751a 67be 3ffb 63bd e558 5d3e
00000260: bc10 c13c f741 e73d ef89 233d 4eff 95be
00000270: 8b1a 673e 22ee b7bd 337a a6bd eaf7 f43d
00000280: c2e1 01be c056 54bc a53a 76be aa5f a23b
00000290: 502d 65be aef3 1b3d e2e4 9dbd 5201 6bbe
000002a0: a97c d1bd e375 b7bd f1f6 1a3c 23a7 19be
000002b0: 389c 36bd 59e4 0ebe a9f9 ecbd 805d bf3d
000002c0: 10a7 833c d16c 16bd e7eb 64be 6a2b 36bc
000002d0: fa04 ef3d 8337 bdbd 3341 a03d c1f3 61bb
000002e0: 55f5 a63d 8bc4 a9bd bdb7 19be 2e16 9ebc
000002f0: 8067 dcbd a4e2 c6bd 0407 f7bd 799f 21be
00000300: d84c 21bd f595 c2bd 84d7 2abe f29e c63d
00000310: fe0e 75be 975e 1dbe 03bc 253e ab61 38be
00000320: 508d 59be 4a5e 2d3d e529 303e c457 363d
00000330: d782 3abe 979f 6dbe 3403 68be d513 93bd
00000340: 3013 90bc c369 7cbd 945e bebc 32ca 18be
00000350: 00a8 d339 8031 b03d 5bde 0dbe c742 37be
00000360: f4f8 853d c2d0 633d 9db2 963d 7cf6 7d3d
00000370: 52fe 6dbd d6e8 213c f9a0 1fbd 87fb 93bb
00000380: 7879 323e d36a 863e 68b9 133d e85e 193e
00000390: 295e 953d cd98 013e e91b 103e bf15 8bbd
000003a0: 12d8 6e3e 6544 7ebd be4a 9cbc c9cd 6abe
000003b0: 184f 943e 68f0 a73c c2a2 c0bd 93e8 fe3d
000003c0: 521e 973e 615d 543e 8775 473e cd9b a0bd
000003d0: 3130 60bd e580 90be ffc7 043d 4fc6 033e
000003e0: 9f67 b9bd d816 873d f40e ec3c 03d0 09be
000003f0: 0839 e4bb d91e ad3d 163b b23d e7fc 5cb9

bias f4 [32]
-0.09291446 -0.08793463 -0.13981986 0.07064018 0.16853897 0.09359724 -0.11286055 0.16653492
-0.16314287 0.0033693796 -0.030746236 -0.25018275 0.19750896 0.15515834 0.01547532 -0.0021606274
-0.18578985 -0.043317635 0.13090211 -0.08294125 -0.056736838 -0.17883806 0.20746967 0.39517045
0.06971379 0.0023747236 -0.2133417 -0.18726018 -0.12011592 0.007890901 0.17850229 0.21415886
00000000: f049 bebd 1217 b4bd f02c 0fbe ccab 903d
00000010: 7b95 2c3e e9af bf3d 6f23 e7bd 2188 2a3e
00000020: ed0e 27be cfd0 5c3b 88df fbbc f417 80be
00000030: ca3f 4a3e d4e1 1e3e 328c 7d3c 5099 0dbb
00000040: b23f 3ebe d56d 31bd 340b 063e 1add a9bd
00000050: e364 68bd 5321 37be ee72 543e c853 ca3e
00000060: 1bc6 8e3d 40a1 1b3b 3f76 5abe 22c1 3fbe
00000070: 56ff f5bd d648 013c 4ec9 363e 764c 5b3e

weight f4 [32, 32]
-0.041571796 0.0849071 0.10673085 -0.2512518 -0.30891323 0.02432909 -0.156157 -0.060487773
-0.058839 -0.22594151 0.063409895 0.04773967 0.18235658 -0.044842947 0.02989076 0.031010937
0.061756387 -0.06978087 0.042488653 -0.11205972 -0.06588446 0.13366471 -0.06030874 0.3318252
-0.0853507 0.13680787 -0.021590695 0.090855636 0.1621422 -0.22617106 0.2971091 -0.25893483
-0.13839364 -0.08389115 -0.19542667 -0.1806143 0.015122795 -0.18249883 0.107397296 -0.017591542
0.06676741 0.08058478 0.1365018 -0.012501431 -0.14152773 -0.2057437 0.03149846 -0.074886076
-0.11307016 -0.08279059 -0.1668655 0.0701911 -0.21733327 -0.08891193 -0.044020887 -0.08440646
0.10136535 0.031862274 -0.0115333665 -0.082770236 0.05106002 -0.11822994 -0.048824936 -0.012819167
0.20947981 -0.07139191 -0.10124469 -0.19112949 0.11638389 0.13952056 -0.11954311 -0.01536832
-0.06742153 -0.012089146 0.051247597 -0.030702254 -0.08656916 0.021028925 -0.10092697 0.090798475
-0.11264909 -0.02201481 0.005740093 0.1811016 0.024113055 -0.12367094 0.048424788 0.034583665
-0.21535733 -0.13803644 0.13389091 0.104779705 0.07896422 0.0065340325 0.038389184 0.07501971
-0.10260072 0.091610804 -0.047942445 -0.16809984 0.02277571 -0.17530526 0.097889915 0.09269575
0.16540705 0.10052298 -0.009551883 0.17674534 -0.19437538 -0.20498106 -0.098062396 0.14101912
0.15392809 -0.1540366 -0.1908813 0.17634347 -0.36817926 0.1417182 -0.05148197 0.07821461
-0.16147 -0.07659768 -0.09230244 -0.13609427 -0.16572042 0.09078834 -0.23050016 -0.24289216
-0.06319956 0.013911443 -0.15721215 -0.15412536 -0.095563374 0.017335085 -0.090110615 0.026895232
-0.072179176 -0.19278032 -0.027295291 -0.13379079 -0.053906262 -0.042872243 0.02808151 -0.08572051
0.07821311 -0.025777474 0.10319497 -0.16425642 -0.18291579 -0.07342369 -0.13686469 -0.09061429
0.027271602 0.16706057 -0.07228779 -0.12710008 -0.108588845 -0.14979503 -0.0014912039 -0.04276283
0.18925428 0.13642567 0.02789865 -0.15965731 0.024644064 -0.08269705 0.035059508 0.13405049
0.074828275 0.1682149 0.075031176 -0.09214819 0.063155405 -0.13892348 0.14517273 -0.0065406696
0.11432962 -0.030639343 0.002148889 0.04764924 -0.097388566 0.1483987 0.30034256 -0.23093565
0.03754162 -0.0072796494 0.015790652 -0.029213866 -0.15056394 0.09315377 -0.3086729 -0.050122693
0.108407184 -0.0066738725 -0.038065825 -0.20904185 0.044451613 -0.041458976 -0.044306118 0.06076511
0.012196958 0.007624754 -0.1320647 -0.038133416 -0.24653469 0.08849941 -0.23238789 -0.21187368
-0.117464736 -0.014523149 -0.07115098 -0.048188075 0.019699834 -0.07155088 -0.20074731 -0.023213051
0.07344654 0.05755803 -0.01682043 0.06469631 0.07082917 0.082427904 0.09748195 -0.0815072
-0.21987821 -0.15422842 0.13019088 -0.08947711 0.032607306 -0.060340077 0.0012292429 -0.012527078
-0.042987168 -0.12357218 0.09373392 0.024994807 -0.03661978 0.25855893 -0.20653182 0.21350461
-0.113889426 -0.10913483 0.3083679 -0.1039778 -0.075650364 0.04419455 -0.059960194 0.225328
0.14917465 -0.12009023 0.08993076 -0.111173585 -0.07495505 0.10909361 0.3325828 0.0046304152
00000000: 3047 2abd c6e3 ad3d b495 da3d 13a4 80be
00000010: e029 9ebe cd4d c73c 9fe7 1fbe 07c2 77bd
00000020: 2a01 71bd 365d 67be 0cdd 813d ac8a 433d
00000030: afbb 3a3e 3dad 37bd 78dd f43c a60a fe3c
00000040: 44f4 7c3d 46e9 8ebd 9508 2e3d 917f e5bd
00000050: 6fee 86bd 67df 083e 4c06 77bd fee4 a93e
00000060: 59cc aebd 5d17 0c3e f8de b0bc 8512 ba3d
00000070: 9b08 263e 6399 67be af1e 983e 1b93 84be
00000080: 10b7 0dbe 20cf abbd ee1d 48be f4f2 38be
00000090: 99c5 773c f9e0 3abe 1df3 db3d 231c 90bc
000000a0: 5abd 883d a209 a53d 21c7 0b3e cdd2 4cbc
000000b0: a5ec 10be 7aae 52be 8704 013d df5d 99bd
000000c0: 5491 e7bd 1d8e a9bd cade 2abe 5ac0 8f3d
000000d0: 9d8c 5ebe 7517 b6bd 3f4f 34bd 4bdd acbd
000000e0: a398 cf3d 0482 023d 72f6 3cbc 7183 a9bd
000000f0: 5024 513d 8a22 f2bd a8fc 47bd 7c07 52bc
00000100: e081 563e ec35 92bd 6059 cfbd 73b7 43be
00000110: ad5a ee3d 7ade 0e3e 05d3 f4bd 68cb 7bbc
00000120: 4d14 8abd 8e11 46bc 00e9 513d 4b83 fbbc
00000130: 2c4b b1bd da44 ac3c cdb2 cebd 8df4 b93d
00000140: 91b4 e6bd 6758 b4bc 6417 bc3b b372 393e
00000150: be88 c53c 3147 fdbd 1259 463d 9aa7 0d3d
00000160: a286 5cbe 6d59 0dbe b31a 093e be96 d63d
00000170: feb7 a13d 701b d63b fa3d 1d3d efa3 993d
00000180: 5420 d2bd 729e bb3d 4c5f 44bd 5d22 2cbe
00000190: 2094 ba3c 3983 33be 827a c83d 45d7 bd3d
000001a0: 7760 293e fede cd3d 807f 1cbc bbfc 343e
000001b0: 570a 47be 8ee6 51be f0d4 c8bd 5167 103e
000001c0: 539f 1d3e c5bb 1dbe 6376 43be 6293 343e
000001d0: fe81 bcbe 931e 113e c2de 52bd fb2e a03d
000001e0: 6458 25be 3fdf 9cbd 1009 bdbd 4c5c 0bbe
000001f0: 9db2 29be 3def b93d 3c08 6cbe b9b8 78be
00000200: c56e 81bd d2ec 633c 39fc 20be 0ad3 1dbe
00000210: bbb6 c3bd 4f02 8e3c ea8b b8bd 6453 dc3c
00000220: add2 93bd 3468 45be 609a dfbc 7400 09be
00000230: d0cc 5cbd ce9a 2fbd 320b e63c 3c8e afbd
00000240: 322e a03d 482b d3bc e257 d33d d632 28be
00000250: 474e 3bbe 295f 96bd 4226 0cbe fc93 b9bd
00000260: b268 df3c ed11 2b3e 9f0b 94bd 8626 02be
00000270: d463 debd de63 19be 8074 c3ba 1428 2fbd
00000280: e0cb 413e 2cb3 0b3e b68b e43c 357d 23be
00000290: 59e2 c93c 125d a9bd 8f9a 0f3d 8844 093e
000002a0: 913f 993d 8740 2c3e f2a9 993d 31b8 bcbd
000002b0: 9f57 813d f541 0ebe 29a8 143e 1d53 d6bb
000002c0: a625 ea3d 5cff fabc 60d4 0c3b d92b 433d
000002d0: a873 c7bd d4f5 173e 80c6 993e 657a 6cbe
000002e0: 3ec5 193d 208a eebb 665b 813c eb51 efbc
000002f0: 6f2d 1abe 67c7 be3d 600a 9ebe 744d 4dbd
00000300: 9604 de3d 80b0 dabb e9ea 1bbd 110f 56be
00000310: e512 363d e3d0 29bd 557a 35bd d6e4 783d
00000320: c0d5 473c 13d9 f93b f83b 07be c931 1cbd
00000330: 9773 7cbe 2e3f b53d 17f7 6dbe 6af5 58be
00000340: 5a91 f0bd 80f2 6dbc 9bb7 91bd dc60 45bd
00000350: 8c61 a13c 4589 92bd b490 4dbe 4c29 bebc
00000360: 246b 963d f8c1 6b3d 00cb 89bc 807f 843d
00000370: e20e 913d f6cf a83d 9ea4 c73d 3fed a6bd
00000380: c127 61be 0eee 1dbe c250 053e c63f b7bd
00000390: 3d8f 053d 2827 77bd 8c1e a13a 603e 4dbc
000003a0: 5013 30bd 6913 fdbd 92f7 bf3d e9c1 cc3c
000003b0: 9ffe 15bd d661 843e 147d 53be f4a0 5a3e
000003c0: dc3e e9bd 1582 dfbd 66e2 9d3e 50f2 d4bd
000003d0: 94ee 9abd 5805 353d d298 75bd 62bc 663e
000003e0: 3dc1 183e def1 f5bd 9e2d b83d faae e3bd
000003f0: 0982 99bd 786c df3d 4b48 aa3e bdba 973b

bias f4 [32]
0.1435668 -0.08552713 -0.05127937 -0.23972753 -0.055813417 -0.05966489 -0.089994915 0.20468731
0.16724199 0.0029515545 -0.109157786 0.05169937 -0.27535075 -0.1413145 0.035972014 -0.06421812
-0.15060155 -0.19196682 0.004340004 0.11813561 -0.13526163 0.07123729 -0.07818263 -0.24401182
-0.09938821 0.23042385 0.15819533 0.04146219 0.08638795 -0.12757103 0.02864829 -0.0783928
00000000: 2d03 133e d928 afbd 510a 52bd 227b 75be
00000010: 9c9c 64bd 2c63 74bd 414f b8bd 8d99 513e
00000020: 7c41 2b3e de6e 413b 1e8e dfbd b8c2 533d
00000030: c6fa 8cbe c0b4 10be 6457 133d ca84 83bd
00000040: 4b37 1abe f392 44be 9836 8e3b 15f1 f13d
00000050: 0682 0abe dbe4 913d 371e a0bd 3cde 79be
00000060: 0c8c cbbd 3bf4 6b3e f5fd 213e 42d4 293d
00000070: 2aec b03d fba1 02be d2af ea3c 688c a0bd

weight f4 [1, 32]
0.1768483 0.09331028 0.00018975638 0.0071267686 0.10751566 -0.05838844 0.0131084 0.20231207
0.25960785 -0.029606028 -0.119202726 0.052052133 -0.47880888 0.14232911 -0.22306994 0.24366689
-0.09235729 -0.03926091 -0.010689153 0.07424327 -0.039965276 -0.1253529 -0.193406 -0.09259799
0.0032703218 0.32912743 0.14621568 -0.1352169 0.15576352 -0.019792277 -0.22920838 -0.096871026
00000000: b917 353e 7619 bf3d 57f9 4639 ab87 e93b
00000010: 2c31 dc3d b828 6fbd 9dc4 563c e52a 4f3e
00000020: 52eb 843e 5788 f2bc 8f20 f4bd 9e34 553d
00000030: 7026 f5be b9be 113e 726c 64be d083 793e
00000040: d225 bdbd 0cd0 20bd 8f21 2fbc db0c 983d
00000050: a1b2 23bd 835c 00be 390c 46be 04a4 bdbd
00000060: e552 563b 6483 a83e 90b9 153e 4d76 0abe
00000070: 7980 1f3e 6a23 a2bc 9ab5 6abe 5164 c6bd

z0 f4 [2]
0.0 0.0
00000000: 0000 0000 0000 0000
