saved_models/anode/1/model.pth (torch, 13557 bytes, 9 tensors)

weight f4 [32, 3]
000000 82 70 97 be 03 6a ea be bd 84 be 3c 4d c2 ba bf
       -0.29578024 -0.45784006 0.023256654 -1.4590546
000010 20 7f 24 3d a5 08 94 3e 3e 4f 3d 3e 42 6e c8 3e
       0.0401603 0.28912845 0.1848726 0.3914662
000020 ff fa 9f 3e 18 2a db 3e 4e 04 02 bf 88 df e5 3e
       0.31246182 0.42805552 -0.5078782 0.44897103
000030 15 d2 b0 be 31 e5 be be 5a 07 bb be 89 4a ed 3d
       -0.3453528 -0.37284234 -0.36529046 0.11586482
000040 04 cf 97 be 80 67 29 3f d3 22 4e 3f 0c 40 87 3e
       -0.29650128 0.66173553 0.8052189 0.2641605
000050 5d dd 14 3d 89 f4 54 bf 9d 16 c6 3e 98 84 94 3e
       0.03634392 -0.8318563 0.38689128 0.2900741
000060 ec 5c 0d bf c5 39 f2 be 86 a8 52 be 0a d1 0b be
       -0.5521991 -0.473097 -0.20572099 -0.13653961
000070 24 8e 86 be c3 b2 7c be f8 36 45 be 6e f0 39 be
       -0.2628032 -0.24677567 -0.1925925 -0.18158123
000080 75 5f a2 be a3 1b ec bf ce 2f 40 bd 59 0d 78 bf
       -0.31713453 -1.8445934 -0.04692059 -0.96895367
000090 42 eb 72 be 12 83 eb be 7f 1f 1c bf 72 c5 2d 3d
       -0.23722556 -0.45998436 -0.6098556 0.042424627
0000a0 1f c5 3d be ba c8 3e 3c 22 c9 91 3d c9 97 ee be
       -0.18532227 0.011644537 0.07118441 -0.46600178
0000b0 e5 ef 5d 3e ce 99 b1 be 2e 38 e8 be cf b4 f6 bd
       0.21673544 -0.34687656 -0.45355362 -0.12046205
0000c0 b6 09 eb 3d 67 fd d0 3e 89 5d 1b 3f ff f3 c5 bf
       0.114764616 0.4081833 0.606896 -1.5465087
0000d0 ba 5e 0f 3f 56 08 d3 3f 3e 04 8c 3f d1 e8 a2 3e
       0.56003916 1.6486919 1.0938795 0.3181825
0000e0 1a d0 e6 bf f4 c7 37 3f 6c 44 99 3e b9 ca d6 bf
       -1.8032258 0.7178948 0.29935014 -1.6780616
0000f0 f5 10 07 3f 19 25 03 3c ad 5e 5b bf 76 a6 a9 be
       0.5276025 0.00800445 -0.8569134 -0.33134812
000100 54 7f 11 bf 80 95 ea be ec 2b ae be 24 8b 74 be
       -0.5683491 -0.45817184 -0.34017885 -0.23881203
000110 4c 07 85 3e 94 bc bb 3d 61 ab 56 3d fc 19 ed 3e
       0.2598213 0.09166828 0.052409533 0.46308887
000120 2f 2d 2d bf d9 db 18 3d 07 2e 6a 3f 3f 0d a1 3e
       -0.6764707 0.037319038 0.9147648 0.31455418
000130 bf 5a 9d be 56 94 9e 3f aa f9 30 3e 9d 55 d0 3e
       -0.30733296 1.2389019 0.1728274 0.40690318
000140 08 b9 5c bf 79 fa b1 bf ec cc 49 be 1c db 9d be
       -0.86219835 -1.3904563 -0.19707078 -0.3083123
000150 24 f2 a5 be d5 1d cb be d8 1f f4 3d a5 e8 2d bf
       -0.324113 -0.39671198 0.11920136 -0.6793311
000160 f5 5f a8 be a6 c6 64 be bc 4f e8 be 40 9f 60 3d
       -0.3288571 -0.22341403 -0.45373333 0.054839373
000170 c0 e5 55 be 60 43 aa 3f e8 10 a4 bc 40 12 d6 be
       -0.20888424 1.3301811 -0.020027593 -0.418108

bias f4 [32]
000000 87 06 1a bf 18 5f a2 3e b8 26 1e bd a2 9d 67 be
       -0.6016621 0.31713176 -0.038611144 -0.22618726
000010 db b6 86 3d ea ea cd 3e 34 e3 31 3e 34 1a 98 be
       0.06577846 0.40218288 0.17371827 -0.2970749
000020 90 a8 19 3e 0a a5 ed be 9a 8c b0 be 43 b7 c5 3d
       0.15005708 -0.46414977 -0.3448227 0.09654095
000030 56 ea da 3e 26 8d 2e bf 17 b9 fc 3c 2d ff a4 3e
       0.4275691 -0.68184125 0.030849976 0.32225934
000040 f5 c8 d3 be 6f a9 9d 3e 3c 16 2f be 90 80 95 3d
       -0.41364256 0.3079333 -0.17098325 0.07299912
000050 42 e6 0e 3f fd e8 be 3e 86 ac 7b be c5 04 d9 3e
       0.55820096 0.3728713 -0.24577531 0.4238645
000060 cf ca e4 3d fe 3e 48 bd 3c 31 d1 be 46 93 e5 be
       0.11171495 -0.0488882 -0.40857875 -0.44838923
000070 7c 66 59 bf e8 c6 0c bf 3f 72 1e 3e f7 50 96 3e
       -0.84922004 -0.54991007 0.15473269 0.29358646

weight f4 [32, 32]
000000 31 e6 99 3c 74 c3 57 3d 7b d9 9e 3d 9a 70 46 bd
       0.018786522 0.052676633 0.07756325 -0.04844723
000010 b6 a1 16 3e 04 ed e0 bd b3 66 4d be 37 27 80 3c
       0.14710125 -0.10982707 -0.20058708 0.0156437
000020 8c 92 4a 3e 2c 5d df 3d e8 60 00 be 64 b5 42 3e
       0.19782466 0.10906443 -0.12536967 0.19014508
000030 ee 39 05 be c7 8b e4 3d c2 6d a8 bc 8c e1 8a 3d
       -0.1301038 0.11159473 -0.02056015 0.06781301
000040 f4 30 4b bd f2 b4 01 3e ef 35 9b bd ff 6c 97 be
       -0.049607232 0.12666681 -0.075786464 -0.29575345
000050 ca 67 1c 3d 11 0c 42 3e 6e d3 1c be 95 ae 02 3e
       0.03818492 0.18949915 -0.15315029 0.1276191
000060 16 dc 81 3c 5f 2a f0 3d 98 c8 94 3c f3 73 91 bd
       0.015852015 0.11726832 0.018162057 -0.07102194
000070 b0 4d 5f bd 65 c4 16 3e c3 ce a6 3c 1b 21 12 be
       -0.054517448 0.14723356 0.020362264 -0.14270441
000080 2d f7 1f 3c 01 06 d6 bc 0a d3 01 bc c5 7f 1e 3d
       0.009763521 -0.02612591 -0.007923851 0.03869607
000090 a3 06 37 be de 17 55 be bb f5 fe 3c 8e 51 c1 bd
       -0.17873625 -0.20809886 0.031123033 -0.094393834
0000a0 fd 09 0d bd b1 cd ce bd 2e bf 92 3a 4a fa 78 ba
       -0.034433354 -0.10097826 0.0011195892 -0.0009497745
0000b0 33 d1 57 be 06 88 85 3d 39 0b 73 bc 48 ec 20 3d
       -0.21075897 0.06520085 -0.014834219 0.039287835
0000c0 13 72 e5 bd dc 5c 2b bc a9 cf 22 3d 71 04 22 be
       -0.112033986 -0.010459151 0.03974882 -0.15822007
0000d0 e8 26 ce 3d 6a 90 b3 bc e7 c2 f3 3d ed a0 e9 3d
       0.100660145 -0.021919448 0.11902409 0.11407647
0000e0 ba a1 10 3c 72 95 e4 bc 78 c0 df bc f5 ee 23 3e
       0.008827621 -0.027903292 -0.027313456 0.16009124
0000f0 f8 36 5e be fc b3 52 bd 96 a9 00 3e db 0f 35 be
       -0.21700656 -0.051441178 0.12564692 -0.1768183
000100 af 47 d3 bd 7c 5b 48 bd a9 a8 80 3c 5c 39 17 3d
       -0.10316407 -0.04891537 0.015705423 0.036919937
000110 b7 98 95 bd 8b 7d 0b bc 78 e6 03 be 83 3c ce 3d
       -0.07304519 -0.0085138185 -0.12880886 0.100701354
000120 b1 23 5c be 2d 82 d6 3d a2 0f 0f 3d de cc ca 3d
       -0.2149799 0.10474048 0.034927018 0.099023566
000130 8d 4a 9b 3d ae 48 70 bd d8 18 a0 3d 53 ae 41 be
       0.07582579 -0.058663063 0.078172386 -0.18914156
000140 93 fb c0 3d 9c c3 86 bd 1c 41 36 be 39 48 36 be
       0.09422984 -0.06580278 -0.17798275 -0.17800988
000150 1c 54 f1 3d d0 ef 7a bc 0b 05 2e be f0 62 39 be
       0.11783621 -0.015315965 -0.16994111 -0.18104148
000160 e8 f9 bf bc ed 8e c1 bd cc 9f b2 3b 73 7e a7 bd
       -0.023434594 -0.09451089 0.005451178 -0.08178415
000170 36 47 2b be c3 9a 27 be d0 1a 2c bd ba 0b 8d 3d
       -0.16726384 -0.1636763 -0.042017758 0.06887002
000180 20 86 03 bd 7b 01 e1 bd 22 ff fe bc b2 9b dc 3d
       -0.032110333 -0.109866105 -0.031127516 0.10771884
000190 70 19 02 3d be 86 35 be b3 23 c4 bb fd b5 e6 3c
       0.03176254 -0.17727181 -0.005985701 0.02816295
0001a0 40 bc 15 bb cd 02 a7 3d f7 dc 89 ba 7b eb 1f 3d
       -0.0022847801 0.08154831 -0.0010518123 0.03904293
0001b0 2e 5f 86 be a3 3d dc bd 6e f0 91 bc 68 f3 1a 3d
       -0.2624449 -0.10753944 -0.017814841 0.037829787
0001c0 a0 7c 99 bd 44 3c 33 bd d0 81 58 be 7c 6d 8b bd
       -0.074944735 -0.043758646 -0.2114327 -0.06807992
0001d0 78 47 8d 3d 43 c7 47 3d 62 d7 7c bc ee 84 e2 3d
       0.06898397 0.048774015 -0.015432211 0.110605106
0001e0 3f d1 f7 bd 93 90 ee 3c f4 e5 61 3c 5c e1 f8 3b
       -0.121004574 0.029121673 0.013787735 0.0075952243
0001f0 c4 cc 2d be e0 f3 82 be cf eb 9e bd bf 03 cd bd
       -0.16972643 -0.25576687 -0.07759821 -0.1001048
000200 b9 45 92 be 64 93 d5 bd ff e7 f3 3e 0a ed 1e c0
       -0.2856882 -0.10428503 0.47637936 -2.4832177
000210 67 15 6c be a2 0b 05 c0 eb 85 7f 3e 05 a7 6f bd
       -0.2305504 -2.078835 0.2495343 -0.05850889
000220 1f 66 be be 49 94 2a be 18 82 ea bd ba b1 77 bf
       -0.37187287 -0.16658129 -0.11450595 -0.96755564
000230 01 d1 26 bf 46 27 3d bd 3b 1d 19 bf 94 1e 49 be
       -0.65162665 -0.046180032 -0.5981023 -0.19640571
000240 53 4c 16 3e 46 2f 55 be ef 23 f3 3e f1 38 08 3e
       0.14677553 -0.20818815 0.47488353 0.13302971
000250 5e 23 c4 be 3b 9a 89 be b8 2b a3 3c ea 14 23 be
       -0.38308233 -0.2687548 0.019918308 -0.15925947
000260 b2 e5 4f be a9 0b 84 bf 0c 59 45 3e bc 4a 4f bf
       -0.20302466 -1.0316058 0.1927225 -0.8097341
000270 7e 31 9d 3d fa d4 84 bf c4 30 18 be 7a 53 28 3f
       0.076754555 -1.0377495 -0.14862353 0.65752375
000280 81 78 ce 3d 31 a4 97 3c 24 45 54 bd 68 c7 47 3e
       0.10081578 0.01851091 -0.05182375 0.19509661
000290 ee 4c 61 be be c2 44 3c ff 09 2a 3e db 6c 90 bd
       -0.22002003 0.012009321 0.16605376 -0.070520125
0002a0 3b 2a 9d be 8b 7c 14 3e d3 88 a6 3c ce 13 df bf
       -0.30696282 0.14500634 0.020328915 -1.7427919
0002b0 5a 35 fb bd c8 0c 6d be f1 09 07 bc 4c 3a a0 bd
       -0.122660354 -0.23149407 -0.008242116 -0.07823619
0002c0 3d 34 b4 bd 87 c4 fa be 16 b6 e5 3e da 71 73 3e
       -0.08799026 -0.48978063 0.44865483 0.237739
0002d0 ff ff 1a 3d 7c 91 1e be ca cf 83 bc 91 6a ac 3d
       0.037841793 -0.15485185 -0.016090292 0.084187634
0002e0 57 16 4f 3c 2f 1d 18 3f d9 fd f4 3e 41 00 1a be
       0.012639604 0.5941953 0.4784992 -0.1503916
0002f0 19 4c 71 3d a2 64 59 bf f7 f5 85 3d 70 65 57 3e
       0.058910463 -0.8491918 0.06541055 0.21034789
000300 14 e5 2f bd 3f c5 a6 bd 1d f3 4e be 86 87 48 be
       -0.042943075 -0.081430905 -0.20209928 -0.19582948
000310 a2 45 a3 3d cb 20 08 be c2 1e 5a bd 1d 2a 95 3b
       0.07972266 -0.1329376 -0.05325199 0.0045521394
000320 21 0f 86 bd 52 22 64 be 42 f4 b1 bd dd fc 11 bd
       -0.06545854 -0.22278717 -0.086891666 -0.03564154
000330 8d e2 0d be c0 86 4b 3c 5f cb f3 bc 72 b3 15 3c
       -0.13855954 0.012422264 -0.02976006 0.009137021
000340 19 09 0c be b5 a3 c8 3d d6 96 5e bc 4f a6 b0 bd
       -0.13675345 0.0979685 -0.013585767 -0.08625471
000350 d6 7e 36 be 28 d5 27 be 21 e3 2b bd 04 81 1c be
       -0.17821822 -0.16389906 -0.041964654 -0.1528359
000360 0e d4 76 bd 13 1b b2 bd 77 17 0a be 61 d7 19 be
       -0.060260825 -0.0869657 -0.13485514 -0.15023567
000370 ea 6d 11 be 8c 32 38 3d 4d 45 94 bd 84 6a 09 be
       -0.14202085 0.04497008 -0.072397806 -0.13419539
000380 25 75 5b bd 5e f8 2b be 54 80 b8 3d ad d2 22 bd
       -0.053578515 -0.16793963 0.09008852 -0.039751697
000390 6d 3c c8 bd 3d b3 c1 bd 78 36 48 be 57 90 5c be
       -0.0977715 -0.09458015 -0.19552028 -0.21539436
0003a0 6f 6d 56 be 07 0f cf bd 14 72 10 be 80 5f 3b 3a
       -0.20940183 -0.10110288 -0.14106017 0.00071477145
0003b0 93 35 60 3d 2d 25 ec bd d5 50 51 3d 31 0b ea bd
       0.054738592 -0.11530528 0.051102478 -0.11427916
0003c0 40 09 8d bd 26 a6 bf 3d aa 56 2e be e1 6a 53 bc
       -0.0688653 0.09357862 -0.17025247 -0.0129039
0003d0 bc 4c 37 bb ed e8 ac bb 2b 28 12 be 40 d3 c0 3d
       -0.0027969321 -0.0052767904 -0.14273135 0.09415293
0003e0 8e 72 47 be 8a 62 ef bd c0 5a ec 3d 06 4d f3 bd
       -0.19477293 -0.11688717 0.11540747 -0.118799254
0003f0 1a 34 64 bd e9 81 6d be 0d 71 6d be 54 b9 45 be
       -0.05571375 -0.23194088 -0.23187657 -0.19308978

bias f4 [32]
000000 b9 85 7c 3b 92 ac da bd f3 51 a3 bd 64 7a dd 3d
       0.0038531853 -0.106774464 -0.07974615 0.1081436
000010 20 ef 78 be 59 b4 2a ba 8a e6 a9 3d 0f f2 d8 3d
       -0.24309969 -0.0006511859 0.08295925 0.10593044
000020 35 51 fe 3d 1b 85 a9 bd 8d 26 14 3e e0 f1 22 3e
       0.12417833 -0.08277341 0.14467831 0.1591258
000030 75 d5 8b bc 1f d4 c3 be f7 a1 e9 bd cd 69 02 bd
       -0.017069558 -0.38247773 -0.114078455 -0.03183918
000040 bf 39 8c 3e 15 8d b3 3c 83 86 e6 bc f7 f1 31 be
       0.27387807 0.02191786 -0.028140312 -0.17377459
000050 7a 7f 4e 3d 5d 6b 4e be f2 1d 88 3e cc 46 16 3d
       0.05041454 -0.20158143 0.26585346 0.03668861
000060 a0 88 db bc 20 0a 98 be a8 11 1a 3d df 58 44 be
       -0.026798546 -0.29695225 0.037614495 -0.19174527
000070 fd b9 e2 3d 6b 8b 2c be ff 8d f4 b9 6c fb 2e be
       0.11070631 -0.16850059 -0.00046645102 -0.17088097

weight f4 [32, 32]
000000 ab e0 d8 bd e5 3e b2 3d 0a 12 d4 3d e2 d8 a3 3d
       -0.10589727 0.087034024 0.10355003 0.080003515
000010 63 fa 2e bd 92 63 ce bd b0 cc 88 3d b0 8c ac 3c
       -0.042719256 -0.10077585 0.06679666 0.021063179
000020 83 d6 f2 bc 6d f6 96 3e 9b 02 bb bd c8 93 c4 bd
       -0.029643303 0.29484883 -0.09131356 -0.095984995
000030 33 d6 8f be 20 57 5c 3c 1b ae 2c bd 3c 97 ca 3d
       -0.2809311 0.013448507 -0.042158227 0.09892127
000040 4e 20 16 bd 73 cb 7d be db 05 bf 3d f3 bb 81 3c
       -0.036651902 -0.24784641 0.09327289 0.015836691
000050 85 be 38 bc 59 a3 21 bd 4b c7 83 bd ca e0 be 3d
       -0.011275892 -0.03946242 -0.064344965 0.09320219
000060 3e 2d 3f be 0f 13 91 bd ac fb 95 3d 23 54 1e 3e
       -0.18669602 -0.07083713 0.07323393 0.15461783
000070 8c 74 4b be a5 32 9d 3d d3 04 84 3c 61 be 77 bd
       -0.19868678 0.07675675 0.016115582 -0.060484294
000080 42 4b 3a 3d 1e 68 00 be 7e 17 1d be 09 5e 2c bd
       0.045481928 -0.12539718 -0.15340993 -0.042081866
000090 1d 3b 14 be c4 ba a5 bc 3a 7d 4c 3d 7e 0e b4 bd
       -0.14475675 -0.020230658 0.049924113 -0.08791827
0000a0 26 7d a8 bd b1 0c 6f 3e d0 b8 84 be 91 04 fe bd
       -0.08226995 0.23344685 -0.2592225 -0.12403215
0000b0 cf 29 17 bd 97 cb 07 be f8 08 f7 bc bd e3 cb 3d
       -0.036905106 -0.13261257 -0.030155644 0.09955547
0000c0 db 77 1a bd f3 20 57 3f 4a d3 da 3c db cb 21 3e
       -0.03771196 0.8403465 0.026712079 0.15800421
0000d0 61 a6 12 bb 79 e2 65 3b da 20 66 be b0 25 78 bd
       -0.0022377002 0.0035077615 -0.2247347 -0.060582817
0000e0 8d 48 f7 3d 19 de 2f be b8 8f 31 3e a6 e8 8f 3a
       0.12074385 -0.17174567 0.1733998 0.0010979369
0000f0 37 43 2c be 91 c9 75 be 0d b6 ef 3d de 05 a2 3d
       -0.16822515 -0.24002673 0.11704645 0.07911275
000100 2a 89 28 3e ce 43 ae 3c 60 ef a2 3d 77 bb 1a 3d
       0.16458574 0.021272566 0.079558134 0.037776437
000110 d6 2c 56 be 6e 4a f3 bc 6b 23 cd bd 2e 13 24 be
       -0.20915541 -0.029698577 -0.10016521 -0.16022941
000120 48 43 7b be c1 99 33 3e 59 b1 54 be cc 3d 25 be
       -0.24537385 0.17539121 -0.20770778 -0.16136855
000130 c1 66 c0 be 74 bb 0a be 7d 8e 29 3e 0e 01 3d bd
       -0.37578395 -0.1354807 0.16558261 -0.046143584
000140 1c b6 d5 3e 46 ca 33 3f cd cc 8e bd 0d ac 41 bd
       0.417405 0.7023052 -0.069726564 -0.04728322
000150 e4 77 86 3e 28 96 e3 3d d2 84 cd bc 6d 75 87 bd
       0.26263344 0.111126244 -0.025087748 -0.06614194
000160 04 f8 d2 bd c7 1a 66 be 7b 8c cf bc 41 5d 2e 3e
       -0.103012115 -0.22471152 -0.025335541 0.17027761
000170 cf be 36 3e 81 fd 95 bd 2e cd f8 bd c8 a5 4d bd
       0.17846225 -0.07323743 -0.1214851 -0.05020693
000180 52 48 12 3e d8 d9 b7 3d 65 be 0d be 1c 19 d0 3c
       0.142854 0.08977097 -0.13842161 0.025402598
000190 c4 7f ba 3e 64 43 05 bd f2 66 15 be ab 92 37 3d
       0.36425602 -0.03253497 -0.14590052 0.044817608
0001a0 8c 84 a9 bd c3 5f 22 3e ec ba ca 3d 23 47 97 bd
       -0.082772344 0.15856843 0.09898934 -0.07386615
0001b0 7a 2d f3 3d 20 5d 5a bc ae 9f e9 3d dc ba 94 bd
       0.11873908 -0.013327867 0.114074096 -0.07262203
0001c0 50 30 3c be 37 17 8a be 57 e9 37 3e 2b d0 2a be
       -0.18377805 -0.26970837 0.17960106 -0.16680972
0001d0 aa 4d 12 be 0a 02 80 3d 8d 9e 9d bd 23 d5 7b 3b
       -0.14287439 0.06250389 -0.07696257 0.00384266
0001e0 ac 9b c8 bd 37 58 7a bd e7 57 3c bd 70 a6 c2 3c
       -0.09795317 -0.061119284 -0.045982268 0.023761004
0001f0 6f 2b da bd 42 d0 10 bd 6a af 86 3d 03 1a 26 3e
       -0.106528156 -0.03535486 0.06576426 0.1622086
000200 f1 7b 41 3c 24 07 4c 3d 41 6c 08 be 64 4f 72 bd
       0.011809335 0.049811497 -0.13322546 -0.059157744
000210 ef 3a 69 3e 6f 8f 11 be 1b 05 85 bd 60 c1 96 3d
       0.22776388 -0.14214872 -0.064951144 0.07361102
000220 36 e6 9c 3d 1a 29 3a 3d 11 57 63 bd 40 61 12 be
       0.07661097 0.045449354 -0.055502955 -0.1429491
000230 3c 46 f1 3c b1 e9 cf 3d 58 4d 92 bd 48 49 81 3d
       0.029452436 0.10151995 -0.071436584 0.063128054
000240 55 2f bb bd 11 fe 1b 3f 22 bd 02 be 16 6e 13 bc
       -0.09139887 0.6093455 -0.12767461 -0.0089984145
000250 a1 54 72 3e 33 7a 02 bd f1 a4 fd bd 86 66 ec 3d
       0.23665096 -0.03185482 -0.12384976 0.11542992
000260 78 2b 10 3e 0f 4b 8e 3e 2d b3 02 3c 72 43 ed bd
       0.14079082 0.2779164 0.007977289 -0.1158513
000270 04 db 04 3e 9b be 11 bc fb 0b 2f 3c 9b a7 04 3e
       0.12974173 -0.008895542 0.010684009 0.12954561
000280 d2 ce 2f 3d 9b 51 d6 bd 02 e7 82 bd 02 3c 50 3e
       0.04292185 -0.10464784 -0.063917175 0.20335391
000290 f8 cf 6c 3e e2 f3 7b 3e 87 f6 3f 3d 4c ac 90 bd
       0.23126209 0.24604753 0.046865966 -0.07064113
0002a0 f8 53 dc bd 8f 04 69 3e 42 3c 13 be d9 9e c7 bd
       -0.10758203 0.22755645 -0.14378455 -0.09747095
0002b0 9e 6a a1 bd ee e8 36 3e d6 b4 32 3b 70 4a 42 3e
       -0.07881664 0.17862293 0.002726843 0.18973708
0002c0 51 86 80 3e 1f 52 74 3f 86 d6 57 bd fe aa 29 3e
       0.25102475 0.95437807 -0.05269482 0.16569135
0002d0 0a 9e 51 3e a9 b3 25 3e 0c ed b1 3d 63 2d bf bd
       0.20470443 0.16181816 0.08687791 -0.09334829
0002e0 29 8b 94 3d 76 3f 97 be 4e 80 1d 3e d7 f9 66 3e
       0.07253105 -0.29540604 0.15380976 0.22556244
0002f0 b8 26 df 3d 4d 2e 18 be b3 cc 19 3e 79 87 87 be
       0.10896057 -0.14861412 0.15019493 -0.26470545
000300 f7 f7 cc bc 2f af 16 bd 1f cf 9b 3c b8 cb 06 be
       -0.025020583 -0.03678816 0.019019661 -0.1316365
000310 9d 64 a6 3f 1e fd 35 3e 69 a0 80 bd 65 b6 14 3e
       1.2999455 0.17772338 -0.06280596 0.14522703
000320 c0 77 3b 3e e3 37 1e 3d 21 0a 28 3e 1e 77 a4 3e
       0.183074 0.038627516 0.16410114 0.3212213
000330 24 42 4c 3e c4 dd 10 3d 3e 4e 45 be d1 95 01 be
       0.19947106 0.035367742 -0.19268128 -0.12654807
000340 19 0e ad bb 81 6e e2 be 2e bf d9 3d 22 62 f4 bd
       -0.0052812216 -0.44224933 0.10632168 -0.1193278
000350 96 f4 2a bf 47 8b b3 bd 30 b8 0e 3e f4 31 24 3e
       -0.6677946 -0.087667994 0.1393745 0.1603468
000360 c7 00 fe 3b a3 9b ba 3d e4 71 b0 bc 71 5d 06 3e
       0.0077515575 0.091117166 -0.021538682 0.13121583
000370 e0 e2 32 3c 27 ba 49 3e 05 5e 07 bd f7 55 9c 3c
       0.010918349 0.19699918 -0.03304865 0.01908396
000380 01 4c 8e 3d 8e a3 f0 bd 65 d0 e2 3d b4 8b 85 bc
       0.0694809 -0.117499456 0.11074904 -0.016301967
000390 03 2b 62 3d 92 8a 9e bd c5 91 16 3e 17 07 a8 3d
       0.0552168 -0.07741274 0.14704044 0.08204477
0003a0 7e 6e ab bd 01 26 31 3b eb 2b ab bd 4a c5 a6 3c
       -0.08370684 0.0027030709 -0.08357986 0.020357747
0003b0 60 9a 50 bc 44 35 2e be 80 d5 73 3d 5e 3f 08 3d
       -0.012732118 -0.17012507 0.05952978 0.033263557
0003c0 cf fe 68 3c a2 9e 3f 3f 4f 73 46 bd 21 00 e5 3d
       0.014220907 0.7485143 -0.04844981 0.11181665
0003d0 e4 53 8b 3e 03 ca 36 bd 09 bd 44 be 21 87 ea 3d
       0.2721244 -0.044626247 -0.19212736 0.11451555
0003e0 07 e3 62 3d 92 a1 5b 3e 2f e4 58 3e d4 f9 13 3e
       0.05539229 0.21448353 0.21180795 0.1445077
0003f0 8a 86 94 bd 6c ae 50 bd 43 c9 15 3e d6 f4 ce bd
       -0.07252224 -0.05094759 0.14627557 -0.101052925

bias f4 [32]
000000 85 70 22 3e 94 d6 0c 3e c5 03 57 3e 0d df fa bc
       0.15863235 0.1375373 0.20997532 -0.030623937
000010 fc 25 bd 3d 78 a6 e8 bd 57 00 90 3d 96 37 9e 3d
       0.092357606 -0.113598764 0.07031315 0.07725446
000020 41 00 f0 3d fc 2a 4d bd fe 10 05 be 9a 1f 3f bd
       0.117187984 -0.05008982 -0.12994763 -0.046660997
000030 12 1b 92 bd ff c3 41 3e 7c 18 a8 bc 61 30 52 be
       -0.071340695 0.18922423 -0.020519488 -0.20526268
000040 df d8 e8 bd 68 dc 18 3e 2a ad 4b bd 9c 1f 49 3d
       -0.1136949 0.14927828 -0.04972569 0.04910241
000050 72 63 59 3d 4a da 37 bc 76 31 3e be ba 1a 0c be
       0.053073354 -0.011221478 -0.18573555 -0.1368207
000060 5c cf 2b 3e 7b 33 cb 3d 93 67 5a 3e b4 fb 80 3e
       0.1677832 0.099219285 0.21328573 0.25192034
000070 ac 72 9e 3b 1d 1e 0c 3e fc 29 e3 3d b3 b3 9b be
       0.0048354473 0.13683362 0.11091992 -0.30410537

weight f4 [2, 32]
000000 d8 3d 81 bc 1f ff 22 3e 96 6f 72 3e e3 a7 9e bd
       -0.01577656 0.15917633 0.23675379 -0.077468656
000010 fe 33 59 3e 92 6d 9d 3e 06 af c0 be aa 85 30 3e
       0.2121124 0.30747658 -0.37633532 0.17238489
000020 3b dc 82 3e dc ee 53 be 4d 51 a3 3d 71 0f 81 bf
       0.25558648 -0.20696586 0.07974491 -1.0082837
000030 46 68 01 bd f8 62 41 be eb b4 f3 3c a6 a8 e6 3d
       -0.031593584 -0.1888541 0.029749354 0.11262636
000040 57 71 3d 3e d8 6c d6 bd d5 a1 d9 3c dc 6a 9f bc
       0.18500267 -0.10469979 0.026566425 -0.019460134
000050 a5 03 5f 3e 09 69 95 bc 63 f8 8c 3b da b2 c9 bc
       0.21778734 -0.018238561 0.004302071 -0.024621416
000060 02 71 17 be a0 83 1d 3e 99 91 93 3e dc 6c 60 bd
       -0.14789203 0.15382242 0.2882202 -0.054791316
000070 b3 f1 05 bc b1 80 3e bf 59 5d 77 3e 0e 0d 2c be
       -0.008175301 -0.7441512 0.24156703 -0.16801855
000080 c2 6d 08 3d 7a d1 d9 bc af 0f 69 3e 9a 2a a2 be
       0.0333078 -0.026589144 0.22759889 -0.31673127
000090 cb bc d4 bd 9e d1 3c be 96 71 bc bd d9 36 70 bd
       -0.10387572 -0.18439338 -0.09201352 -0.058646057
0000a0 cd aa 9c bd ee a1 3d be 80 01 82 bd 3a 40 bc be
       -0.07649765 -0.18518803 -0.06347942 -0.3676775
0000b0 da e2 9a bd cd 07 1a 3e 41 93 0c be 76 0c f6 3d
       -0.075628 0.15042038 -0.13728048 0.120140955
0000c0 28 63 a2 3d 6b 79 46 3f 32 15 98 3d ef ae 3b bd
       0.07929069 0.7752902 0.07425918 -0.045821127
0000d0 0d 7e af bd a7 14 ac bd f1 06 79 3d da 72 9f be
       -0.08568964 -0.084023766 0.060797635 -0.31142312
0000e0 77 7a 63 3e 49 71 ec 3d 93 d4 11 3e 8d fe 97 3e
       0.22214685 0.11545045 0.14241247 0.29686394
0000f0 e8 f9 05 3d ee 57 fd 3d 2e ea e4 39 92 e4 e1 3d
       0.032709032 0.12370287 0.00043662026 0.110299245

bias f4 [2]
000000 8e c5 dd bd 88 10 7b 3e
       -0.10828696 0.24518025

z0 f4 [2]
000000 00 00 00 00 00 00 00 00
       0.0 0.0
