saved_models/sonode/3/model.pth (torch, 13429 bytes, 8 tensors)

weight f4 [32, 3]
0.46179068 0.29847327 -0.25832406 0.39853242 0.46884522 0.18070912 -0.122779 -0.35390943
-0.62952554 -0.44159135 0.14622147 -0.055220164 -0.071752936 0.35693735 -0.4856942 0.17935148
0.05846814 -0.2921292 -0.15905592 0.5340366 -0.5508182 -0.10028534 -0.13346793 0.3871383
0.048201438 0.22789289 0.015809245 -0.44168594 -0.38229814 -0.3220622 -0.60568345 -0.42840067
-0.04484389 0.4623865 0.14778677 -0.10330941 0.21948041 -0.32163575 0.33530563 -0.4047115
-0.22081734 -0.5429416 0.17332926 0.14314263 0.09214693 0.23859753 0.2351142 0.59680027
0.30618954 0.28506482 0.50993955 0.49185494 0.59041524 0.37291366 -0.21210727 -0.051992588
-0.3447371 0.2952526 0.042213563 0.5180798 0.34424898 -0.51737434 0.29718876 0.48856145
0.44413188 -0.04028806 0.2659533 -0.39841935 -0.2535183 0.35799366 -0.5777853 0.4940162
-0.5100138 0.23248821 -0.2620503 0.017410789 -0.058118906 -0.55816734 -0.0969191 -0.2443702
0.5918 -0.003560176 -0.48875505 0.13345605 0.18129174 -0.26356545 -0.073520355 0.33861676
-0.31477132 -0.112544596 -0.031214194 -0.52461857 0.42444676 0.13490608 0.4106747 0.24009036
00000000: d46f ec3e 7dd1 983e 0d43 84be 710c cc3e
00000010: 7b0c f03e d00b 393e 8e73 fbbd 9e33 b5be
00000020: 9628 21bf 4318 e2be 15bb 153e 8a2e 62bd
00000030: 34f3 92bd 7ec0 b63e e9ac f8be eaa7 373e
00000040: 4a7c 6f3d f591 95be 8edf 22be 9fb6 083f
00000050: 6c02 0dbf 6662 cdbd d1ab 08be fe36 c63e
00000060: df6e 453d c15c 693e 6482 813c a924 e2be
00000070: 95bc c3be 56e5 a4be 120e 1bbf 5557 dbbe
00000080: 3aae 37bd ecbd ec3e 6a55 173e e293 d3bd
00000090: 79bf 603e 71ad a4be 2ead ab3e 5936 cfbe
000000a0: f11d 62be 38fe 0abf 3a7d 313e fb93 123e
000000b0: 88b7 bc3d e952 743e c7c1 703e e7c7 183f
000000c0: e0c4 9c3e 04f4 913e 668b 023f 69d4 fb3e
000000d0: 7425 173f 8aee be3e a632 59be 2ef6 54bd
000000e0: 6281 b0be 592b 973e 21e8 2c3d e1a0 043f
000000f0: 6741 b03e a572 04bf 2029 983e ba24 fa3e
00000100: 4165 e33e 1805 25bd 082b 883e 9ffd cbbe
00000110: 27cd 81be f24a b73e bde9 13bf b1ef fc3e
00000120: 4490 02bf 6411 6e3e 752b 86be 12a1 8e3c
00000130: 170e 6ebd 0ee4 0ebf 857d c6bd 2f3c 7abe
00000140: 3480 173f d751 69bb 1a3e fabe b4a8 083e
00000150: 8ba4 393e 0df2 86be d791 96bd 2d5f ad3e
00000160: b529 a1be c87d e6bd e9b4 ffbc 674d 06bf
00000170: 1651 d93e d224 0a3e f443 d23e 3fda 753e

bias f4 [32]
-0.92000556 -0.49129793 -0.68425363 -0.264137 -0.34594646 -0.16256458 -0.63247937 0.19748127
0.34021112 0.24821398 0.39313713 0.45968932 -0.54473674 0.14438614 0.5026542 -0.43231842
-0.27271995 -0.082566544 -0.2584696 -0.16527453 0.0045235674 0.4758555 0.00622446 0.22986074
0.48995557 0.23208222 -0.5415219 0.35730782 0.3663494 -0.31814393 -0.19175957 0.4118812
00000000: 7c85 6bbf 678b fbbe 3f2b 2fbf f73c 87be
00000010: e51f b1be 5477 26be 2bea 21bf 8838 4a3e
00000020: 2730 ae3e ce2b 7e3e 4549 c93e 665c eb3e
00000030: de73 0bbf f6d9 133e f2ad 003f d758 ddbe
00000040: f3a1 8bbe a618 a9bd 2156 84be ba3d 29be
00000050: 6f3a 943b 55a3 f33e 8ef6 cb3b 9d60 6b3e
00000060: 75db fa3e f6a6 6d3e 2ea1 0abf 0df1 b63e
00000070: 2692 bb3e c3e3 a2be 9f5c 44be 18e2 d23e

weight f4 [32, 32]
-0.12871692 -0.10105761 -3.7958713 -0.007762719 -0.35485226 -0.103656106 -0.16148935 0.13145904
0.13142052 -0.2089452 0.14572534 0.046418164 -0.11737964 -0.18921058 0.17044051 0.13632016
0.0860554 0.18331546 -0.16128741 0.17517108 0.23245125 -0.053706754 0.09800241 0.022615686
-0.1740608 0.044672284 -0.104136884 -0.14161614 -0.077262245 0.050172225 0.11191587 0.119433105
-0.1732048 0.12193133 0.014510527 -0.17273623 0.00838545 0.057891417 -0.10394561 -0.008133769
-0.14366184 -0.1393897 -0.10044687 -0.03783717 0.058682017 -0.03284906 -0.21456636 -0.05710211
-0.20933576 -0.0452047 0.13106619 0.01985665 -0.16371185 -0.09460298 0.01519708 -0.0076322868
-0.16605087 -0.15865247 -0.06251876 0.0649637 0.10236167 0.023185221 0.06677911 -0.20559452
-0.19282453 -0.20946264 -0.0139364 0.003951134 -0.018105417 -0.31646293 -0.020482907 0.11250475
-0.1404813 -0.038472362 -0.06573774 -0.19191006 0.047520906 0.1787745 0.033493135 -0.34546378
-0.06983304 -0.11934514 0.2899699 -0.08669628 -0.048411343 -0.13004145 -0.5638867 0.024140272
0.020010846 -0.18604973 0.10229878 0.14832857 -0.024232006 -0.23848166 0.174737 0.09867083
-0.07246119 -0.079850726 -0.07459038 0.15414672 0.09234609 -0.14649585 0.007055387 -0.005722984
0.0032145742 -0.05231793 -0.13073261 -0.050360806 -0.10442055 -0.11492621 -0.13177821 -0.14130525
-0.12855767 0.024683423 -0.1494543 -0.2124783 0.10620494 0.018684866 0.04218589 0.034010217
-0.10885776 -0.15653351 -0.06703828 -0.052426625 -0.00043448282 -0.22117999 -0.17104414 0.05598987
-1.5737733 0.2594468 0.09678952 0.048067886 0.013600672 -0.3626812 0.030582111 0.13257614
-0.19129696 -0.008550464 -0.18713307 -0.12142004 -0.415918 0.0306573 0.093034014 -0.083599046
0.13286078 0.07965978 -0.2161918 -0.08787093 0.23606136 0.005995353 0.016521351 0.13014919
0.020460214 -0.08849015 -0.10508477 -0.16396382 0.10715656 -0.63126814 0.028242862 -0.0005469331
0.3931213 -0.4547286 -0.19576147 -0.041818693 -0.15895322 -0.03294898 0.09220072 -0.12073641
0.10810035 0.027328623 -0.08541008 0.09835879 0.010499427 -0.18663394 0.15163338 0.0052069384
-0.0047605066 0.21487837 0.1293323 -0.08792716 0.0033680876 0.14010586 0.119631276 -0.09294383
-0.15358853 0.084441125 -0.17058732 0.11815575 -0.10544911 -0.070995845 0.042484686 0.12951005
1.1500058 -0.47246805 0.105601355 0.14663774 0.044311117 0.20200361 0.015202468 0.06346838
0.16275647 0.28281894 -0.010649261 0.32973325 0.5977637 0.22711162 0.06991054 -0.41357127
-0.17220414 -0.37451577 0.1884422 -0.18442658 -0.14393066 0.09493134 0.30619502 0.17536066
0.26792994 0.17359063 -0.08052377 0.122031584 0.18208553 0.16052598 -0.035398364 0.20321096
-0.15467766 -0.00052677095 0.21504171 0.033130087 -0.09865793 -0.13395785 0.21059021 -0.1679909
0.075094655 -0.2086262 -0.17383485 -0.1340543 0.029607847 0.035628602 -0.04969997 -0.01059191
-0.2091158 -0.12203051 -0.083708405 -0.17759593 0.031904787 -0.062416404 -0.15749423 0.0032161972
-0.2055804 -0.15832326 0.04281805 0.028225686 0.003304505 -0.17486335 -0.19512454 -0.022972303
00000000: 5ece 03be 4bf7 cebd 8eef 72c0 685e febb
00000010: 32af b5be a749 d4bd 775d 25be 339d 063e
00000020: 1a93 063e bbf5 55be 0639 153e f920 3e3d
00000030: bd64 f0bd 6bc0 41be f587 2e3e 8397 0b3e
00000040: d03d b03d 0cb7 3b3e 8728 25be 0c60 333e
00000050: b307 6e3e 9dfb 5bbd 7db5 c83d 8844 b93c
00000060: ff3c 32be 49fa 363d b845 d5bd d203 11be
00000070: ab3b 9ebd 6481 4d3d 2634 e53d 5899 f43d
00000080: 995c 31be 22b7 f93d 90bd 6d3c c4e1 30be
00000090: 2063 093c 8d1f 6d3d 70e1 d4bd 8043 05bc
000000a0: 171c 13be 2cbc 0ebe 17b7 cdbd 26fb 1abd
000000b0: 8e5c 703d bc8c 06bd 49b7 5bbe e7e3 69bd
000000c0: 1d5c 56be 9028 39bd 3736 063e 6aaa a23c
000000d0: 14a4 27be 35bf c1bd 2cfd 783c 4318 fabb
000000e0: 3d09 2abe cb75 22be d609 80bd b00b 853d
000000f0: ffa2 d13d efee bd3c 7cc3 883d 5f87 52be
00000100: cb73 45be 607d 56be 8055 64bc 8478 813b
00000110: d051 94bc 6e07 a2be c5cb a7bc e468 e63d
00000120: 54da 0fbe 3295 1dbd 82a1 86bd 1284 44be
00000130: 48a5 423d aa10 373e 1930 093d a1e0 b0be
00000140: a004 8fbd 3a6b f4bd ef76 943e d28d b1bd
00000150: f94a 46bd 9629 05be e15a 10bf d2c1 c53c
00000160: c9ed a33c d283 3ebe 0682 d13d 72e3 173e
00000170: 3382 c6bc 8934 74be 42ee 323e ef13 ca3d
00000180: 8866 94bd c788 a3bd d7c2 98bd a3d8 1d3e
00000190: f21f bd3d 0203 16be e030 e73b df87 bbbb
000001a0: 9bab 523b 534b 56bd c5de 05be 2247 4ebd
000001b0: 71da d5bd 6f5e ebbd def0 06be 53b2 10be
000001c0: 9fa4 03be e434 ca3c 8c0a 19be e993 59be
000001d0: fa81 d93d 0111 993c 1dcb 2c3d 4c4e 0b3d
000001e0: d1f0 debd 524a 20be 5e4b 89bd 4dbd 56bd
000001f0: 4ccb e3b9 027d 62be 3226 2fbe a255 653d
00000200: 6771 c9bf 36d6 843e 9539 c63d d5e2 443d
00000210: 5ad5 5e3c 5ab1 b9be 5687 fa3c 0ac2 073e
00000220: 5ae3 43be 3f17 0cbc d09f 3fbe 12ab f8bd
00000230: 34f3 d4be 0525 fb3c 9e88 be3d fa35 abbd
00000240: a80c 083e ab24 a33d 6261 5dbe adf5 b3bd
00000250: 12ba 713e ab74 c43b c957 873c d445 053e
00000260: 2e9c a73c 533a b5bd af36 d7bd 22e6 27be
00000270: e674 db3d ca9a 21bf 935d e73c 0f60 0fba
00000280: 3247 c93e 30d2 e8be b275 48be 144a 2bbd
00000290: a2c4 22be 82f5 06bd bbd3 bc3d a744 f7bd
000002a0: b763 dd3d 47e0 df3c 7beb aebd 5570 c93d
000002b0: ca05 2c3c f81c 3fbe c845 1b3e f79e aa3b
000002c0: 06fe 9bbb 1309 5c3e b06f 043e 2813 b4bd
000002d0: 22bb 5c3b e977 0f3e 3e01 f53d 5659 bebd
000002e0: 5046 1dbe 78ef ac3d 71ae 2ebe a4fb f13d
000002f0: b4f5 d7bd 4566 91bd 6c04 2e3d 489e 043e
00000300: 6433 933f 55e7 f1be 8645 d83d 3428 163e
00000310: 937f 353d 09da 4e3e c613 793c b6fb 813d
00000320: a2a9 263e a5cd 903e 3d7a 2ebc ccd2 a83e
00000330: 0b07 193f f38f 683e 422d 8f3d 9dbf d3be
00000340: 4856 30be 88c0 bfbe fef6 403e 52da 3cbe
00000350: 8f62 13be 5d6b c23d 98c5 9c3e bf91 333e
00000360: 1d2e 893e bec1 313e a5e9 a4bd b2eb f93d
00000370: a174 3a3e ec60 243e e0fd 10bd 8916 503e
00000380: d263 1ebe 0017 0aba e533 5c3e 6ab3 073d
00000390: 2b0d cabd 3f2c 09be f6a4 573e ce05 2cbe
000003a0: 3acb 993d 1ba2 55be c301 32be 8845 09be
000003b0: 288c f23c 4cef 113d 3292 4bbd b189 2dbc
000003c0: 7422 56be 22eb f9bd 506f abbd b5db 35be
000003d0: 98ae 023d 58a8 7fbd 2b46 21be d6c6 523b
000003e0: ab83 52be 7e1f 22be fb61 2f3d 8e39 e73c
000003f0: 6590 583b 610f 33be bace 47be 6930 bcbc

bias f4 [32]
-0.020048713 -0.10142913 -0.16704357 -0.060986586 0.103640765 0.11358621 0.047472034 0.047946565
-0.040638655 -0.10706472 0.16340367 -0.03977738 -0.24699107 -0.20986032 -0.17381944 0.12620756
-0.054848306 0.07354377 -0.14597769 0.117245555 0.115750514 0.18841368 -0.08624905 0.077387534
0.44212338 -0.097262464 -0.09096375 0.054420676 0.096474536 -0.07289266 0.01386155 0.113383345
00000000: 333d a4bc 13ba cfbd 780d 2bbe 12cd 79bd
00000010: 9c41 d43d e39f e83d 0972 423d 9e63 443d
00000020: b874 26bd bf44 dbbd 4b53 273e 9bed 22bd
00000030: 3aeb 7cbe a0e5 56be b9fd 31be 8e3c 013e
00000040: 9ea8 60bd 1e9e 963d 2d7b 15be 701e f03d
00000050: 9b0e ed3d 84ef 403e 58a3 b0bd 5b7d 9e3d
00000060: ff5d e23e 8b31 c7bd 344b babd 37e8 5e3d
00000070: 7194 c53d bf48 95bd 8e1b 633c 8735 e83d

weight f4 [32, 32]
0.2192303 0.08719785 -0.13098149 -0.10044619 0.007286709 0.060770936 -0.16977885 0.1268798
0.05530771 0.224072 -0.086513564 0.06391191 0.017524824 0.078517266 -0.012149319 0.1460226
0.0041977987 0.21154678 0.07199008 0.19549206 0.04911899 -0.17476563 0.05358571 0.14912754
-0.09105405 0.06872452 -0.07242864 0.09246599 0.044845115 6.9987397 -0.014491915 0.2106181
-0.122654386 -0.08021342 0.14638968 -0.14309502 -0.097142264 -0.19093916 0.29535022 -0.11057831
0.17823988 0.019037498 0.095760494 -0.03454714 0.018233953 -0.19173007 -0.17395617 0.028099712
-0.1894665 0.13206887 -0.062457826 0.035362285 0.014518817 0.22733398 -0.12535872 0.05934376
0.37179783 -0.035642207 0.07797097 0.03441 0.014867064 -0.07701204 0.11327899 -0.036568943
-0.06863176 0.16320322 0.06744917 -0.06761916 -0.13503382 0.101369604 0.02860649 -0.07929421
-0.013240707 0.11258529 -0.031960513 -0.033165712 -0.13836814 -0.16920328 -0.0094858855 -0.1846645
-0.16081843 -0.06309099 -0.084220044 0.044752453 -0.20248735 -0.14544816 -0.17961274 -0.049716543
0.031877887 0.10830946 0.05763094 -0.1689541 -0.09723623 -0.059253223 -0.042195376 -0.107832864
0.06944304 0.13430314 -0.06420869 -0.03645751 0.06310151 -0.16036168 -0.07054732 -0.18165968
0.09371354 0.0018930954 -0.18093657 -0.19681902 0.13582097 -0.020950718 0.1389018 -0.11960282
-0.021056158 -0.14634173 -0.11099637 0.04595989 -0.17493445 -0.09001117 0.04456448 -0.12394416
-0.12519597 0.066972636 0.15543409 -0.14409569 0.08962819 -0.16171645 -0.0531485 -0.12661663
0.7164109 -0.08131712 -0.3866037 -0.004184127 -0.49214852 1.2774962 0.6731781 -0.08291074
-0.13658711 0.053662438 0.013341903 -0.24378262 0.0422758 -0.22961573 0.12950076 1.5167568
0.039877824 0.2645932 0.043851297 0.9833463 0.026114432 0.60574895 -0.016616575 0.9535273
1.7048229 -0.15088606 0.014666349 0.08201261 0.10978639 -1.4071025 -0.025842652 1.0292729
-0.289065 -0.15896356 0.070199944 -0.12367373 -0.15803817 -0.03783294 0.03390885 -0.13911477
0.04612519 -0.121018015 -0.11909773 0.042401947 0.29350698 -0.104426995 -0.054069657 -0.025207087
-0.14377004 0.03787348 -0.07749485 0.19155867 0.14024018 -0.036185097 0.0012244158 -0.007084405
0.64364064 0.035068184 -0.1275249 0.16308041 -0.07486758 -0.13703357 -0.09507611 -0.016100632
0.2106187 -0.098217055 0.06139606 -0.059133742 0.10046668 0.21920453 0.09801762 -0.0039065047
-0.12598385 -0.03893357 -0.07296935 -0.25391337 -0.13426936 -0.19679722 0.14708462 0.08805748
0.0858836 -0.041272424 0.016623655 0.22858074 0.07016925 -0.17371485 0.038797572 -0.08883571
0.04809898 0.16121618 -0.17176247 0.06867172 0.013947234 0.063675016 0.073710844 -0.047979143
-0.03560989 -0.05915322 -0.16094021 -0.06349417 -0.04884945 -0.036811214 0.279445 0.10137093
0.008240491 0.17109717 0.149569 -0.14431441 0.12424937 0.0765528 -0.0070876945 0.0005738964
0.049833097 0.09070294 0.23447347 0.03497663 -0.049917933 0.021352781 0.099959135 -0.142461
0.2032849 -0.06858801 -0.12018245 -0.13883704 -0.18746628 0.13945507 0.11185212 0.008122448
00000000: e87d 603e c994 b23d 0320 06be bbb6 cdbd
00000010: 58c5 ee3b f2ea 783d 82da 2dbe c7ec 013e
00000020: 568a 623d 2173 653e 062e b1bd 3fe4 823d
00000030: 3890 8f3c a9cd a03d f00d 47bc f386 153e
00000040: b08d 893b b89f 583e 896f 933d 122f 483e
00000050: fe30 493d c3f5 32be b07c 5b3d e4b4 183e
00000060: 8c7a babd 71bf 8c3d 7855 94bd cf5e bd3d
00000070: 83af 373d adf5 df40 7f6f 6dbc 45ac 573e
00000080: 3932 fbbd ef46 a4bd 2de7 153e 8087 12be
00000090: 86f2 c6bd 8e85 43be 2538 973e e276 e2bd
000000a0: 8484 363e 87f4 9b3c 141e c43d 4d81 0dbd
000000b0: 5f5f 953c e354 44be 9121 32be 5e31 e63c
000000c0: 8203 42be 103d 073e c7d3 7fbd 0bd8 103d
000000d0: 55e0 6d3c 3dca 683e 095e 00be 7112 733d
000000e0: 495c be3e 90fd 11bd 3eaf 9f3d 80f1 0c3d
000000f0: fc94 733c 7db8 9dbd d1fe e73d 51c9 15bd
00000100: cf8e 8cbd bf1e 273e ca22 8a3d ea7b 8abd
00000110: 4e46 0abe de9a cf3d 2858 ea3c 0165 a2bd
00000120: 8def 58bc 1e93 e63d 07e9 02bd c5d8 07bd
00000130: 61b0 0dbe a043 2dbe b06a 1bbc b118 3dbe
00000140: 96ad 24be d935 81bd 8f7b acbd 594e 373d
00000150: d858 4fbe 5df0 14be 67ec 37be 93a3 4bbd
00000160: 6392 023d 5ad1 dd3d 6c0e 6c3d 4e02 2dbe
00000170: ca23 c7bd 82b3 72bd 0fd5 2cbd 7ad7 dcbd
00000180: 2738 8e3d c386 093e d87f 83bd 7854 15bd
00000190: 5d3b 813d da35 24be 1d7b 90bd ff04 3abe
000001a0: e2ec bf3d be21 f83a 7047 39be ed8a 49be
000001b0: a714 0b3e d7a0 abbc 463c 0e3e 53f2 f4bd
000001c0: f77d acbc 9bda 15be 1152 e3bd 7040 3c3d
000001d0: 0422 33be c757 b8bd 3f89 363d 70d6 fdbd
000001e0: 5f33 00be f328 893d 1d2a 1f3e d28d 13be
000001f0: fc8e b73d ff98 25be 3eb2 59bd caa7 01be
00000200: b466 373f 9789 a6bd ecf0 c5be 001b 89bb
00000210: e4fa fbbe ff84 a33f 6655 2c3f 1bcd a9bd
00000220: 7edd 0bbe 25cd 5b3d ff97 5a3c 27a2 79be
00000230: 6429 2d3d 6320 6bbe d99b 043e 1625 c23f
00000240: ee56 233d c378 873e 6b9d 333d 95bc 7b3f
00000250: efed d53c 5d12 1b3f 7c1f 88bc 5d1a 743f
00000260: a337 da3f e081 1abe 204b 703c 3af6 a73d
00000270: b0d7 e03d ef1b b4bf f8b3 d3bc 37bf 833f
00000280: 5400 94be 58c7 22be fdc4 8f3d a748 fdbd
00000290: c2d4 21be b7f6 1abd 02e4 0a3d 1a74 0ebe
000002a0: c4ed 3c3d 4bd8 f7bd 83e9 f3bd aaad 2d3d
000002b0: 8c46 963e d2dd d5bd 2578 5dbd 187f cebc
000002c0: 7438 13be 3921 1b3d 9fb5 9ebd f527 443e
000002d0: 1f9b 0f3e d336 14bd 947c a03a 4c24 e8bb
000002e0: a2c5 243f a8a3 0f3d e395 02be 8dfe 263e
000002f0: 2c54 99bd 8752 0cbe 43b7 c2bd 79e5 83bc
00000300: 6eac 573e 0626 c9bd 6f7a 7b3d 3936 72bd
00000310: 7ac1 cd3d 2777 603e 76bd c83d 2302 80bb
00000320: e901 01be cf78 1fbd f470 95bd ef00 82be
00000330: e87d 09be 3685 49be 5a9d 163e 7b57 b43d
00000340: bee3 af3d 460d 29bd 552e 883c 1211 6a3e
00000350: e5b4 8f3d 4ee2 31be 34ea 1e3d 7fef b5bd
00000360: 7003 453d db15 253e 80e2 2fbe c2a3 8c3d
00000370: f082 643c 0c68 823d b6f5 963d c785 44bd
00000380: addb 11bd a64a 72bd 83cd 24be 3b09 82bd
00000390: 5c16 48bd 5bc7 16bd 6a13 8f3e 909b cf3d
000003a0: 2003 073c 1934 2f3e 9e28 193e 28c7 13be
000003b0: 7476 fe3d b7c7 9c3d e43f e8bb 8971 163a
000003c0: ca1d 4c3d 77c2 b93d d019 703e a843 0f3d
000003d0: bf76 4cbd 07ec ae3c 60b7 cc3d 4ce1 11be
000003e0: eb29 503e df77 8cbd 3722 f6bd 4c2b 0ebe
000003f0: 29f7 3fbe 4fcd 0e3e b912 e53d 0414 053c

bias f4 [32]
-0.13777375 -0.02336444 -0.09205237 0.047146704 0.41691956 0.08324078 -0.14044371 0.081052974
-0.046754654 -0.075187854 -0.022347825 0.105531536 0.058137327 0.0075383815 -0.023857206 -0.12897137
0.009146496 0.14199102 -0.1265814 0.041095644 -0.06477987 0.051472202 0.13237545 0.0740029
0.12057351 -0.045758717 -0.09613066 0.006328417 -0.10360395 -0.02068345 0.13349397 -0.08888606
00000000: 9014 0dbe c866 bfbc f485 bcbd e71c 413d
00000010: 7b76 d53e 247a aa3d 7ad0 0fbe 1aff a53d
00000020: cf81 3fbd 17fc 99bd c912 b7bc eb20 d83d
00000030: 6821 6e3d 8704 f73b 3070 c3bc 1211 04be
00000040: 2fdb 153c 1866 113e 8e9e 01be e853 283d
00000050: 4fab 84bd 84d4 523d 6e8d 073e d58e 973d
00000060: 3fef f63d 7e6d 3bbd 27e0 c4bd 9c5e cf3b
00000070: 4f2e d4bd 5770 a9bc a5b2 083e e509 b6bd

weight f4 [1, 32]
-0.20681547 0.1295519 0.029828705 0.0049308296 1.2127489 0.04592994 -0.029365756 0.1279928
-0.03057814 -0.009413898 -0.18893114 0.15027128 0.031882104 0.14439906 0.01428231 -0.11119096
0.039285686 -0.11916675 0.03843148 -0.7618663 -0.039019734 0.12905626 -0.036522377 0.03820358
0.10976169 0.113507494 -0.12575 -0.13329712 0.06357649 -0.14171974 -0.07086261 -0.012513413
00000000: 6fc7 53be 41a9 043e 545b f43c cc92 a13b
00000010: 5b3b 9b3f 0821 3c3d 7490 f0bc 8b10 033e
00000020: 027f fabc c03c 1abc 2a77 41be b7e0 193e
00000030: cf96 023d 59dd 133e 5a00 6a3c 16b8 e3bd
00000040: 07ea 203d b20d f4bd 546a 1d3d ab09 43bf
00000050: 28d3 1fbd 5327 043e 7d98 15bd 5b7b 1c3d
00000060: bdca e03d 9e76 e83d 9cc4 00be 0a7f 08be
00000070: 6434 823d fb1e 11be 6b20 91bd 0f05 4dbc

z0 f4 [2]
0.0 0.0
00000000: 0000 0000 0000 0000
