skanode/3/model.pth (torch, 11104 bytes, 36 tensors)

odefunc.kan.node_bias_0 f4 [3]
000000 00 00 00 00 00 00 00 00 00 00 00 00
       0.0 0.0 0.0

odefunc.kan.node_scale_0 f4 [3]
000000 00 00 80 3f 00 00 80 3f 00 00 80 3f
       1.0 1.0 1.0

odefunc.kan.subnode_bias_0 f4 [3]
000000 00 00 00 00 00 00 00 00 00 00 00 00
       0.0 0.0 0.0

odefunc.kan.subnode_scale_0 f4 [3]
000000 00 00 80 3f 00 00 80 3f 00 00 80 3f
       1.0 1.0 1.0

odefunc.kan.act_fun.0.grid f4 [3, 16]
000000 25 26 83 bf f4 89 63 bf 9e c7 40 bf 48 05 1e bf
       -1.0246016 -0.88882375 -0.7530459 -0.6172681
000010 e6 85 f6 be 3b 01 b1 be 70 51 3b be 5e 75 c1 bd
       -0.4814903 -0.3457125 -0.18292785 -0.09446214
000020 7a 1d d0 3a 9b 23 66 3e 1b 96 aa 3e c6 1a f0 3e
       0.0015877925 0.2247452 0.33317646 0.46895427
000030 b8 cf 1a 3f 0e 92 3d 3f 64 54 60 3f 5d 8b 81 3f
       0.60473204 0.74050987 0.8762877 1.0120655
000040 9e f0 0e c0 49 9b f9 bf 57 55 d5 bf 65 0f b1 bf
       -2.233436 -1.9500514 -1.6666669 -1.3832823
000050 73 c9 8c bf 02 07 51 bf 07 33 91 be 75 90 19 bd
       -1.0998977 -0.8165132 -0.28359243 -0.03749128
000060 38 f8 47 3e c9 be bc 3e 73 b4 19 3f 57 40 62 3f
       0.19528282 0.36864308 0.6004097 0.88379425
000070 1e 66 95 3f 10 ac b9 3f 02 f2 dd 3f fa 1b 01 40
       1.1671789 1.4505634 1.733948 2.0173326
000080 01 00 40 c0 67 66 26 c0 cd cc 0c c0 66 66 e6 bf
       -3.0000002 -2.6000001 -2.2 -1.8
000090 33 33 b3 bf 00 00 80 bf c7 09 4e bf b2 19 9d be
       -1.4 -1.0 -0.8048367 -0.30683666
0000a0 b2 19 9d 3e c7 09 4e 3f 00 00 80 3f 33 33 b3 3f
       0.30683666 0.8048367 1.0 1.4
0000b0 66 66 e6 3f cd cc 0c 40 67 66 26 40 01 00 40 40
       1.8 2.2 2.6000001 3.0000002

odefunc.kan.act_fun.0.coef f4 [3, 3, 10]
000000 c6 e1 92 bc f0 b2 0a be af 2e 3f 3c 2e 84 0b 3d
       -0.017929923 -0.13544822 0.011668845 0.034061603
000010 55 8c 3a 3d 88 b3 5e 3d f8 1b a4 3c e4 ce cf 3d
       0.045543987 0.054370433 0.020032868 0.10146883
000020 92 14 ef 3c 35 bc 01 3d c0 47 d0 bb 6c 91 21 be
       0.029184613 0.03167363 -0.0063562095 -0.1577813
000030 0f 4c 9f 3d f2 ef da 3d 2b b3 82 3d 4b 79 9c 3c
       0.07778179 0.10690297 0.0638183 0.019100806
000040 de 34 c3 bd 78 e2 82 3d a8 ac e9 bc f6 e3 63 ba
       -0.09531568 0.06390852 -0.028524712 -0.00086933316
000050 70 2a 1b 3b f3 be a2 b9 a9 19 c2 bb 97 4a 34 bc
       0.0023676418 -0.00031041316 -0.005923469 -0.011004112
000060 fb 18 6e bc fa 41 73 bc 3d ff 51 bc e7 cc 1a bc
       -0.014532323 -0.014847273 -0.012817201 -0.009448267
000070 7e 73 be bb ae b8 61 bb 12 f0 8d 3d b0 c7 61 bb
       -0.0058121076 -0.0034442353 0.069305554 -0.0034451298
000080 86 df 99 3b ee 59 eb bc 93 9d e0 bc 48 52 76 bc
       0.0046958355 -0.028729405 -0.027418887 -0.015034266
000090 25 a5 07 3c 3e 7f 4d bb 46 e9 c7 3c 12 e3 2d 3d
       0.00827912 -0.003135636 0.024403226 0.04245288
0000a0 bf 49 a0 3c 77 b9 20 bd c6 36 dc bc 98 8d 71 bb
       0.019566415 -0.039239373 -0.026881587 -0.0036858078
0000b0 4b a7 9e 3c ab bf c4 bb f1 fa cf bc 2e 69 e8 bc
       0.01936688 -0.006004294 -0.025388213 -0.028370466
0000c0 fe 6e c7 3c 9a 2b 94 3c 82 ab 00 bc cb 10 08 3d
       0.024344917 0.018087197 -0.007853391 0.03321914
0000d0 83 d5 33 3b 1b ce 7e bc 6b 5a 64 bc 00 03 ec bb
       0.0027440495 -0.015552069 -0.013937573 -0.007202506
0000e0 c5 68 34 bb 48 8f 2d ba 3e 0d 62 39 5a d3 62 bb
       -0.0027528268 -0.0006620777 0.00021557973 -0.0034610839
0000f0 6b 10 39 bf a4 a1 8f 3c 2a ec 8f bc c8 12 1a 3c
       -0.72290677 0.017533131 -0.017568666 0.009403892
000100 e9 9c 99 bc 88 35 1d bc 10 fc 98 3a ba fd 01 bb
       -0.018751578 -0.009595282 0.00116718 -0.001983507
000110 02 d4 ee 3b fd 49 8d be 51 07 0f 3f e4 7b 00 bc
       0.007288457 -0.2759551 0.5587054 -0.007842038
000120 5c d8 e5 3c 52 fe 07 bb 56 d9 91 3a cc 20 97 3b
       0.02805727 -0.0020750952 0.0011127393 0.004612064
000130 6a b0 aa ba 74 f1 ee 3a c3 29 d5 bb ca 45 72 3e
       -0.0013022546 0.0018229918 -0.0065052225 0.23659435
000140 fb e8 b4 3f 3f 25 1a bd 87 98 cb 3c fa 03 d2 bc
       1.41336 -0.037633177 0.024853004 -0.025636662
000150 66 81 1c 3d 37 77 9d 3c 08 e9 11 bb b0 35 7c 3b
       0.03820934 0.019221885 -0.0022264142 0.0038484149
000160 38 57 68 bc 41 f9 09 3f
       -0.014180951 0.53895956

odefunc.kan.act_fun.0.mask f4 [3, 3]
000000 00 00 00 00 00 00 00 00 00 00 00 00 00 00 00 00
       0.0 0.0 0.0 0.0
000010 00 00 00 00 00 00 00 00 00 00 00 00 00 00 00 00
       0.0 0.0 0.0 0.0
000020 00 00 00 00
       0.0

odefunc.kan.act_fun.0.scale_base f4 [3, 3]
000000 25 58 28 3f 1d d7 f3 3e a2 75 dd bc 81 e6 a5 be
       0.657595 0.47625056 -0.02703363 -0.32402423
000010 a4 1c b5 3e 35 7c 37 3e 77 15 bf be ef 01 c0 3e
       0.35373414 0.17918475 -0.37321064 0.37501475
000020 19 76 b3 3e
       0.3505104

odefunc.kan.act_fun.0.scale_sp f4 [3, 3]
000000 69 6f 12 3f a5 78 19 3f 3a cd 13 3f f9 5a 11 3f
       0.5720125 0.59949714 0.57735026 0.5677944
000010 89 d7 12 3f 3a cd 13 3f 3a cd 13 3f 3a cd 13 3f
       0.5736013 0.57735026 0.57735026 0.57735026
000020 3a cd 13 3f
       0.57735026

odefunc.kan.act_fun.1.grid f4 [3, 16]
000000 7c 31 06 bf 39 52 e7 be 7b 41 c2 be bd 30 9d be
       -0.5241926 -0.45179918 -0.37940583 -0.30701247
000010 fe 3f 70 be 82 1e 26 be ff 23 b3 bd 47 da ea bc
       -0.23461911 -0.16222575 -0.087471 -0.028668536
000020 24 84 07 bc d8 aa b7 3d ea 88 4c 3e 33 55 8b 3e
       -0.008271251 0.08968133 0.19974104 0.2721344
000030 f1 65 b0 3e af 76 d5 3e 6d 87 fa 3e 16 cc 0f 3f
       0.34452775 0.4169211 0.48931447 0.56170785
000040 1e c4 c7 be bc 12 aa be 5a 61 8c be f0 5f 5d be
       -0.39016813 -0.33217418 -0.27418023 -0.21618629
000050 2b fd 21 be cd 34 cd bd de 9a 97 3b 28 43 4e 3d
       -0.15819232 -0.100198366 0.004626616 0.050357014
000060 c0 e3 b1 3d 2a 6f 08 3e 70 53 42 3e 34 b6 7d 3e
       0.08686018 0.13323656 0.18977141 0.24776536
000070 7c 8c 9c 3e de 3d ba 3e 40 ef d7 3e a2 a0 f5 3e
       0.3057593 0.36375326 0.4217472 0.47974116
000080 51 47 02 bf 9c 5b de be 97 28 b8 be 92 f5 91 be
       -0.5089007 -0.43429267 -0.35968468 -0.28507668
000090 1a 85 57 be 10 1f 0b be 10 b1 cb bd ac 58 d7 bb
       -0.21046868 -0.13586068 -0.09945881 -0.00657185
0000a0 b5 f5 dc 3d a0 98 4d 3e 24 df 72 3e 97 a2 9f 3e
       0.107890524 0.20077753 0.23717934 0.31178734
0000b0 9c d5 c5 3e a1 08 ec 3e d3 1d 09 3f 56 37 1c 3f
       0.38639534 0.46100333 0.53561133 0.61021936

odefunc.kan.act_fun.1.coef f4 [3, 1, 10]
000000 1c 7e be bc a8 d0 bc bc 54 39 a5 bc 5a 20 80 bc
       -0.023253493 -0.023048714 -0.020168938 -0.015640426
000010 f2 4d 1a bc 6e 4f c4 ba 8c 29 d8 3b 94 12 64 3c
       -0.009417998 -0.0014977285 0.0065967496 0.013920445
000020 74 ed 9c 3c d7 0a a9 3c 66 45 86 3c d7 2e 85 3c
       0.019156195 0.020635052 0.016390514 0.016257687
000030 85 e3 7d 3c 18 da 6b 3c 1f 87 56 3c 27 1e 3f 3c
       0.015496139 0.014395259 0.013093739 0.011664904
000040 06 bf 2a 3c 0b 03 15 3c 2f 0b 00 3c 03 3d d9 3a
       0.01042152 0.009094964 0.007815166 0.0016573969
000050 3f 6c 43 bc 05 73 02 bc 6c 59 88 bb ed c1 0b ba
       -0.011927663 -0.007961993 -0.0041610505 -0.00053313264
000060 86 21 1a 3b 62 b3 83 3b 0f 84 a1 3b bb 06 a8 3b
       0.0023518517 0.004019187 0.0049290727 0.0051277555
000070 98 7a a0 3b f3 ba 8c 3b
       0.004897427 0.004294747

odefunc.kan.act_fun.1.mask f4 [3, 1]
000000 00 00 00 00 00 00 00 00 00 00 00 00
       0.0 0.0 0.0

odefunc.kan.act_fun.1.scale_base f4 [3, 1]
000000 0e 09 df be c3 d0 0f 3d e2 7d c9 bd
       -0.43561596 0.0351112 -0.09838463

odefunc.kan.act_fun.1.scale_sp f4 [3, 1]
000000 3a cd 13 3f 3a cd 13 3f 3a cd 13 3f
       0.57735026 0.57735026 0.57735026

odefunc.kan.symbolic_fun.0.mask f4 [3, 3]
000000 00 00 80 3f 00 00 80 3f 00 00 00 00 00 00 80 3f
       1.0 1.0 0.0 1.0
000010 00 00 80 3f 00 00 00 00 00 00 00 00 00 00 00 00
       1.0 0.0 0.0 0.0
000020 00 00 80 3f
       1.0

odefunc.kan.symbolic_fun.0.affine f4 [3, 3, 4]
000000 c3 fa 1f c1 9f 0d ed 40 61 54 15 bd 37 a7 9e 3e
       -9.998721 7.4079127 -0.036457423 0.3098695
000010 9f ef 1f c1 51 9d 9f c0 20 1a 92 3c f1 c8 57 3d
       -9.996001 -4.9879537 0.017834723 0.052681867
000020 00 00 00 00 00 00 00 00 00 00 00 00 00 00 00 00
       0.0 0.0 0.0 0.0
000030 62 01 20 c1 6c af 44 be cd 6e 06 bb 24 e5 85 3c
       -10.000338 -0.19207543 -0.002051282 0.016344614
000040 98 3c 1c c1 80 55 16 c1 d2 c3 9b bc e3 f7 12 be
       -9.764793 -9.395874 -0.019014273 -0.14352374
000050 00 00 00 00 00 00 00 00 00 00 00 00 00 00 00 00
       0.0 0.0 0.0 0.0
000060 00 00 00 00 00 00 00 00 00 00 00 00 00 00 00 00
       0.0 0.0 0.0 0.0
000070 00 00 00 00 00 00 00 00 00 00 00 00 00 00 00 00
       0.0 0.0 0.0 0.0
000080 a6 cb 12 c1 3b 3e 12 c1 e8 0d a6 bc fd 6b 0a be
       -9.174719 -9.140193 -0.020270303 -0.13517757

odefunc.kan.symbolic_fun.1.mask f4 [1, 3]
000000 00 00 80 3f 00 00 80 3f 00 00 80 3f
       1.0 1.0 1.0

odefunc.kan.symbolic_fun.1.affine f4 [1, 3, 4]
000000 ce 6c 1f c1 8f 2f 5d c0 21 fd d4 3e 19 7f d2 3c
       -9.964064 -3.4560277 0.41599372 0.02569537
000010 d7 06 20 c1 af 75 e6 40 a3 6a e7 3e c7 d2 5e bc
       -10.00167 7.2018657 0.45198545 -0.013600058
000020 75 f7 1f c1 1c a2 59 40 85 5c 0a bf d6 45 21 bd
       -9.997914 3.4005194 -0.54047424 -0.03937324

obsfunc.odefunc.kan.node_bias_0 f4 [3]
000000 00 00 00 00 00 00 00 00 00 00 00 00
       0.0 0.0 0.0

obsfunc.odefunc.kan.node_scale_0 f4 [3]
000000 00 00 80 3f 00 00 80 3f 00 00 80 3f
       1.0 1.0 1.0

obsfunc.odefunc.kan.subnode_bias_0 f4 [3]
000000 00 00 00 00 00 00 00 00 00 00 00 00
       0.0 0.0 0.0

obsfunc.odefunc.kan.subnode_scale_0 f4 [3]
000000 00 00 80 3f 00 00 80 3f 00 00 80 3f
       1.0 1.0 1.0

obsfunc.odefunc.kan.act_fun.0.grid f4 [3, 16]
000000 25 26 83 bf f4 89 63 bf 9e c7 40 bf 48 05 1e bf
       -1.0246016 -0.88882375 -0.7530459 -0.6172681
000010 e6 85 f6 be 3b 01 b1 be 70 51 3b be 5e 75 c1 bd
       -0.4814903 -0.3457125 -0.18292785 -0.09446214
000020 7a 1d d0 3a 9b 23 66 3e 1b 96 aa 3e c6 1a f0 3e
       0.0015877925 0.2247452 0.33317646 0.46895427
000030 b8 cf 1a 3f 0e 92 3d 3f 64 54 60 3f 5d 8b 81 3f
       0.60473204 0.74050987 0.8762877 1.0120655
000040 9e f0 0e c0 49 9b f9 bf 57 55 d5 bf 65 0f b1 bf
       -2.233436 -1.9500514 -1.6666669 -1.3832823
000050 73 c9 8c bf 02 07 51 bf 07 33 91 be 75 90 19 bd
       -1.0998977 -0.8165132 -0.28359243 -0.03749128
000060 38 f8 47 3e c9 be bc 3e 73 b4 19 3f 57 40 62 3f
       0.19528282 0.36864308 0.6004097 0.88379425
000070 1e 66 95 3f 10 ac b9 3f 02 f2 dd 3f fa 1b 01 40
       1.1671789 1.4505634 1.733948 2.0173326
000080 01 00 40 c0 67 66 26 c0 cd cc 0c c0 66 66 e6 bf
       -3.0000002 -2.6000001 -2.2 -1.8
000090 33 33 b3 bf 00 00 80 bf c7 09 4e bf b2 19 9d be
       -1.4 -1.0 -0.8048367 -0.30683666
0000a0 b2 19 9d 3e c7 09 4e 3f 00 00 80 3f 33 33 b3 3f
       0.30683666 0.8048367 1.0 1.4
0000b0 66 66 e6 3f cd cc 0c 40 67 66 26 40 01 00 40 40
       1.8 2.2 2.6000001 3.0000002

obsfunc.odefunc.kan.act_fun.0.coef f4 [3, 3, 10]
000000 c6 e1 92 bc f0 b2 0a be af 2e 3f 3c 2e 84 0b 3d
       -0.017929923 -0.13544822 0.011668845 0.034061603
000010 55 8c 3a 3d 88 b3 5e 3d f8 1b a4 3c e4 ce cf 3d
       0.045543987 0.054370433 0.020032868 0.10146883
000020 92 14 ef 3c 35 bc 01 3d c0 47 d0 bb 6c 91 21 be
       0.029184613 0.03167363 -0.0063562095 -0.1577813
000030 0f 4c 9f 3d f2 ef da 3d 2b b3 82 3d 4b 79 9c 3c
       0.07778179 0.10690297 0.0638183 0.019100806
000040 de 34 c3 bd 78 e2 82 3d a8 ac e9 bc f6 e3 63 ba
       -0.09531568 0.06390852 -0.028524712 -0.00086933316
000050 70 2a 1b 3b f3 be a2 b9 a9 19 c2 bb 97 4a 34 bc
       0.0023676418 -0.00031041316 -0.005923469 -0.011004112
000060 fb 18 6e bc fa 41 73 bc 3d ff 51 bc e7 cc 1a bc
       -0.014532323 -0.014847273 -0.012817201 -0.009448267
000070 7e 73 be bb ae b8 61 bb 12 f0 8d 3d b0 c7 61 bb
       -0.0058121076 -0.0034442353 0.069305554 -0.0034451298
000080 86 df 99 3b ee 59 eb bc 93 9d e0 bc 48 52 76 bc
       0.0046958355 -0.028729405 -0.027418887 -0.015034266
000090 25 a5 07 3c 3e 7f 4d bb 46 e9 c7 3c 12 e3 2d 3d
       0.00827912 -0.003135636 0.024403226 0.04245288
0000a0 bf 49 a0 3c 77 b9 20 bd c6 36 dc bc 98 8d 71 bb
       0.019566415 -0.039239373 -0.026881587 -0.0036858078
0000b0 4b a7 9e 3c ab bf c4 bb f1 fa cf bc 2e 69 e8 bc
       0.01936688 -0.006004294 -0.025388213 -0.028370466
0000c0 fe 6e c7 3c 9a 2b 94 3c 82 ab 00 bc cb 10 08 3d
       0.024344917 0.018087197 -0.007853391 0.03321914
0000d0 83 d5 33 3b 1b ce 7e bc 6b 5a 64 bc 00 03 ec bb
       0.0027440495 -0.015552069 -0.013937573 -0.007202506
0000e0 c5 68 34 bb 48 8f 2d ba 3e 0d 62 39 5a d3 62 bb
       -0.0027528268 -0.0006620777 0.00021557973 -0.0034610839
0000f0 6b 10 39 bf a4 a1 8f 3c 2a ec 8f bc c8 12 1a 3c
       -0.72290677 0.017533131 -0.017568666 0.009403892
000100 e9 9c 99 bc 88 35 1d bc 10 fc 98 3a ba fd 01 bb
       -0.018751578 -0.009595282 0.00116718 -0.001983507
000110 02 d4 ee 3b fd 49 8d be 51 07 0f 3f e4 7b 00 bc
       0.007288457 -0.2759551 0.5587054 -0.007842038
000120 5c d8 e5 3c 52 fe 07 bb 56 d9 91 3a cc 20 97 3b
       0.02805727 -0.0020750952 0.0011127393 0.004612064
000130 6a b0 aa ba 74 f1 ee 3a c3 29 d5 bb ca 45 72 3e
       -0.0013022546 0.0018229918 -0.0065052225 0.23659435
000140 fb e8 b4 3f 3f 25 1a bd 87 98 cb 3c fa 03 d2 bc
       1.41336 -0.037633177 0.024853004 -0.025636662
000150 66 81 1c 3d 37 77 9d 3c 08 e9 11 bb b0 35 7c 3b
       0.03820934 0.019221885 -0.0022264142 0.0038484149
000160 38 57 68 bc 41 f9 09 3f
       -0.014180951 0.53895956

obsfunc.odefunc.kan.act_fun.0.mask f4 [3, 3]
000000 00 00 00 00 00 00 00 00 00 00 00 00 00 00 00 00
       0.0 0.0 0.0 0.0
000010 00 00 00 00 00 00 00 00 00 00 00 00 00 00 00 00
       0.0 0.0 0.0 0.0
000020 00 00 00 00
       0.0

obsfunc.odefunc.kan.act_fun.0.scale_base f4 [3, 3]
000000 25 58 28 3f 1d d7 f3 3e a2 75 dd bc 81 e6 a5 be
       0.657595 0.47625056 -0.02703363 -0.32402423
000010 a4 1c b5 3e 35 7c 37 3e 77 15 bf be ef 01 c0 3e
       0.35373414 0.17918475 -0.37321064 0.37501475
000020 19 76 b3 3e
       0.3505104

obsfunc.odefunc.kan.act_fun.0.scale_sp f4 [3, 3]
000000 69 6f 12 3f a5 78 19 3f 3a cd 13 3f f9 5a 11 3f
       0.5720125 0.59949714 0.57735026 0.5677944
000010 89 d7 12 3f 3a cd 13 3f 3a cd 13 3f 3a cd 13 3f
       0.5736013 0.57735026 0.57735026 0.57735026
000020 3a cd 13 3f
       0.57735026

obsfunc.odefunc.kan.act_fun.1.grid f4 [3, 16]
000000 7c 31 06 bf 39 52 e7 be 7b 41 c2 be bd 30 9d be
       -0.5241926 -0.45179918 -0.37940583 -0.30701247
000010 fe 3f 70 be 82 1e 26 be ff 23 b3 bd 47 da ea bc
       -0.23461911 -0.16222575 -0.087471 -0.028668536
000020 24 84 07 bc d8 aa b7 3d ea 88 4c 3e 33 55 8b 3e
       -0.008271251 0.08968133 0.19974104 0.2721344
000030 f1 65 b0 3e af 76 d5 3e 6d 87 fa 3e 16 cc 0f 3f
       0.34452775 0.4169211 0.48931447 0.56170785
000040 1e c4 c7 be bc 12 aa be 5a 61 8c be f0 5f 5d be
       -0.39016813 -0.33217418 -0.27418023 -0.21618629
000050 2b fd 21 be cd 34 cd bd de 9a 97 3b 28 43 4e 3d
       -0.15819232 -0.100198366 0.004626616 0.050357014
000060 c0 e3 b1 3d 2a 6f 08 3e 70 53 42 3e 34 b6 7d 3e
       0.08686018 0.13323656 0.18977141 0.24776536
000070 7c 8c 9c 3e de 3d ba 3e 40 ef d7 3e a2 a0 f5 3e
       0.3057593 0.36375326 0.4217472 0.47974116
000080 51 47 02 bf 9c 5b de be 97 28 b8 be 92 f5 91 be
       -0.5089007 -0.43429267 -0.35968468 -0.28507668
000090 1a 85 57 be 10 1f 0b be 10 b1 cb bd ac 58 d7 bb
       -0.21046868 -0.13586068 -0.09945881 -0.00657185
0000a0 b5 f5 dc 3d a0 98 4d 3e 24 df 72 3e 97 a2 9f 3e
       0.107890524 0.20077753 0.23717934 0.31178734
0000b0 9c d5 c5 3e a1 08 ec 3e d3 1d 09 3f 56 37 1c 3f
       0.38639534 0.46100333 0.53561133 0.61021936

obsfunc.odefunc.kan.act_fun.1.coef f4 [3, 1, 10]
000000 1c 7e be bc a8 d0 bc bc 54 39 a5 bc 5a 20 80 bc
       -0.023253493 -0.023048714 -0.020168938 -0.015640426
000010 f2 4d 1a bc 6e 4f c4 ba 8c 29 d8 3b 94 12 64 3c
       -0.009417998 -0.0014977285 0.0065967496 0.013920445
000020 74 ed 9c 3c d7 0a a9 3c 66 45 86 3c d7 2e 85 3c
       0.019156195 0.020635052 0.016390514 0.016257687
000030 85 e3 7d 3c 18 da 6b 3c 1f 87 56 3c 27 1e 3f 3c
       0.015496139 0.014395259 0.013093739 0.011664904
000040 06 bf 2a 3c 0b 03 15 3c 2f 0b 00 3c 03 3d d9 3a
       0.01042152 0.009094964 0.007815166 0.0016573969
000050 3f 6c 43 bc 05 73 02 bc 6c 59 88 bb ed c1 0b ba
       -0.011927663 -0.007961993 -0.0041610505 -0.00053313264
000060 86 21 1a 3b 62 b3 83 3b 0f 84 a1 3b bb 06 a8 3b
       0.0023518517 0.004019187 0.0049290727 0.0051277555
000070 98 7a a0 3b f3 ba 8c 3b
       0.004897427 0.004294747

obsfunc.odefunc.kan.act_fun.1.mask f4 [3, 1]
000000 00 00 00 00 00 00 00 00 00 00 00 00
       0.0 0.0 0.0

obsfunc.odefunc.kan.act_fun.1.scale_base f4 [3, 1]
000000 0e 09 df be c3 d0 0f 3d e2 7d c9 bd
       -0.43561596 0.0351112 -0.09838463

obsfunc.odefunc.kan.act_fun.1.scale_sp f4 [3, 1]
000000 3a cd 13 3f 3a cd 13 3f 3a cd 13 3f
       0.57735026 0.57735026 0.57735026

obsfunc.odefunc.kan.symbolic_fun.0.mask f4 [3, 3]
000000 00 00 80 3f 00 00 80 3f 00 00 00 00 00 00 80 3f
       1.0 1.0 0.0 1.0
000010 00 00 80 3f 00 00 00 00 00 00 00 00 00 00 00 00
       1.0 0.0 0.0 0.0
000020 00 00 80 3f
       1.0

obsfunc.odefunc.kan.symbolic_fun.0.affine f4 [3, 3, 4]
000000 c3 fa 1f c1 9f 0d ed 40 61 54 15 bd 37 a7 9e 3e
       -9.998721 7.4079127 -0.036457423 0.3098695
000010 9f ef 1f c1 51 9d 9f c0 20 1a 92 3c f1 c8 57 3d
       -9.996001 -4.9879537 0.017834723 0.052681867
000020 00 00 00 00 00 00 00 00 00 00 00 00 00 00 00 00
       0.0 0.0 0.0 0.0
000030 62 01 20 c1 6c af 44 be cd 6e 06 bb 24 e5 85 3c
       -10.000338 -0.19207543 -0.002051282 0.016344614
000040 98 3c 1c c1 80 55 16 c1 d2 c3 9b bc e3 f7 12 be
       -9.764793 -9.395874 -0.019014273 -0.14352374
000050 00 00 00 00 00 00 00 00 00 00 00 00 00 00 00 00
       0.0 0.0 0.0 0.0
000060 00 00 00 00 00 00 00 00 00 00 00 00 00 00 00 00
       0.0 0.0 0.0 0.0
000070 00 00 00 00 00 00 00 00 00 00 00 00 00 00 00 00
       0.0 0.0 0.0 0.0
000080 a6 cb 12 c1 3b 3e 12 c1 e8 0d a6 bc fd 6b 0a be
       -9.174719 -9.140193 -0.020270303 -0.13517757

obsfunc.odefunc.kan.symbolic_fun.1.mask f4 [1, 3]
000000 00 00 80 3f 00 00 80 3f 00 00 80 3f
       1.0 1.0 1.0

obsfunc.odefunc.kan.symbolic_fun.1.affine f4 [1, 3, 4]
000000 ce 6c 1f c1 8f 2f 5d c0 21 fd d4 3e 19 7f d2 3c
       -9.964064 -3.4560277 0.41599372 0.02569537
000010 d7 06 20 c1 af 75 e6 40 a3 6a e7 3e c7 d2 5e bc
       -10.00167 7.2018657 0.45198545 -0.013600058
000020 75 f7 1f c1 1c a2 59 40 85 5c 0a bf d6 45 21 bd
       -9.997914 3.4005194 -0.54047424 -0.03937324
