anode/2/model.pth (torch, 13557 bytes, 9 tensors)

weight f4 [32, 3]
000000 70 c9 8e bd fb 6a c5 be bc a4 52 3e fc 25 7d 3e
       -0.06972015 -0.38558182 0.20570654 0.24721521
000010 3f 13 a2 be 48 2d dd bd 42 92 05 bf 3b 9c ed 3d
       -0.3165531 -0.10799652 -0.52176297 0.11602064
000020 e7 f0 5e bd 0c e2 00 3f 27 58 bb 3e 9b bf d8 3d
       -0.05442896 0.5034492 0.36590692 0.10583421
000030 e1 5a 27 be 36 55 88 be 1a 02 89 bb f7 1f 70 be
       -0.16343261 -0.2662751 -0.0041811587 -0.23449694
000040 c6 57 a5 3e 78 ad 09 bf d4 bc 20 3f 32 d5 bc be
       0.32293528 -0.5378032 0.6278813 -0.36881405
000050 1a 8c d6 3e 36 f2 e6 bc 1c bd 5b 3e f9 47 41 3e
       0.41903764 -0.028191667 0.21458858 0.18875112
000060 13 39 42 bd 09 a0 41 3e d6 37 f1 3e d8 63 3a 3e
       -0.04741771 0.18908705 0.47112912 0.1820215
000070 7c bc d1 3e 69 56 b8 be 75 db 06 3f 10 c7 2e 3e
       0.40964115 -0.36003426 0.52678615 0.17068124
000080 f3 f4 e4 3d 9b b9 ed 3d 3d 8e 7b 3e 49 5f cd 3e
       0.11179533 0.11607667 0.24565978 0.4011176
000090 f5 5e 77 be 8d 59 ce be 2f 3f 6d be 69 b5 03 bf
       -0.24157317 -0.40302697 -0.23168634 -0.51448685
0000a0 6c c7 91 3e cd d0 62 be fb 58 cf be bb e8 05 3f
       0.2847246 -0.22149964 -0.40497574 0.52308244
0000b0 25 21 0f 3f f3 04 cc bd 68 cf ba bd a1 52 ce bd
       0.5590995 -0.099618815 -0.09121591 -0.10074354
0000c0 48 9c f1 3e 55 d6 04 bf bd e7 00 bf 7f e1 1b 3f
       0.47189546 -0.51889545 -0.50353605 0.60890955
0000d0 5c 81 0b 3f fd 5c 09 bc 93 a2 d2 be c8 3f 06 be
       0.5449426 -0.008383987 -0.4113966 -0.13110268
0000e0 1a ae 5e be 46 4a 29 be a4 5f d2 3e f5 71 58 3c
       -0.21746102 -0.1653224 0.41088593 0.013210763
0000f0 f8 c5 87 bc fc 9e 02 3c fb 11 d1 3d cf 07 cc be
       -0.016573891 0.007972475 0.102085076 -0.39849707
000100 92 f2 85 be 03 39 ca bd ac 54 8e be c0 5c ac be
       -0.2616163 -0.09874155 -0.27798975 -0.33664513
000110 9e da 1e 3e 24 72 89 3e 32 f6 81 3e 85 10 fb bd
       0.15513083 0.26844895 0.25383145 -0.1225901
000120 a9 b1 f2 3e 7b c4 82 be be 9f 45 bd 15 20 f8 3e
       0.4740117 -0.25540528 -0.048248045 0.48461977
000130 72 5b 2a 3e 12 90 9e bc 57 b1 4b 3e 36 bf 4c be
       0.16636446 -0.019355807 0.19891869 -0.19994816
000140 54 75 c3 3e c3 47 d6 be 98 ea 71 be 9a a6 59 bd
       0.38175452 -0.41851625 -0.23624647 -0.0531374
000150 2d b2 a3 be 93 dc 04 be 97 c4 a5 3e 46 b6 d2 3e
       -0.31971875 -0.12974767 0.3237655 0.4115469
000160 5d 59 e4 3c 2a f4 d9 3e e3 8a 07 bf e4 e9 ce be
       0.027874643 0.42569095 -0.529463 -0.4041282
000170 f8 73 c5 3e ff 2a 14 3e 24 25 06 bf 28 a8 e6 be
       0.3856504 0.14469527 -0.5240042 -0.45050168

bias f4 [32]
000000 18 b6 a6 be 87 7d c7 3e b1 5c 88 3e 4b 5d d1 3e
       -0.32560802 0.38962957 0.26633218 0.4089149
000010 2b fd 00 bf 57 a8 03 bf f9 2a c6 be 16 8c 6a 3c
       -0.50386304 -0.5142874 -0.3870466 0.014315626
000020 71 f9 98 bd 53 6d de be ba 15 ca 3e a1 32 a0 be
       -0.07469452 -0.43442783 0.394697 -0.31288627
000030 4a 50 7f be ec 67 78 3e b3 eb 01 be 37 5c 95 3e
       -0.24932972 0.24258393 -0.12687568 0.29171917
000040 c1 a7 1d 3e 44 e4 f8 3d 1d 64 9e 3d 8d c0 09 bf
       0.15396024 0.12152913 0.07733939 -0.53809434
000050 50 57 ba be 79 5d a4 be 2d e5 bc be 95 2e 9b 3b
       -0.3639474 -0.32102564 -0.36893597 0.0047357776
000060 65 48 2f 3e 74 8f 99 be bf db 8b 3e 67 49 bc be
       0.1711746 -0.2999226 0.2731609 -0.36774752
000070 ee e4 6d 3e fe a8 6b be d3 b5 bf be e3 3f ad be
       0.23231861 -0.23013684 -0.37443408 -0.33837804

weight f4 [32, 32]
000000 79 20 15 3d 08 f1 70 3d b9 1f 20 be 1b c0 78 bd
       0.03640792 0.058823615 -0.15637101 -0.06073008
000010 a4 4b 64 be 2a 04 1e 3d 55 6d 82 3e 05 9f b8 3c
       -0.2229448 0.03857819 0.2547404 0.022536764
000020 b9 f4 f2 bd 7d ed 18 3d 79 7e 1c 3e e6 41 69 bd
       -0.118630834 0.03733586 0.1528262 -0.05694761
000030 2a 02 b2 bd 1b e1 4a 3c 9f 39 8f bc 48 06 ab bd
       -0.08691819 0.012382771 -0.01748353 -0.083508074
000040 c2 a4 3e be 67 7e 24 3d 24 8f 2a bd 71 ca 83 bd
       -0.18617538 0.04015961 -0.041640416 -0.06435097
000050 b5 7a 15 3e 47 92 4f bd 52 3e fd bd 44 71 2a be
       0.1459759 -0.05067661 -0.12365402 -0.1664477
000060 b0 0d ae bd 16 91 08 3e b9 b6 20 3e 8b d8 6e bd
       -0.084987044 0.13336596 0.15694703 -0.05831198
000070 4f e2 3d be 8e 77 e0 3d ab 23 41 3c 9e ba 1c be
       -0.18543361 0.10960303 0.011788289 -0.15305564
000080 45 43 b6 bd 22 1e 2c bd d0 17 24 be 4e d9 27 be
       -0.088995494 -0.042020924 -0.16024709 -0.16391489
000090 b3 9e bc 3c 6f 8a 14 be 84 5c c3 bd 88 3c c0 bd
       0.023024892 -0.14505933 -0.0953913 -0.093865454
0000a0 c4 d8 a6 3d 40 ce 0b 3d 7e 6a 10 3d 51 29 f5 bd
       0.081468135 0.034132242 0.03525781 -0.11970771
0000b0 55 92 ba 3d b4 10 3b bd 99 cc c8 bd 2e 6c 8d bd
       0.09109942 -0.045670226 -0.09804649 -0.06905399
0000c0 91 f7 3a be 00 b1 05 bc 2e c6 25 3d 88 c0 a2 bd
       -0.18258502 -0.008159876 0.040472202 -0.07946879
0000d0 bf 02 19 3e be 64 25 bb ae af 9a bd b0 af 28 b9
       0.14942454 -0.002523705 -0.075530395 -0.00016087177
0000e0 60 be b6 bd 84 49 28 bd fb 00 29 be 8b 18 3c 3d
       -0.0892303 -0.041085735 -0.1650428 0.045921843
0000f0 68 9b 59 3d 63 65 15 3c 68 92 58 3d 3e ea f3 3d
       0.053126723 0.009118411 0.052874 0.119099125
000100 85 d1 d3 3d 15 ed 44 be 55 9e fc 39 06 61 06 3d
       0.10342697 -0.19231065 0.00048183152 0.032807373
000110 99 5f 25 bc a7 87 81 be fa 56 4c 3d 63 d4 88 bd
       -0.010093593 -0.25298807 0.049887635 -0.066811346
000120 c5 8e e3 3d 09 4f 81 3d 56 e3 bb bb 99 b1 9a 3c
       0.111112155 0.06313903 -0.0057338877 0.018883513
000130 a3 81 66 be 10 2f 84 bd 54 50 27 3e 3b 3f 1f 3b
       -0.2251039 -0.06454289 0.16339236 0.0024299163
000140 e6 31 98 bb e0 f5 96 3e f0 d2 b0 bd b6 b1 0a 3e
       -0.00464462 0.29484463 -0.08633983 0.13544354
000150 a9 be c3 bd b2 e2 b8 3d 3e 70 8d bc 70 30 4d 3c
       -0.0955785 0.09027614 -0.017265435 0.012523755
000160 ff 1f c9 3d 22 28 80 3d e8 68 aa 3c 74 0c f2 bd
       0.09820556 0.06257655 0.020801976 -0.118187815
000170 d9 bd 78 bc b5 9c 66 3d 8d 3c 47 be 5f 2a 43 bd
       -0.015181982 0.05630179 -0.19456692 -0.04764783
000180 f4 1d 1e 3d d7 62 28 be 11 88 87 3d 02 8d e6 bd
       0.038602784 -0.16443954 0.066177495 -0.11257364
000190 f1 99 16 be 28 d2 d8 bd 7d 9d 6c be 53 2b 1d 3d
       -0.14707161 -0.10586959 -0.23106952 0.038371395
0001a0 a7 2b 99 3d d9 91 24 3e 0a 5c ee 3d 22 54 44 3d
       0.07479029 0.16071261 0.11638649 0.047931798
0001b0 be 12 b1 3d ed c4 98 3c 31 50 21 3e c5 31 dc bd
       0.08646153 0.018648589 0.15753247 -0.1075168
0001c0 94 c2 44 bd 2c bf 39 be 8c e7 72 bd f5 6c a9 bd
       -0.048037127 -0.18139333 -0.05930285 -0.08272735
0001d0 cc 9a 13 bd 49 34 4b 3e 9b 19 05 bd b4 d7 7e be
       -0.036036298 0.19844164 -0.032495122 -0.24886972
0001e0 1f 77 11 be 29 6b cd 3d c1 a3 cd 3a 34 d5 35 3d
       -0.14205597 0.10030205 0.0015689061 0.04439278
0001f0 77 f6 87 bd 35 0c ac 3d 89 17 ea bd a2 25 cd 3d
       -0.06638806 0.08400766 -0.1143027 0.100169435
000200 50 99 44 3d f3 49 57 3d 52 21 ad bd d0 0f de bd
       0.047997773 0.052560758 -0.08453621 -0.1084286
000210 ed 25 98 bd 4e 7a c0 3e 7d b8 ac bd 1b de c0 bd
       -0.07429109 0.3759331 -0.08433626 -0.09417363
000220 ae 2b da 3d 12 9b 10 3e d6 99 39 bd f1 06 30 bd
       0.106528625 0.14121655 -0.045312725 -0.04297537
000230 f0 92 29 be 39 f9 3b 3e 4a 16 8f 3e 76 4e 9d bd
       -0.16559958 0.1835679 0.27946693 -0.07680981
000240 0e 4d c2 bd bb 54 b4 3d 14 5f fb bd 8d f8 24 3e
       -0.09487353 0.088052236 -0.12273994 0.1611044
000250 ca 56 b8 bd 54 7c 09 bd 96 7a dd 3d 62 fa 54 3d
       -0.09000929 -0.033565834 0.10814397 0.051996596
000260 e4 0b 10 bc 6d c3 13 3e 8a 60 53 be 8f ba 60 3d
       -0.008791897 0.14430018 -0.20642295 0.054865416
000270 8b 41 67 be 05 c0 93 bd ee b6 1a be b5 8f 8f be
       -0.22583596 -0.07214359 -0.15108845 -0.28039327
000280 f8 b9 35 3e 0f de f6 bd 75 0d e2 3c 88 aa d4 bd
       0.17746723 -0.12054073 0.027594307 -0.10384089
000290 8b 9a a3 bd 81 ac 26 3d e0 95 8a bd 7b 48 0e 3e
       -0.07988461 0.040691856 -0.06766868 0.13894837
0002a0 ac 89 02 be c5 85 67 3e a3 49 15 be 98 93 8e 3d
       -0.1274783 0.22609623 -0.14578871 0.06961745
0002b0 90 c4 5b 3e 6e 42 88 3d c3 e1 2b bd f4 ad df 3d
       0.21461701 0.066532955 -0.04196335 0.10921851
0002c0 1d 5f 84 bd 83 04 44 be e1 0c f6 bb 3a 2d c3 bd
       -0.06463454 -0.19142346 -0.0075088595 -0.09530111
0002d0 d8 b4 90 bc 67 43 91 bd 91 3d 73 3e a1 4d 66 be
       -0.017664358 -0.07092934 0.23753954 -0.2249055
0002e0 d5 fe 6a be a1 da cb bc a3 a2 51 3d b6 ff 66 3e
       -0.22948773 -0.024884524 0.051180493 0.22558483
0002f0 37 ef 29 be 3f 88 5a 3d 18 b4 75 3e d8 74 6b bd
       -0.1659516 0.05335259 0.23994482 -0.057484478
000300 52 f0 96 3d bc 40 d6 bd 63 a6 73 3b c9 69 57 be
       0.07370056 -0.10461566 0.0037178032 -0.21036448
000310 a4 df cf bd fd 85 e5 bd c9 62 c1 bd eb 69 63 bd
       -0.10150078 -0.11207197 -0.0944267 -0.055520933
000320 0c 00 62 bd 33 df d5 bd d2 d4 07 3d 0f 16 20 3d
       -0.055175826 -0.104429625 0.033161946 0.039083537
000330 3f cb 1e be 5e 25 53 be 43 7c a8 bd a7 88 a4 bb
       -0.1550722 -0.20619723 -0.08226826 -0.005021173
000340 f1 59 47 be b8 4b 9c bd 7b bd 4c bd 5c 51 0a be
       -0.19467904 -0.0763163 -0.04998539 -0.13507599
000350 e5 82 29 3e b3 1a 03 3e 5d 43 0a 3e 05 4b 07 be
       0.16553839 0.12803154 0.1350226 -0.13212211
000360 8c c0 3e be 27 bd 1c bd ca e3 4c 3d 72 1b b1 3d
       -0.18628138 -0.038266327 0.050021924 0.08647813
000370 53 74 29 be 79 fe ad 3d c9 a2 ab bd 38 2c fd bc
       -0.1654828 0.084958024 -0.08380658 -0.030904874
000380 72 a5 af 3c b0 eb 73 3d b8 8d 59 be 6d c8 20 be
       0.021441195 0.05955094 -0.21245468 -0.15701456
000390 39 ee 43 3d 37 aa 83 3d 5d 53 a4 3c 9f 23 78 3d
       0.04783461 0.0642895 0.020059282 0.060580846
0003a0 6b 06 f7 3d d9 06 ec bc 62 86 20 be 8b be 3f bd
       0.12061771 -0.028811859 -0.15676263 -0.046812575
0003b0 c4 a7 12 3e bd 6e b1 bd 8b 43 64 be 5e 54 8b 3d
       0.1432181 -0.086637 -0.2229139 0.06803201
0003c0 0f a3 a9 bd c0 69 c6 bd a7 76 31 3d 7d b7 42 bc
       -0.08283054 -0.09688139 0.043326046 -0.011884567
0003d0 fb e2 03 3e 3e fa 98 bd c5 54 0d 3e 2d 84 6e bd
       0.12879555 -0.07469605 0.13801868 -0.05823152
0003e0 21 67 a0 bd e8 49 64 3e e0 34 11 3e 7e 64 99 3d
       -0.0783217 0.22293818 0.14180326 0.074898705
0003f0 63 2c ad bd 8b fa d5 bd a3 63 c1 3d 53 63 27 3e
       -0.08455732 -0.10448178 0.09442832 0.16346483

bias f4 [32]
000000 02 99 5e 3d ce 1b e0 bd 50 bf a1 bb 48 0f b7 bd
       0.05434514 -0.10942803 -0.0049361363 -0.089384615
000010 52 f1 87 3d 6e b0 f2 3d 66 39 3f bc 52 52 ee 3d
       0.06637825 0.118500575 -0.0116714 0.11636795
000020 26 e9 a4 3c 6f 87 19 be dd 19 1a be 2a db 9c bd
       0.020130705 -0.1499307 -0.15048929 -0.0765899
000030 08 40 26 be 89 90 0c 3d aa b7 cf 3d 8c f6 d9 bd
       -0.16235363 0.034317527 0.10142453 -0.10642728
000040 53 88 e3 bd 67 56 0a be 83 3a bd 3c a8 e8 4f bd
       -0.11109986 -0.13509522 0.02309919 -0.050758988
000050 47 ec 8a 3d 8c 9c e0 bd 3a 79 3f be 40 0d 2e 3d
       0.067833476 -0.10967359 -0.18698588 0.042493105
000060 83 fe 2f 3e 7c e4 cc bd e7 56 0e be e9 61 ce bd
       0.17186932 -0.100045174 -0.13900338 -0.10077269
000070 ab 66 31 be fc 11 2b be 00 22 b7 3d 20 e7 df 3d
       -0.17324321 -0.16706079 0.08942032 0.109327555

weight f4 [32, 32]
000000 20 d3 ab 3c 04 ce 20 be 48 f2 1e bd 71 75 46 3d
       0.020974696 -0.15703589 -0.038805276 0.048451845
000010 b4 0e f7 3c ee 73 d2 bd b7 3c 6d bd 85 e5 90 3c
       0.030158378 -0.10276018 -0.05791923 0.017687568
000020 59 6e c2 3d 6d 86 28 3e 65 8e d5 3d 21 8a c7 3d
       0.094937034 0.1645753 0.1042755 0.09743143
000030 cd 82 11 be 22 03 db 3d 03 dc 88 bd 74 eb 37 bd
       -0.14210053 0.10693957 -0.06682589 -0.04490228
000040 df 72 19 3e f6 31 a8 bd db 98 12 bd 70 74 5b bc
       0.14985226 -0.08212654 -0.035790306 -0.01339446
000050 78 b5 3d be 90 e4 46 be 6f 5e 20 3e 1f 60 db 3d
       -0.18526256 -0.19423127 0.15661024 0.10711693
000060 04 d9 9d bd de 28 32 be eb a6 e9 3d f4 b4 23 3d
       -0.07707408 -0.17398402 0.1140879 0.039967492
000070 ae 06 c2 3d 73 4d 19 be 25 3c 44 3c 68 75 3c bd
       0.0947393 -0.14970951 0.01197723 -0.046010405
000080 d3 5d 20 3e 71 34 0a 3e fd f2 c2 3d b4 b7 38 3d
       0.15660791 0.13496567 0.095190026 0.045097068
000090 a1 b3 72 3d 0c ff 78 3d 5b 47 29 3e 76 3d c9 3d
       0.05925334 0.060790107 0.16531126 0.09826176
0000a0 28 64 57 bc 1c 42 4f 3d 29 58 86 bd bd 70 10 3e
       -0.013146438 0.050600156 -0.06559784 0.14105506
0000b0 5a 7b c8 bd 7f 3e 1c 3e ff 47 09 3e 74 33 0b be
       -0.097891524 0.15258215 0.1340637 -0.13593847
0000c0 79 e1 23 be 40 26 8b bb 0c 6d 96 3d 67 a7 0f 3e
       -0.1600398 -0.004246503 0.07345018 0.14028703
0000d0 1e 25 1b be dc 83 33 bd 84 ee 31 3d f6 f4 6d bd
       -0.15150878 -0.043826923 0.043440357 -0.05809494
0000e0 88 86 1d be 3c 4d 49 3d d9 58 8a 3d 68 b1 ae bc
       -0.15383351 0.049145922 0.067552276 -0.021324828
0000f0 12 05 bd 3d 68 ea ee 3c ab 68 12 3e c0 76 1a 3d
       0.09229483 0.029164508 0.1429774 0.037710905
000100 7e 15 3a 3c 81 65 ad bd 75 d7 27 be 8d 1a 6d 3d
       0.011357663 -0.08466626 -0.16390784 0.05788665
000110 f3 2e 52 3e 4b 0b 29 3d 09 75 d6 bd 1a e4 9f 3d
       0.20525722 0.041270535 -0.104715414 0.07807179
000120 e6 cf 21 3e 73 53 16 bd f7 7a 2c be 39 d1 29 3c
       0.15801963 -0.036700677 -0.16843782 0.010364824
000130 89 fc a2 3d 64 04 c1 3d 37 23 27 3d 4c a8 98 bc
       0.079583235 0.094246656 0.040805068 -0.018634938
000140 f6 cc 97 3b b4 b9 4e be 86 2c af 3d 0f 7d 9d bd
       0.0046325875 -0.20188028 0.08553414 -0.07689869
000150 07 89 31 be 19 1a c3 3d 06 05 1d 3d b0 5f c4 bd
       -0.17337428 0.09526462 0.03833487 -0.095885634
000160 9a 2c 3a bd 04 99 4e be e4 19 35 3d 4d 7a fb bc
       -0.04545269 -0.20175558 0.044214144 -0.030697966
000170 0e df bb 3d 08 d7 12 bd ac 38 07 3e cf d6 35 be
       0.09173404 -0.0358496 0.13205212 -0.17757724
000180 63 94 0d bd bc 27 9c bd b2 0b 6a bd 0d d9 08 3e
       -0.03456534 -0.07624766 -0.05714006 0.13364048
000190 bf 1e ff 3c 5e 1a 10 3e b0 ce ae 3c 15 cc 91 bd
       0.03114259 0.14072558 0.02133879 -0.07119004
0001a0 a9 0e 8a bd e9 f3 18 be 26 1e 55 3e 37 45 a8 bd
       -0.067410775 -0.14936794 0.20812282 -0.08216327
0001b0 05 d8 aa bb 8e 47 32 3d 5c b2 a9 bd c9 5f bc bd
       -0.00521374 0.04352527 -0.082859725 -0.09197957
0001c0 bb 7f 08 bc 35 3f f0 3d 22 75 03 3e 5a 78 db bd
       -0.008331235 0.11730806 0.12837651 -0.107163146
0001d0 d2 dc 1d 3e 0c 9a 81 3c cf 79 e9 bd ad de 9d bd
       0.15416268 0.015820526 -0.11400186 -0.07708488
0001e0 15 4a cc bd e1 82 7c 3d 0d d2 35 be b5 02 6f 3c
       -0.099750675 0.061648253 -0.1775591 0.014588048
0001f0 4a 35 d6 3d 28 64 eb bc 2c 85 2e 3d 40 e3 e4 bd
       0.10459383 -0.028734282 0.04260747 -0.11176157
000200 56 13 d9 3d c7 fe ae 3d 76 04 aa bc a2 bd c2 3b
       0.10599391 0.08544689 -0.02075408 0.005943016
000210 14 6a 6b 3e 71 65 3e be 92 56 08 3e d7 2a 1d be
       0.22989684 -0.18593384 0.13314274 -0.15348373
000220 7a 6d 80 bd 28 16 47 be 1d f1 fd bb dc e7 55 3e
       -0.06270881 -0.19442046 -0.00774969 0.20889229
000230 1c ca 94 bc da 4d c5 3d 01 a6 0d 3d 6e 02 44 be
       -0.01816278 0.0963399 0.03458214 -0.19141552
000240 bc 62 05 be f1 6b 53 3c ac 81 c9 3d 8d d3 90 3d
       -0.13025945 0.012904153 0.09839186 0.070716
000250 ee a3 a3 bd 3c ed bc 3d cb fc cc 3d cb 80 ac bd
       -0.079902515 0.09224936 0.10009154 -0.08423003
000260 08 b0 4a be 56 95 5c be bc 55 06 3e 23 41 4d be
       -0.19793713 -0.21541342 0.13118643 -0.20044379
000270 b3 6f e5 bd d0 04 70 3d ef aa a2 3d e4 ca d2 3d
       -0.112029456 0.05859834 0.07942759 0.102926046
000280 09 5d 37 be ce 7b e6 3d 7f 41 b2 3d b2 75 85 bd
       -0.17906584 0.112540826 0.08703899 -0.06516589
000290 18 83 70 bd 64 3c ef bd bd 45 36 bd b1 34 3f be
       -0.05871877 -0.116814405 -0.0445001 -0.18672444
0002a0 8e ce cb 3d 5c 0a cf 3d 50 a2 4b 3c 18 f3 14 3e
       0.099515066 0.10109398 0.012428835 0.14545858
0002b0 1d df c5 bd b6 a9 ee 3d fc 4f 54 3e 50 f3 5b 3d
       -0.09661696 0.116534635 0.20733637 0.053698838
0002c0 c5 46 27 3e 68 6e 8f bd 36 4a 39 3d 34 63 fc bd
       0.1633559 -0.0700348 0.04523679 -0.12323609
0002d0 35 e7 6d bd 00 1c 68 3e 72 80 8d bd c9 d1 81 3d
       -0.058081824 0.22666931 -0.069092646 0.063388415
0002e0 41 c5 65 bc 1e ad b1 bc 78 8f 52 bd 00 ed 97 3d
       -0.01402408 -0.021688994 -0.051406354 0.07418251
0002f0 78 b8 35 3e 6b ac c9 bd 85 6b 42 be 76 cc b9 bc
       0.1774615 -0.09847339 -0.18986328 -0.022680502
000300 cb db ac bd 8e 90 ee 3d 54 a6 74 bd 57 da 00 3e
       -0.0844036 0.11648665 -0.059728935 0.1258329
000310 20 01 25 3d 47 f7 80 bd 5c f9 b4 bd 38 0b 15 3d
       0.040284276 -0.062971644 -0.08836624 0.036387652
000320 84 a5 11 be a8 1e bc bc 59 b0 2f be 12 5b 1f be
       -0.14223295 -0.022963837 -0.17157115 -0.15562084
000330 f9 67 de bd 92 72 c1 3d 97 08 0b be 35 1c 2d 3e
       -0.10859675 0.09445681 -0.13577496 0.16905291
000340 fd c9 2e be de 96 20 be c2 1e a1 3d e0 45 b3 3b
       -0.1706924 -0.15682551 0.07867195 0.0054709762
000350 dd 8b 06 3e b8 ab 25 bd 0a f0 98 3d 1f dd 10 3e
       0.13139291 -0.040446967 0.07467659 0.14146851
000360 6b 81 f9 bd 7d 00 fe bd 51 b8 1d 3e e5 a0 1b 3e
       -0.12182888 -0.12402437 0.15402342 0.15198095
000370 60 27 eb bb 72 7e d0 3d bd 21 03 be f9 42 10 3e
       -0.0071763247 0.101803675 -0.12805839 0.14088048
000380 89 7f 46 bd 00 9b 12 3e f4 c2 8c bc cc 70 1a be
       -0.04846147 0.1431694 -0.017182805 -0.15082091
000390 c3 e0 01 be dd e2 f4 bc c9 39 44 bd ef 36 70 3d
       -0.12683396 -0.029893333 -0.04790667 0.05864614
0003a0 43 75 40 be 61 bc 9e bd 57 35 a9 bc 14 fc a4 bc
       -0.18794732 -0.07750774 -0.020655317 -0.020139731
0003b0 ad f8 11 be 71 a9 f2 3d 76 df 0c be b4 12 47 3e
       -0.14255019 0.11848725 -0.13757119 0.19440728
0003c0 04 f5 2d 3c bb 43 21 3d 21 fb 07 bd 37 47 07 3e
       0.010617498 0.039371233 -0.03319848 0.1321076
0003d0 29 ab b5 bd e9 1b 3f bd b1 90 2b 3e 72 17 9a bd
       -0.08870537 -0.046657477 0.16754414 -0.07524003
0003e0 33 f7 63 bc 93 b9 3d 3d 81 7d 0d be ed d4 93 bd
       -0.013913917 0.046319555 -0.13817407 -0.07218347
0003f0 68 37 48 bd 20 52 b1 3c 8f e3 1d 3e 64 ec 8d bd
       -0.048880965 0.021645606 0.15418838 -0.069298536

bias f4 [32]
000000 cf d8 10 be 0e f4 38 be 36 a8 f6 3c 60 33 fa 3d
       -0.14145206 -0.1806185 0.030109506 0.1221683
000010 eb c5 2a 3e 25 29 0b 3e 00 43 1c be 57 08 e7 3d
       0.16677062 0.13589914 -0.15259933 0.112808876
000020 72 24 ea 3d ee 99 40 3d 97 1c dc 3d cc 1b ca 3d
       0.11432733 0.0470218 0.107476406 0.09868583
000030 4b 81 ea 3d 57 8d 89 3c 7c c9 01 be 6b 80 57 3c
       0.11450442 0.016791029 -0.12674516 0.013153176
000040 29 5d 19 be cf 07 1b 3e 42 2a 23 3e be 49 5a bd
       -0.14976944 0.15139697 0.15934089 -0.053292982
000050 14 aa 0d 3e 34 20 a1 3c 7d 5c 03 be d8 57 83 3d
       0.13834411 0.019668676 -0.1282825 0.06413239
000060 9a b3 13 3e 53 f9 11 3e 16 c0 b2 3c 3a 82 de 3d
       0.14423981 0.14255266 0.02182011 0.108646825
000070 1d d0 cf 3d 1c 68 f8 3c 18 2d 1b be c9 1d a6 bd
       0.10147116 0.03032308 -0.1515392 -0.0811115

weight f4 [2, 32]
000000 75 e0 0f bd 0e a2 07 3e 2e 8a 60 bb dc 63 a4 3d
       -0.03512617 0.13245413 -0.003426205 0.08026859
000010 45 9f 1f be a7 01 73 bd 0c 9a 65 3d 69 4e 44 3d
       -0.155881 -0.059327748 0.056055114 0.04792634
000020 18 e6 5b 3c ba bf ac bb 56 55 84 3d b9 91 12 bd
       0.013421558 -0.005271879 0.06461589 -0.035783503
000030 61 a6 ee 3d 94 d3 2d 3e f0 65 e3 bc 8d 8e da bd
       0.11652828 0.16975242 -0.027758569 -0.10671721
000040 10 40 1c 3d 78 d4 9f 3d 0a f8 90 3d a3 9c 62 be
       0.038147032 0.07804197 0.0707856 -0.22130065
000050 27 a8 18 bc f6 37 1e bc 6a d4 9f 3d 69 d7 20 bc
       -0.009317434 -0.009656897 0.07804187 -0.009816983
000060 4e db 07 3e 47 c9 14 bd 37 f6 55 3d f4 0c 17 be
       0.13267252 -0.036324766 0.052236762 -0.14751035
000070 27 2d 28 3e 59 bd 1f bd b7 85 ba bd c2 65 f7 3d
       0.16423474 -0.038998935 -0.09107535 0.12079956
000080 56 ab 3b 3b c0 f9 ca bd cd 65 c8 bd 0d 93 17 3e
       0.002863606 -0.09910917 -0.09785042 0.14802189
000090 7d 97 38 3e 55 b8 7a 3d 18 93 a7 bc 5b 88 c4 bd
       0.18026538 0.06121095 -0.020455882 -0.0959632
0000a0 08 9a 23 bd 90 73 d9 bd 39 a7 18 be 15 9d 28 3d
       -0.039941818 -0.10617745 -0.1490754 0.04116543
0000b0 64 c1 11 3e d7 33 a9 bc 0d 90 12 be 67 bc a4 bd
       0.14233929 -0.020654602 -0.14312764 -0.080437474
0000c0 16 3e de 3d f3 e8 24 3d e5 48 62 3d 73 05 c1 bd
       0.10851686 0.04026122 0.0552453 -0.094248675
0000d0 3f e3 25 bd c4 d6 75 3e 94 ae 89 bd 75 28 a4 bd
       -0.040499922 0.24007708 -0.06722751 -0.08015529
0000e0 93 95 08 be ad 39 cd 3d 4a 3e e3 3d 1e 93 01 bc
       -0.13338308 0.100207664 0.11095865 -0.007908611
0000f0 50 d6 02 3e 78 7d 18 3e 6a 37 c4 3d 09 2d 96 3c
       0.12777066 0.14891613 0.09580882 0.018332021

bias f4 [2]
000000 f8 f0 7e bc 17 6c 45 bd
       -0.015560381 -0.048198786

z0 f4 [2]
000000 00 00 00 00 00 00 00 00
       0.0 0.0
