s3node/1/model.pth (torch, 13429 bytes, 8 tensors)

weight f4 [32, 3]
000000 79 a2 e2 3e e8 68 bb be 39 af b6 3e fc 33 e6 3e
       0.44264582 -0.36603475 0.3568056 0.44961536
000010 f3 32 0b 3f d2 75 19 bf 91 36 a2 be e7 3f df 3e
       0.5437462 -0.59945405 -0.31682256 0.4360344
000020 c0 22 3f bf 98 7f 03 3f e7 63 93 3d 12 b3 a1 3d
       -0.746624 0.5136657 0.07196789 0.07895483
000030 73 df e5 be 97 20 13 3e 06 bc ea 3e 00 6f 0b 3d
       -0.4489704 0.14367901 0.45846575 0.034041405
000040 7f db fe 3e 2e 7d 6c 3e b7 3e 1c bf ab 1d 9d 3e
       0.49776837 0.23094627 -0.61033195 0.30686697
000050 f8 fa e7 3e 9f cb 9a be e3 47 28 bf 2f 09 13 3f
       0.4530866 -0.30233476 -0.6573469 0.5743589
000060 6a f3 1c 3f 52 65 be be 64 68 1e be 40 48 54 3e
       0.6130892 -0.37186676 -0.1546951 0.20730686
000070 d2 c7 7b be 9a cc 1e be 27 28 9e be 33 52 17 be
       -0.24587944 -0.15507737 -0.3089001 -0.1477745
000080 1c b9 3f bf bb 90 bc bd bb 88 33 3e 18 38 09 3f
       -0.7489183 -0.09207293 0.17532627 0.5360122
000090 c2 06 fa 3e 28 b7 0b bf e1 f0 8d bd a1 94 01 3f
       0.4883328 -0.5457635 -0.0693071 0.50617415
0000a0 2a 17 2f 3d e2 bb c9 bd 42 e4 09 bf 7b b7 19 3e
       0.0427467 -0.09850289 -0.5386392 0.15011398
0000b0 79 e4 1a 3f 20 e7 d4 3e e9 48 ee 3e c6 91 dd bc
       0.6050487 0.41582584 0.4654 -0.02704705
0000c0 28 12 eb 3e 97 24 be bd b6 e5 f2 3e 87 6c 6b bd
       0.4591229 -0.09284323 0.4744088 -0.057476547
0000d0 f6 c4 a2 bd 46 c4 ed be b0 1f bb 3e c3 1d 95 3e
       -0.079477236 -0.46438807 0.36547613 0.2912427
0000e0 ca f0 7e 3e fd ce ad be 68 dd b8 be 15 df 32 3f
       0.24896541 -0.33946982 -0.3610642 0.69871646
0000f0 cf b9 9c be bd f8 98 be c5 d7 80 be 82 3e 00 be
       -0.3061051 -0.29877272 -0.2516462 -0.12523845
000100 96 27 c6 be f5 75 27 3f 47 70 ae 3c 1f 83 c9 3d
       -0.38702077 0.65414363 0.021293772 0.098394625
000110 5c 21 ea 3e 70 4d b6 be 71 ac 05 3f 10 8a 05 bf
       0.45728576 -0.35605955 0.5221625 -0.5216379
000120 1a df cf bd e2 d9 bb 3e 83 18 18 3f 06 bf 0f 3f
       -0.10149975 0.3668967 0.594124 0.56150854
000130 1c 30 d2 3e 62 af c1 3e 70 b2 4c be 97 84 24 3d
       0.4105233 0.3782912 -0.19989944 0.04016551
000140 3b f4 c4 be 0f 2f 59 bd 37 86 07 be 4f c2 dc 3e
       -0.38467583 -0.053023394 -0.13234793 0.43116996
000150 83 ea ed 3e c1 48 a4 be 04 ed e3 be c3 27 58 be
       0.4646798 -0.32086757 -0.44516766 -0.21108918
000160 28 68 d9 3d d3 a4 c9 be dd 92 c2 be f8 22 ec bd
       0.10615569 -0.39383563 -0.38002673 -0.11530107
000170 bc 2a 97 be 57 b6 3d 3d 38 3e b0 be c9 05 bd be
       -0.2952479 0.04631647 -0.3442247 -0.36918476

bias f4 [32]
000000 23 00 69 be f5 bf e1 3c ac 29 cb 3e 68 d1 a6 3e
       -0.22753958 0.027557353 0.3968023 0.3258164
000010 1d f7 04 be 28 3e 16 bf 10 2f 32 be fa fe 90 be
       -0.12984891 -0.5868859 -0.17400765 -0.28319532
000020 13 97 b9 3d 8f 35 b3 be 73 24 d5 be 3b 82 8b 3e
       0.09062018 -0.350018 -0.4162937 0.27247795
000030 73 72 8f bc 25 1a 12 be 44 90 92 bd 56 e7 e9 3e
       -0.017510628 -0.14267786 -0.07156423 0.45684308
000040 7e 8f 04 bf dc 20 0d bd ed 11 9a 3e c3 73 c9 3e
       -0.5178145 -0.034455165 0.300918 0.39346132
000050 78 de e7 be 62 c0 08 be 7a f9 fb 3e 4d 3d 5c 3e
       -0.45286918 -0.13354638 0.49213773 0.2150776
000060 93 3b 4b 3c b2 67 d9 be 60 9c 0c 3f 09 7c 2c be
       0.01240434 -0.42461926 0.5492611 -0.1684419
000070 56 de 55 be 47 45 00 3f e8 d1 3e 3e 58 cd 5d 3b
       -0.20885596 0.5010571 0.1863476 0.0033844318

weight f4 [32, 32]
000000 52 4f fc bd ac 45 20 bd 2b 0f 0b be 2c 97 f3 bd
       -0.12319817 -0.039128944 -0.13580005 -0.11894068
000010 30 64 cf bc 28 fb 0b 3d 98 52 14 be f7 ee 2f 3e
       -0.025316328 0.03417507 -0.14484632 0.17181002
000020 b5 22 05 3e aa 76 28 be 2a 4d e2 3d b4 3f d9 bd
       0.13001521 -0.16451517 0.11049874 -0.106078535
000030 87 82 13 be ab 96 29 3e 69 95 91 bd 3c 31 70 bd
       -0.14405261 0.16561382 -0.07108576 -0.058640704
000040 c8 76 b4 3c 86 a1 cc 3d c0 cc 5e 3c 48 96 42 bd
       0.022029296 0.09991746 0.013598621 -0.0475066
000050 50 91 75 3c 44 93 bb bd 09 ac 03 be 90 88 3c 3d
       0.0149882585 -0.09158948 -0.12858595 0.046028674
000060 a8 98 98 3c 66 e4 b3 3d a1 7e 86 bd be ea 32 be
       0.01862748 0.08783798 -0.06567121 -0.1747236
000070 bc aa 33 bd 05 28 2f be d0 08 64 bc 46 db b0 3d
       -0.043863997 -0.1710511 -0.013918117 0.08635573
000080 88 c3 28 bd f4 b2 33 3d dd 57 c9 bc b3 78 95 3c
       -0.041202098 0.043871835 -0.02457803 0.01824603
000090 65 f1 22 3e 09 05 00 bd d8 fd f0 3c dc e5 92 bd
       0.15912397 -0.031254802 0.029417917 -0.071727484
0000a0 12 c0 57 3d 25 d3 b9 3d 22 75 fb bd 54 85 e9 3d
       0.052673407 0.09073476 -0.12278201 0.114023834
0000b0 03 b2 8a bb 59 67 a8 bd 18 ac 25 be b4 d7 6f be
       -0.0042326464 -0.08222837 -0.1617893 -0.23422128
0000c0 1f 23 49 be 9b 4e 52 be 8b a7 33 be 54 dc 52 bd
       -0.19642304 -0.20537798 -0.17544381 -0.051479653
0000d0 43 42 16 be 72 54 17 be 2b 2c 9e bd cc 4c 18 be
       -0.14673714 -0.14778307 -0.07723268 -0.14873046
0000e0 1e 96 96 bd a0 d0 e0 bc 90 69 09 3d 12 33 e3 3d
       -0.07352851 -0.02744323 0.033547938 0.11093725
0000f0 8e 78 1f 3d 99 78 20 be 28 dd 73 bd 80 aa 84 3b
       0.03893333 -0.15671004 -0.059537083 0.0040486455
000100 31 d7 be 3d 04 f6 e4 3c 60 30 49 be 0d 8c 9e bd
       0.09318388 0.02794934 -0.1964736 -0.07741556
000110 c2 78 84 3c 6e 95 7b 3b a1 ee 47 be 2b a3 51 be
       0.016170863 0.0038388628 -0.19524623 -0.204724
000120 b9 29 29 be ab 71 53 bd 07 9b 4d be 5b 17 11 bb
       -0.16519822 -0.051622074 -0.2007867 -0.0022139165
000130 e0 a1 5b 3d 5e cd 73 bd 5e 95 82 3d 1e 10 8a 3d
       0.053621173 -0.059522025 0.06376146 0.06741355
000140 ac d6 63 3d 92 27 7d be 89 93 d6 3d 5d e9 a8 3d
       0.05562465 -0.24722126 0.10477359 0.082476355
000150 14 b7 8c be 24 e5 9b 3d 90 1f 31 be 95 2e a9 3c
       -0.27483428 0.076120645 -0.17297196 0.020652095
000160 93 a2 1e 3e eb a3 31 be dc 50 21 be e1 b1 17 3a
       0.15491705 -0.17347686 -0.15753502 0.0005786699
000170 6f 62 d6 bd c2 26 26 3d d5 38 50 be f1 54 cb bb
       -0.104679935 0.040564306 -0.2033418 -0.006205194
000180 91 bb 95 3d c6 b0 7b 3d f9 0d 0a be f1 da 8c 3d
       0.07311166 0.06144788 -0.13481893 0.06877697
000190 f6 b4 95 3d 30 4b 6b 3e 2f 1d 38 be 14 35 04 be
       0.07309906 0.229779 -0.17979883 -0.12910873
0001a0 04 06 c2 3d c5 fa 20 3e 2a 4f 5a be 15 13 83 bc
       0.09473804 0.15720661 -0.21319261 -0.01600031
0001b0 81 0b a8 bd ad f1 61 3e 0a d2 d4 bd 78 bd 27 3e
       -0.08205319 0.22064848 -0.10391624 0.1638087
0001c0 e4 8c 1d 3e d3 77 e9 bb 62 20 bb 3d b8 b0 b1 3d
       0.15385777 -0.00712488 0.09137036 0.086762846
0001d0 fd 2f b5 bd d7 b1 69 3d 71 c7 ee 3c d1 c5 4f bd
       -0.08847044 0.057054367 0.029147835 -0.05072576
0001e0 00 4f 9b 3d 1a e1 d0 bd 3c e1 cf bd b8 30 40 be
       0.075834274 -0.10199185 -0.10150382 -0.18768585
0001f0 fa 20 8e 3b a6 a4 f5 ba 4f 78 ca 3c 5c 9b 0e be
       0.004337427 -0.0018741086 0.02471557 -0.13926452
000200 3a f5 b9 bd 57 51 3e 3e d2 e2 91 3d 09 b8 e0 bc
       -0.090799764 0.18585716 0.07123341 -0.027431505
000210 f5 a9 11 bd 1a 30 89 3d 8e 4e f6 bd e6 03 4b be
       -0.035562474 0.06698628 -0.12026702 -0.19825706
000220 5d ef 69 bd f1 8c 4a 3e b6 4c e1 3d be c5 45 be
       -0.05711304 0.19780327 0.110009596 -0.19313714
000230 3a f7 13 bd bf 81 45 3e 7a 78 2c 3e fd 32 cb 3d
       -0.036124445 0.19287775 0.16842833 0.099218346
000240 84 94 1f 3e be c7 02 3e 7a cf 27 3e 66 b2 16 be
       0.15583998 0.12771508 0.1638774 -0.14716491
000250 fb 19 2f 3d 25 33 51 be a6 ee d7 bd 9d 90 67 3e
       0.042749386 -0.20429666 -0.105435655 0.2261376
000260 8b 47 06 bb 73 dd 06 3e bf 69 42 3d 16 63 89 be
       -0.002048942 0.13170414 0.04746413 -0.2683341
000270 fd 6d 47 3e 09 43 ac bd 81 d9 78 bd 26 94 f0 3d
       0.19475551 -0.084112234 -0.060754303 0.11747007
000280 dd 67 fe bd c3 f9 2a bc b9 a9 72 be ac 24 f8 3b
       -0.12422154 -0.010435524 -0.23697557 0.007572731
000290 af 88 5e be cf 2d 26 3d 25 0a 97 bd 59 f4 64 be
       -0.21731828 0.04057103 -0.07374982 -0.22358836
0002a0 7c 5d cc bd 73 58 b2 bd e5 66 67 3c 84 e6 15 be
       -0.09978768 -0.087082766 0.014123653 -0.14638716
0002b0 b2 56 2c bd 02 54 0c be 93 c4 dc bd bc c5 c4 3d
       -0.042074867 -0.13703921 -0.10779681 0.09608027
0002c0 e7 14 98 3c 84 37 09 bd c7 20 62 be c0 88 7a bb
       0.018564655 -0.03350021 -0.22082816 -0.0038228482
0002d0 38 53 f5 3d 91 0c aa bd 3c fe a6 3d 3c fd 33 39
       0.11978763 -0.08303178 0.0815396 0.00017165107
0002e0 00 8b b0 3d 30 a0 a4 bd 09 19 15 be 91 c4 57 bc
       0.08620262 -0.08038366 -0.14560331 -0.013169424
0002f0 4f 47 d7 bd a6 c4 be bd ea 6c ed bd f8 09 1d be
       -0.10511648 -0.093148515 -0.11593039 -0.15335834
000300 7a dc 13 bd de 7f bd bd b8 81 28 be 33 74 cc 3d
       -0.036098935 -0.09252904 -0.16455734 0.09983101
000310 eb 8e 6f be 14 d0 1a be 03 bc 25 3e 62 0e 34 be
       -0.23394363 -0.15118438 0.16185002 -0.17583612
000320 f8 f7 56 be 4b 98 37 3d e5 29 30 3e 6d 9b 46 3d
       -0.2099303 0.044822972 0.17203481 0.04848807
000330 0d f7 37 be e2 13 6b be c3 a6 62 be 53 1c 8d bd
       -0.17965336 -0.22956803 -0.22133927 -0.06890168
000340 e1 4a 77 bc e8 9f 72 bd 7f d0 a3 bc d0 17 13 be
       -0.015093536 -0.05923453 -0.01999688 -0.14364552
000350 00 a8 d3 39 10 3b bb 3d 4b e0 09 be 68 62 35 be
       0.00040370226 0.09142125 -0.13464467 -0.1771332
000360 cf ec 8e 3d cb b1 6e 3d aa 9e a0 3d 5d 80 8a 3d
       0.069787614 0.058275025 0.07842763 0.067627646
000370 9a c4 63 bd b6 a9 68 3c fa b3 12 bd b2 94 cc ba
       -0.055607416 0.0142006185 -0.03581617 -0.001560828
000380 53 f3 2d 3d 10 31 50 3e a1 fc e1 3c a0 9c 51 3d
       0.04246838 0.20331216 0.027586283 0.05117476
000390 f0 3e 9d 3d 8d 14 fe 3d f7 bb 15 3e 15 aa 94 bd
       0.0767802 0.124062635 0.14622484 -0.07259003
0003a0 7e 97 a2 3c 09 44 83 bd 61 87 77 bc ef db 69 be
       0.019847628 -0.06409461 -0.01510796 -0.22837804
0003b0 3c 46 5b 3e 95 01 86 bd 1e 62 b2 bd f6 ce 0e 3e
       0.21413511 -0.065432705 -0.087101206 0.13946137
0003c0 22 7e 3e 3e d8 65 52 3e 6a ca 3f 3e 0d a0 96 bd
       0.18602803 0.20546663 0.18729559 -0.07354746
0003d0 b7 31 48 bd a6 a8 92 be 83 c7 a8 bc 1a 0c 03 3e
       -0.048875537 -0.28644294 -0.020602947 0.12797585
0003e0 42 5f b3 bd 88 90 1b 3e d7 6f 00 3d 98 03 1c be
       -0.08758403 0.15191853 0.03135666 -0.15235746
0003f0 f0 7a aa bd 19 cc b2 3d 60 5d bf 3d b9 75 2e 3c
       -0.0832423 0.08730335 0.09343982 0.010648184

bias f4 [32]
000000 6e 18 cf 3d 04 fa ae bd c8 00 0b be 6a f9 69 3c
       0.101120815 -0.085437804 -0.13574517 0.014280656
000010 8e cc 2d 3e 7c 33 c7 3d 19 f3 de bd 80 07 0c 3e
       0.16972563 0.09726617 -0.10886211 0.13674736
000020 3d 7e 19 be d4 43 bf 3b 88 df fb bc 74 34 7b be
       -0.14989562 0.005836943 -0.030746236 -0.24531728
000030 6b c4 56 3e 0c c9 4f 3e 15 05 94 3c 69 ab 97 3b
       0.20973365 0.20291537 0.01806883 0.004628588
000040 a2 83 3a be 5c c7 14 bd b8 01 06 3e 0f 93 5f bd
       -0.18214276 -0.036322936 0.13086593 -0.054583605
000050 a7 50 f0 bd a3 60 34 be 73 81 70 3e d5 4e a9 3e
       -0.11734133 -0.17614989 0.23486881 0.33067957
000060 71 83 94 3d 40 a1 1b 3b ba e7 57 be f7 99 3c be
       0.07251633 0.0023747236 -0.2108449 -0.18418108
000070 56 ff f5 bd ec 4e 87 3d a6 90 15 3e 8f da 48 3e
       -0.12011592 0.0660685 0.1460596 0.19614623

weight f4 [32, 32]
000000 30 47 2a bd c6 e3 ad 3d 3b a2 75 3d f2 41 b9 3d
       -0.041571796 0.0849071 0.05996917 0.09045781
000010 73 49 29 be b9 8c 14 3c 9f e7 1f be f0 65 fa 3b
       -0.16531925 0.009066754 -0.156157 0.0076415464
000020 2a 01 71 bd d4 12 3e bd 0c dd 81 3d ac 8a 43 3d
       -0.058839 -0.046404675 0.063409895 0.04773967
000030 be 79 41 3e a1 fc 72 3b 78 dd f4 3c 7e f3 67 3c
       0.18894097 0.0037076848 0.02989076 0.014157174
000040 44 f4 7c 3d 75 d7 9f bd 82 61 5f 3d a6 94 36 3d
       0.061756387 -0.07804767 0.05453635 0.044575356
000050 12 31 2c bd 67 df 08 3e 18 80 a9 3d 0b df a8 3e
       -0.042038985 0.13366471 0.08276385 0.32982668
000060 59 cc ae bd 5d 17 0c 3e f8 de b0 bc 3d 0c b4 3d
       -0.0853507 0.13680787 -0.021590695 0.08791397
000070 9b 08 26 3e f9 5a e4 bd a4 87 82 3e 06 3f 0d be
       0.1621422 -0.11150164 0.2549411 -0.13793573
000080 10 b7 0d be 10 b2 a6 bd a4 8f 45 be 98 5b 36 be
       -0.13839364 -0.081394315 -0.19293076 -0.17808378
000090 40 0c 91 3c 8a 41 38 be c9 0d e1 3d 11 e0 75 bc
       0.017706037 -0.17993751 0.109889574 -0.015007035
0000a0 5a bd 88 3d 57 5c aa 3d 21 c7 0b 3e 0a ee 23 bc
       0.06676741 0.08318394 0.1365018 -0.010005483
0000b0 10 74 0d be 31 9c 4f be 52 72 0b 3d ea 40 94 bd
       -0.13813806 -0.20274426 0.03404457 -0.07238944
0000c0 ae 95 e2 bd 1d 8e a9 bd ca de 2a be 5a c0 8f 3d
       -0.110637054 -0.08279059 -0.1668655 0.0701911
0000d0 6c 46 5b be f8 fa b0 bd a6 0d 25 bd 4b dd ac bd
       -0.21413583 -0.086416185 -0.04029622 -0.08440646
0000e0 55 da d4 3d 04 82 02 3d cf 0d 14 bc 71 83 a9 bd
       0.10393206 0.031862274 -0.009036495 -0.082770236
0000f0 50 24 51 3d 97 be ea bd a8 fc 47 bd 25 b9 27 bc
       0.05106002 -0.114621334 -0.048824936 -0.010237013
000100 a0 d4 e8 bb ec 35 92 bd 56 21 cd bd 97 3f 6d be
       -0.007105425 -0.07139191 -0.10016124 -0.23168789
000110 f9 e1 20 3e 4a a9 0f 3e f8 3a f6 bd fa 6a 04 3d
       0.15711202 0.14029422 -0.12022966 0.032328583
000120 21 a2 9e bd 3b 63 a6 3d 00 e9 51 3d dd 45 ee bc
       -0.077457674 0.081243955 0.051247597 -0.029086048
000130 3d 13 bb bd ef ab eb 3d e8 ed cf bd dc fc c6 3d
       -0.09134529 0.11507403 -0.10152799 0.09716198
000140 ea 08 e4 bd 92 b6 6a bc 13 78 c6 bc 98 2b 82 3e
       -0.11134513 -0.014325755 -0.024227178 0.25423884
000150 70 8d a3 3d 20 4f fd bd 7f 86 08 3e b6 aa ae 3b
       0.079859614 -0.123686075 0.13332556 0.005330409
000160 85 b0 59 be 6d 59 0d be b3 1a 09 3e be 96 d6 3d
       -0.21258743 -0.13803644 0.13389091 0.104779705
000170 fe b7 a1 3d 96 e7 30 3e 9a fd 93 bd 27 59 24 3e
       0.07896422 0.17275843 -0.07226105 0.16049634
000180 54 20 d2 bd 72 9e bb 3d 4c 5f 44 bd 38 e4 e6 bc
       -0.10260072 0.091610804 -0.047942445 -0.028184995
000190 07 e6 fa 3c 39 83 33 be 82 7a c8 3d ab c3 b9 3d
       0.030627264 -0.17530526 0.097889915 0.09070524
0001a0 77 60 29 3e 00 71 c7 3d 80 7f 1c bc bb fc 34 3e
       0.16540705 0.0973835 -0.009551883 0.17674534
0001b0 73 7d 3e be 44 f7 2d 3d f0 d4 c8 bd 51 67 10 3e
       -0.18602543 0.04247214 -0.098062396 0.14101912
0001c0 53 9f 1d 3e 7f 2f 17 be bb fc 3a be 46 66 3c 3e
       0.15392809 -0.14764212 -0.18260472 0.18398389
0001d0 ab 7b f8 bd 93 1e 11 3e b1 aa 42 bd aa ba b0 3d
       -0.12132963 0.1417182 -0.047526065 0.08629353
0001e0 64 58 25 be 3f df 9c bd 10 09 bd bd 4c 5c 0b be
       -0.16147 -0.07659768 -0.09230244 -0.13609427
0001f0 9d b2 29 be 58 6a c4 3d ef eb 01 be 60 53 dc 3b
       -0.16572042 0.09590596 -0.12687658 0.0067238063
000200 c5 6e 81 bd b8 6a 86 3c b3 6d 1e be 84 44 1b be
       -0.06319956 0.01640831 -0.15471534 -0.15162855
000210 ab 99 be bd a4 76 a2 3c da 6e b3 bd b8 c7 f0 3c
       -0.093066536 0.019831963 -0.08761378 0.029392108
000220 ad d2 93 bd ae d9 42 be 60 9a df bc ee 71 06 be
       -0.072179176 -0.1902835 -0.027295291 -0.13129398
000230 af 92 52 bd ac 60 25 bd 87 7f fa 3c 2d 71 aa bd
       -0.05140942 -0.040375397 0.030578388 -0.08322368
000240 3d 4b a5 3d 48 2b d3 bc e2 57 d3 3d d6 32 28 be
       0.08070991 -0.025777474 0.10319497 -0.16425642
000250 c1 bf 38 be 19 42 91 bd c2 97 09 be fc 93 b9 bd
       -0.18041898 -0.07092685 -0.13436797 -0.09061429
000260 07 dd f3 3c ed 11 2b 3e 06 ef 8e bd 86 26 02 be
       0.02976848 0.16706057 -0.06979184 -0.12710008
000270 d4 63 de bd 5f d5 16 be 80 74 c3 ba f2 ed 24 bd
       -0.108588845 -0.14729832 -0.0014912039 -0.040265985
000280 00 f6 c1 bc ad 24 09 3e 83 bb ec 3c a6 dc f2 bd
       -0.023676872 0.13392897 0.028898006 -0.118584916
000290 2d 26 dd 3c d8 3c ab bd 75 66 0a 3d 7f 7d 2b 3e
       0.026995743 -0.083612144 0.033789117 0.16747092
0002a0 cb 8f 82 3d 11 d8 20 3e f2 a9 99 3d 70 bc bf bd
       0.063750826 0.15707423 0.075031176 -0.093621135
0002b0 fa 12 b2 3d bd 0e b8 bc 5b 1b 12 3e e0 af 61 3b
       0.08695026 -0.022467965 0.14268248 0.0034437105
0002c0 59 a1 e9 3d 6b a6 09 bd e0 21 3e 3d 82 8a a9 3d
       0.11407728 -0.033605974 0.046419024 0.082783714
0002d0 34 30 18 3e 4f 88 15 3e 36 6e a9 3e 7e 9d 52 be
       0.14862138 0.14602779 0.33091897 -0.20567891
0002e0 a1 8f 0d 3d 20 8a ee bb 32 e0 59 3c 81 22 d6 bc
       0.034560803 -0.0072796494 0.013298081 -0.0261395
0002f0 6f 2d 1a be d2 42 2f 3e 27 a4 16 be b3 03 b7 3a
       -0.15056394 0.17115334 -0.14711057 0.0013962894
000300 96 04 de 3d 44 df 88 bb f7 b5 11 bd aa 7c 53 be
       0.108407184 -0.004177006 -0.035573926 -0.20653024
000310 54 75 40 3d 2b 91 1f bd cf 92 2b bd 3d 96 81 3d
       0.046986893 -0.038956802 -0.041888054 0.06327484
000320 c0 d5 47 3c fd 42 26 3c f8 3b 07 be 52 ff 11 bd
       0.012196958 0.010147807 -0.1320647 -0.035643883
000330 a2 69 78 be 50 4a ba 3d 5a 63 6b be b1 69 56 be
       -0.24259046 0.09096205 -0.22987118 -0.20938756
000340 e5 88 ed bd 80 f2 6d bc 40 da 67 3b dc 60 45 bd
       -0.11598376 -0.014523149 0.003537789 -0.048188075
000350 92 6f ba 3c b1 70 8d bd b3 bb 4a be 64 f4 52 3d
       0.022758279 -0.0690626 -0.19798164 0.0515026
000360 18 99 9b 3d f8 c1 6b 3d 58 ad 6a bc 80 7f 84 3d
       0.0759756 0.05755803 -0.014323555 0.06469631
000370 e2 0e 91 3d f6 cf a8 3d 45 4a 30 3e bc c5 a1 bd
       0.07082917 0.082427904 0.17215832 -0.07899043
000380 00 df 41 bc 0e ee 1d be 0f 8f ad 3d 5e ab 68 3e
       -0.0118329525 -0.15422842 0.08474552 0.22721621
000390 92 77 92 3d 54 19 93 bd 05 ef 8c 3b fb ef 2b bd
       0.071517125 -0.07182565 0.0043009543 -0.04197691
0003a0 50 13 30 bd 96 9a 02 bd 92 f7 bf 3d 49 e4 e5 3c
       -0.042987168 -0.031885706 0.09373392 0.028062956
0003b0 88 9c 44 bd d8 72 65 3e 88 59 50 be eb f7 40 3e
       -0.048000842 0.2240709 -0.20346653 0.18844573
0003c0 dc 3e e9 bd 37 c2 e9 bd 16 e7 84 3e 2b 55 bd bd
       -0.113889426 -0.11413997 0.25957555 -0.0924476
0003d0 d9 41 97 bd 58 05 35 3d b6 91 56 bd 07 c6 4e 3e
       -0.07385606 0.04419455 -0.052385055 0.20192729
0003e0 3d c1 18 3e de f1 f5 bd 9e 2d b8 3d fa ae e3 bd
       0.14917465 -0.12009023 0.08993076 -0.111173585
0003f0 09 82 99 bd 29 66 ce 3d 24 c2 92 3e bd 5b d1 3c
       -0.07495505 0.10078079 0.28663743 0.02555644

bias f4 [32]
000000 4c 7a 48 3e 6d 4d a9 bd 10 c1 2f bd 8e 28 6c be
       0.19577903 -0.08266721 -0.042908728 -0.23062345
000010 7a 62 5a bd 08 ed 39 39 38 f9 b2 bd 69 bd 30 3e
       -0.05331657 0.00017731276 -0.08738941 0.17259754
000020 ed 3f 1b 3e 14 5f 18 3d a7 6d d9 bd a6 18 da 3d
       0.15161105 0.03720005 -0.10616618 0.106492326
000030 e4 cb 5c bc c0 b4 10 be 0b 6d 1c 3d c6 e6 98 bd
       -0.013476346 -0.1413145 0.03818993 -0.074658915
000040 4c 87 0c be 6e 04 42 be 9c 32 02 3c e0 83 e9 3d
       -0.13723487 -0.18947002 0.0079466365 0.11402106
000050 cb 5a 07 be da 60 a8 3d ec f0 ba bd 9a ee 72 be
       -0.13218229 0.08221598 -0.091279835 -0.23723832
000060 01 03 c6 bd 51 fb 1d 3e bb 3a 23 3e 28 44 33 3d
       -0.09668542 0.15427901 0.15940373 0.04376617
000070 ab c8 80 3d c4 0c fc bd 70 0a ec 3c 2c a2 98 bd
       0.062882744 -0.12307122 0.02881357 -0.07452807

weight f4 [1, 32]
000000 78 50 2f 3e 8d 4e c4 3d 2c ba 83 bd 3f a5 fd b9
       0.1712054 0.09585295 -0.06431994 -0.00048379038
000010 3c 4e e1 3d 81 8d c7 bd a4 d7 7f 3c 70 58 53 3e
       0.1100125 -0.097437866 0.015615378 0.20639205
000020 62 86 1c 3e ff 9d 36 bd 01 a1 fb bd 39 ba 4a 3d
       0.15285638 -0.04458427 -0.122865684 0.049494002
000030 0c 69 29 bd b9 be 11 3e 79 b6 7c be f1 ee 59 3e
       -0.041359946 0.14232911 -0.24678983 0.21282555
000040 a4 81 d8 bd ea 95 16 bd 77 8c 22 bc 65 61 89 3d
       -0.10571602 -0.036764063 -0.009921185 0.0670803
000050 9e 4f 30 bd 54 6d 33 be 87 95 49 be 80 c2 cb bd
       -0.04304468 -0.17522174 -0.19685946 -0.09949207
000060 fe d2 c6 3a 79 01 3e 3e 76 59 15 3e fe e6 3d be
       0.0015169082 0.1855525 0.14584908 -0.18545148
000070 21 55 28 3e 9b 26 c6 bc be 51 83 be da bc 1b be
       0.16438724 -0.02418833 -0.25648302 -0.1520876

z0 f4 [2]
000000 00 00 00 00 00 00 00 00
       0.0 0.0
