sonode/1/model.pth (torch, 13429 bytes, 8 tensors)

weight f4 [32, 3]
0	0xbf114e40	-0.56760025
1	0xbe4df2c4	-0.20112139
2	0xbf50d81a	-0.81579745
3	0xbf16114f	-0.5862016
4	0x3db56d4d	0.08858738
5	0xbf5e1cf8	-0.8676295
6	0x3e834258	0.25636554
7	0x3e9e059e	0.3086366
8	0x3e9fc271	0.31203035
9	0x3ece1de1	0.4025717
10	0xbe474e12	-0.19463375
11	0x3f187c70	0.59564877
12	0xbec31a34	-0.3810593
13	0xbd8ca05f	-0.06866526
14	0xbf115e41	-0.56784445
15	0x3e351abb	0.17685978
16	0xbe6e3cf1	-0.23265435
17	0x3f29997d	0.6624983
18	0x3eee505d	0.46545687
19	0x3f0c04eb	0.54695004
20	0x3e86780e	0.2626347
21	0xbf04c91b	-0.5186936
22	0x3e84c408	0.2593081
23	0xbf4413a6	-0.7659248
24	0xbf135efa	-0.575668
25	0xbe6e3a52	-0.23264435
26	0xbe64ffd9	-0.22363223
27	0x3df9722f	0.12179982
28	0xbea9d4a0	-0.33170033
29	0xbf0c23fa	-0.54742396
30	0xbeab0fc0	-0.33410454
31	0x3e5a30e1	0.21307708
32	0xbef5123f	-0.47865483
33	0xbf1cdcd4	-0.61274457
34	0xbe84024e	-0.25783008
35	0xbf2513c3	-0.6448328
36	0xbe01b9a9	-0.1266848
37	0xbeb3be1f	-0.35105988
38	0xbea70b03	-0.3262559
39	0xbd487de5	-0.048948187
40	0x3d0fd7b0	0.035117805
41	0xbcba1136	-0.022713285
42	0x3e429929	0.19003738
43	0xbe6d8774	-0.23196203
44	0x3ee7431d	0.4516839
45	0x3d6f27f0	0.058387697
46	0xbe42c4c0	-0.19020367
47	0xbe8e1fe7	-0.27758715
48	0x3d8c74d4	0.06858221
49	0x3f3422df	0.7036571
50	0x3f2da08d	0.67823106
51	0xbf09cd28	-0.5382867
52	0xbe6ef16c	-0.23334283
53	0x3f29daf5	0.66349727
54	0x3ea15c7d	0.31515875
55	0x3e435762	0.19076303
56	0xbe4ee237	-0.20203482
57	0x3f05d65f	0.5228023
58	0x3e47bb0a	0.19504943
59	0xbe69dd2e	-0.2283828
60	0x3ea9872b	0.33110937
61	0xbc9ed680	-0.019389391
62	0xbf480f28	-0.78148127
63	0xbe74c120	-0.23901796
64	0xbdb13e21	-0.08654428
65	0xbebfa087	-0.3742716
66	0x3dffcb0e	0.124899015
67	0xbeab58c3	-0.33466157
68	0x3e47f14d	0.19525643
69	0x3ea580c3	0.323248
70	0x3e1ea081	0.15490915
71	0x3f19b1a8	0.60036707
72	0x3bf162a2	0.0073664943
73	0x3c48bef7	0.012252561
74	0x3f0c1226	0.5471519
75	0x3e066270	0.13123488
76	0xbc050edb	-0.008121218
77	0x3eacc88f	0.33746764
78	0x3d920740	0.07130289
79	0x3e9da4d6	0.30789822
80	0xbeb066a2	-0.34453303
81	0xbec7f971	-0.39057496
82	0xbe9636cd	-0.29338685
83	0xbef8c05e	-0.48584265
84	0x3f1467c3	0.5797083
85	0xbebfda2f	-0.37471148
86	0x3ed33553	0.4125162
87	0xbf2088dc	-0.6270883
88	0xbea36e9e	-0.31920332
89	0xbeebb058	-0.46032977
90	0xbe59eaed	-0.21281023
91	0x3d98f64a	0.07468851
92	0xbf02141c	-0.50811934
93	0x3f24076e	0.64073837
94	0x3e78dd6b	0.24303214
95	0x3e81b72b	0.2533506

bias f4 [32]
0	0xbf53464c	-0.8252914
1	0x3edffbda	0.43746835
2	0xbe8cda7b	-0.27510437
3	0xbe97d1ab	-0.2965215
4	0x3cc9079b	0.02453976
5	0x3e6cebd1	0.23136832
6	0x3d96fc30	0.0737232
7	0xbeadb967	-0.33930513
8	0x3de09dcd	0.10967598
9	0xbec99bc8	-0.39376664
10	0xbe8b03eb	-0.27151427
11	0xbee59547	-0.44840452
12	0x3ec17bd7	0.37789795
13	0xbeed5e05	-0.46360794
14	0x3e5cfb19	0.21580161
15	0x3dc0c284	0.09412101
16	0xbf1e0993	-0.6173336
17	0xbe875188	-0.2642939
18	0xbed74bab	-0.42049918
19	0xbf0161b7	-0.50539726
20	0x3edadfb0	0.42748785
21	0x3f075498	0.52863455
22	0xbe1e5ad7	-0.1546434
23	0x3f0a90a3	0.5412695
24	0x3de7d8b0	0.11320627
25	0xbf260b34	-0.64860845
26	0xbf1a8c16	-0.60370004
27	0xbf059d8f	-0.5219354
28	0xbeef5cdb	-0.4675053
29	0xbec9f655	-0.3944575
30	0x3e0cb630	0.13741374
31	0xbd6efa2f	-0.058344062

weight f4 [32, 32]
0	0x3d9d3d5a	0.076777175
1	0x3c848f78	0.016181692
2	0x3dd0005e	0.1015632
3	0xbd6debc7	-0.058086183
4	0x3dcd70f0	0.10031307
5	0xbd9ab163	-0.07553365
6	0xbe443f53	-0.19164781
7	0x3c455ad9	0.012045586
8	0x3dccf75b	0.10008117
9	0x3d7ecc32	0.062206455
10	0xbe330b44	-0.17484766
11	0x3d1af890	0.037834704
12	0xbe2c9d2a	-0.16856828
13	0xbd6d1caf	-0.057888683
14	0xbc78fb60	-0.015196651
15	0x3d66532f	0.056231674
16	0xbdf8f6e0	-0.12156463
17	0xbd34a2a7	-0.04410043
18	0xbc88a472	-0.016679976
19	0xbe6cd788	-0.23129094
20	0x3d0756bc	0.0330417
21	0x3e28a251	0.16468169
22	0xbe2eed4a	-0.17082706
23	0x3df5e059	0.120056815
24	0x3beaf2f1	0.007170074
25	0x3deb3573	0.11484804
26	0x3dc1efc8	0.09469563
27	0xbd873f31	-0.0660385
28	0x3d934ed3	0.07192769
29	0x3d509010	0.05091864
30	0x3cdeb1dc	0.02718442
31	0xbdfd3bfb	-0.12364956
32	0xbe111838	-0.14169395
33	0xbd341ee9	-0.04397479
34	0xbc323181	-0.01087606
35	0x3cec4c32	0.028844927
36	0xbe59b619	-0.21260871
37	0xbe6b3072	-0.22967699
38	0x3cc57157	0.024101896
39	0xbdc85dae	-0.09783493
40	0xbd8807ec	-0.06642136
41	0xbdda8970	-0.106707454
42	0xbd813f2d	-0.06310878
43	0xbcd84488	-0.026399866
44	0xbe63f8b0	-0.22262836
45	0x3ba8a33a	0.0051464112
46	0xbd1e1778	-0.0385966
47	0x3cba7b44	0.022763856
48	0xbe1afbd1	-0.15135123
49	0x3d8c7995	0.068591274
50	0x3d6cdcfa	0.057827927
51	0xbe1867fa	-0.14883414
52	0x3dc20925	0.094744004
53	0xbd178b6f	-0.03699821
54	0x3dc4a29d	0.096013285
55	0x3dceafde	0.10092138
56	0xbcfa8cff	-0.03058481
57	0xbd00e46f	-0.03146785
58	0xbb99b251	-0.0046904464
59	0x3de880de	0.113527045
60	0xbe62cabe	-0.22147653
61	0x3a91b780	0.0011117309
62	0x3ddbf078	0.10739225
63	0xbe3d4ce7	-0.18486367
64	0xbdca6134	-0.09881821
65	0xbda68d18	-0.0813238
66	0x3b7d3a04	0.0038639316
67	0x3d0eef53	0.034896206
68	0xbd9be7e0	-0.07612586
69	0xbcdd978a	-0.027049799
70	0xbe0f8e3f	-0.14019106
71	0x3e0c4f34	0.13702089
72	0xbe5202a7	-0.20508824
73	0x3d6d46e7	0.057928946
74	0x3db53146	0.08847289
75	0x3e0f1010	0.13970971
76	0x3d588105	0.052857418
77	0xbd7048ae	-0.058663063
78	0x3d301867	0.042992022
79	0xbe6e0200	-0.2324295
80	0x3d81bd55	0.0633494
81	0xbd5bc13c	-0.05365108
82	0xbe388925	-0.18021066
83	0xbe38012a	-0.17969194
84	0x3de193aa	0.11014493
85	0xbd4224d5	-0.047398407
86	0xbe079f3a	-0.13244334
87	0xbe47596a	-0.19467703
88	0xbd7b14ef	-0.06129926
89	0xbdc914c3	-0.09818413
90	0xbc655e88	-0.013999589
91	0x3dddccc6	0.10830073
92	0xbe2fdb4e	-0.17173502
93	0xbe2fca4f	-0.17167018
94	0xbd8e5ec4	-0.06951669
95	0x3d6cc178	0.057801694
96	0x3d62b828	0.055351406
97	0xbd439e6d	-0.04775851
98	0x3c48a3aa	0.012246052
99	0x3ded5a7b	0.115895234
100	0x3d9d34df	0.076761
101	0xbe3cce83	-0.18438153
102	0x3d2041d2	0.03912527
103	0x3dd6cb1e	0.1048796
104	0x3da994f4	0.08280364
105	0x3e40cf52	0.18829086
106	0x3ceb18fa	0.028698433
107	0x3de5baeb	0.112172924
108	0xbe5ec298	-0.21753919
109	0x3dbf821b	0.093509875
110	0xbc54bc89	-0.012984403
111	0x3d9d29a8	0.07673961
112	0x3cb30db0	0.021857113
113	0x3d757dda	0.059934475
114	0xbdc2bbac	-0.09508452
115	0x3d2764ec	0.04086773
116	0x3dddecb7	0.108361654
117	0x3d9421f2	0.07233037
118	0xb796217f	-1.7896991e-05
119	0x3e119ab4	0.14219171
120	0xbdbe6004	-0.09295657
121	0x3d3789cd	0.04480915
122	0x3e66fa98	0.22556531
123	0x3d707844	0.058708444
124	0x3e3bbb50	0.18333173
125	0xbe5b3cc2	-0.21409896
126	0xbd0f14ff	-0.034932133
127	0xbdc4dd71	-0.09612549
128	0x3ed1f411	0.4100652
129	0xbf35a556	-0.7095541
130	0x3e50b366	0.20380935
131	0x3d8d5c5b	0.06902381
132	0xbef7c128	-0.48389554
133	0x3f847afe	1.0350034
134	0x3fb20234	1.3906922
135	0xbeb36af8	-0.35042548
136	0xbe8b6b52	-0.27230316
137	0xbf65d4c1	-0.8977776
138	0xbf0fbaa8	-0.5614419
139	0xbe40e8b7	-0.18838774
140	0xbcaa5ccb	-0.0207962
141	0x3dc4bc32	0.09606208
142	0x3f822997	1.0168942
143	0x3eb2d0c4	0.349249
144	0x3ffdd314	1.9830041
145	0xbdc1fcea	-0.09472068
146	0xbe023ebb	-0.12719242
147	0xbe4b3acc	-0.19846648
148	0xbef968ed	-0.48712865
149	0xbedded0b	-0.43344912
150	0x3e51de82	0.20495036
151	0x3f946e31	1.1596128
152	0x3f8557f5	1.0417467
153	0xbb96dc07	-0.004603866
154	0x3d7ba87c	0.061439976
155	0xbfceb125	-1.614781
156	0xbcfed7d7	-0.03110878
157	0xbf0513ab	-0.51983136
158	0xbeef8aab	-0.46785483
159	0x3f4a5394	0.7903378
160	0x3da6f4e9	0.08152182
161	0x3d1d2fc7	0.038375642
162	0x3cd59c56	0.026075523
163	0x3dcc986f	0.09990012
164	0xbe376488	-0.17909443
165	0xbd0c6e34	-0.034284785
166	0x3e57e1d6	0.21082243
167	0xbd1b6613	-0.037939142
168	0xbe688b32	-0.22709349
169	0x3e513617	0.2043079
170	0x3dc60428	0.096687615
171	0x3d657d7e	0.05602788
172	0xbde2b5d7	-0.110698394
173	0xbc642486	-0.0139247235
174	0xbd86bffa	-0.065795854
175	0xbdcb5986	-0.099291846
176	0x3e081b9a	0.13291779
177	0xbdc63a2e	-0.09679066
178	0x3c1ecbb8	0.009692125
179	0xbd8541e4	-0.06506708
180	0xbc102645	-0.008798187
181	0xbe302429	-0.17201294
182	0xbd0b5a9f	-0.03402197
183	0x3e1670fd	0.14691539
184	0x3d45163f	0.04811692
185	0x3dbd21b6	0.092349455
186	0xbd8f3b8a	-0.06993778
187	0xbdb712e8	-0.08939153
188	0x3d42906c	0.047501013
189	0x3d824a56	0.06361835
190	0x3d00c023	0.031433236
191	0x3e2a37bc	0.16622823
192	0x3f1a7abb	0.6034352
193	0x3f276f11	0.6540385
194	0xbf8377a2	-1.0270884
195	0xbf1a9fe6	-0.60400236
196	0x3f4bb873	0.7957832
197	0x3c7f6d30	0.015589997
198	0x3efdb55f	0.49552438
199	0x3edf88df	0.43659112
200	0x3f042c97	0.5163054
201	0x3f780058	0.96875525
202	0x3e876c3e	0.2644977
203	0x3f0cdbfc	0.5502317
204	0x3eccc982	0.39997488
205	0x3c4b86c0	0.012422264
206	0x3df9c4ab	0.121957146
207	0x3ecde150	0.40210962
208	0xbf65daf2	-0.8978721
209	0xbe5da462	-0.21644738
210	0xbf775006	-0.9660648
211	0xbf204273	-0.62601393
212	0x3fa48491	1.2852956
213	0x3ef7d44a	0.4840415
214	0x3ddcff93	0.107909344
215	0x3e22ebad	0.15910216
216	0x3e36b821	0.17843677
217	0xbdb21b13	-0.0869657
218	0xbe330c7f	-0.17485236
219	0x3e9e1eb9	0.30882815
220	0xbf950b99	-1.1644164
221	0x3ecc3ae7	0.3988869
222	0x3f277d23	0.6542532
223	0x3e210532	0.15724638
224	0xbdd043af	-0.101691596
225	0xbd731688	-0.05934766
226	0x3d854810	0.065078855
227	0xbdb6f793	-0.0893394
228	0xbd859562	-0.06522633
229	0x3e03d629	0.12874664
230	0xbe34ebfe	-0.17668149
231	0xbe56dfee	-0.2098386
232	0xbe52a0be	-0.20569131
233	0xbde4f0a7	-0.11178713
234	0xbe0669ab	-0.13126247
235	0xbd4b57ba	-0.04964421
236	0x3e07d4a2	0.13264707
237	0xbdec252d	-0.11530528
238	0x3e8b2373	0.27175483
239	0xbd914c65	-0.07094649
240	0xbebae5dd	-0.36503497
241	0xbe77ddc6	-0.24205694
242	0xbe3007f4	-0.17190534
243	0xbc6b895a	-0.014376009
244	0x3c3a56ec	0.011373263
245	0x3e0216d8	0.12704027
246	0xbecffb7d	-0.40621558
247	0x3e348a6b	0.17630927
248	0x3e046e08	0.12932599
249	0xbdf8554a	-0.121256426
250	0x3deed8e7	0.116624646
251	0xbcd2d55b	-0.025736501
252	0xbe5ab7e0	-0.21359205
253	0xbee9f9e9	-0.4569848
254	0xbe4bedc3	-0.19914918
255	0xbe50a778	-0.20376384

bias f4 [32]
0	0xbb85cafb	-0.004083035
1	0xbdf33882	-0.118760124
2	0xbdc00189	-0.09375293
3	0x3e0e6b46	0.13908109
4	0x3ecaf173	0.39637336
5	0x3c1728e4	0.009226058
6	0x3eea20dc	0.45728195
7	0x3e58361e	0.21114394
8	0x3df3d987	0.119067244
9	0xbf690cb6	-0.9103502
10	0xbd80373e	-0.062605366
11	0x3d901951	0.07036079
12	0xbd30bfec	-0.04315178
13	0xbeeead20	-0.4661646
14	0xbddefa0a	-0.10887535
15	0x3d1fd0e9	0.03901759
16	0x3d6b4897	0.057442274
17	0x3e683547	0.22676574
18	0x3e25006d	0.16113444
19	0xbe1eca89	-0.15506949
20	0x3ea4857e	0.32133096
21	0xbe616ab9	-0.22013368
22	0x3e2b856e	0.16750118
23	0x3d02c7a9	0.031928692
24	0x3e092f7b	0.13397019
25	0xbe74f56d	-0.23921748
26	0x3e0e7780	0.13912773
27	0xbe985867	-0.29754946
28	0x3e030954	0.12796527
29	0xbd9cb325	-0.076513566
30	0x3dd7f10b	0.10544022
31	0xbe11763d	-0.1420526

weight f4 [32, 32]
0	0xbd23d2b7	-0.039995875
1	0x3d980dfb	0.074245416
2	0x3d8ec33c	0.06970832
3	0x3cc11c9f	0.023573218
4	0xbe1fe1af	-0.15613435
5	0xbe0aad8b	-0.13542764
6	0xbd93fb6d	-0.0722569
7	0xbc2db373	-0.010601866
8	0x3da58b82	0.0808325
9	0x3df260a2	0.118348375
10	0xbb7890fb	-0.0037928212
11	0xbd9f7ff6	-0.077880785
12	0xbe3a00ab	-0.18164317
13	0x3c5c5720	0.013448507
14	0xbe0e7c74	-0.13914663
15	0xbbf27594	-0.0073992703
16	0xbe35ea69	-0.17765202
17	0xbde9b163	-0.11410787
18	0x3d934df9	0.071926065
19	0xbe11e8ff	-0.14249037
20	0xbd967a00	-0.073474884
21	0xbd3039fa	-0.04302404
22	0xbe089034	-0.13336259
23	0x3da597d2	0.08085598
24	0xbe858dc3	-0.26084718
25	0x3db20c21	0.0869372
26	0xbd3fffaf	-0.0468747
27	0x3dc1aad2	0.094564095
28	0xbe632c7a	-0.22184935
29	0xba8376bf	-0.0010029896
30	0xbc512d23	-0.012767109
31	0xbda446d1	-0.0802132
32	0x3d2fe828	0.04294601
33	0xbe0f8829	-0.14016785
34	0xbe1e120f	-0.15436576
35	0xbd1064e9	-0.035252485
36	0xbeb6d2e0	-0.3570776
37	0xbd887180	-0.066622734
38	0x3e05cc60	0.13066244
39	0xbd909588	-0.07059771
40	0x3cfa82bb	0.030579915
41	0xbda27d28	-0.07934028
42	0xbdd05e52	-0.1017424
43	0xbd864290	-0.065556645
44	0x3cad9b47	0.021192206
45	0xbea96850	-0.33087397
46	0x3d5dc4fc	0.054142937
47	0x3dce14ac	0.100625366
48	0xbd20e155	-0.039277393
49	0x3f0b498e	0.5440911
50	0x3c14cfc5	0.009082739
51	0x3e1cf3c1	0.1532736
52	0xbda9dee7	-0.082944684
53	0xbc4f02b5	-0.012634923
54	0xbe1f23fb	-0.15541069
55	0xbd902a3d	-0.07039306
56	0x3dfbed41	0.12301112
57	0x3d7b8e42	0.061414964
58	0x3d096bb4	0.03354998
59	0x3d3e3b14	0.04644306
60	0xbe432e95	-0.19060738
61	0xbe3cc77f	-0.18435477
62	0x3dbc89ea	0.092059925
63	0x3d8308a1	0.0639813
64	0x3de61e21	0.112362154
65	0x3bc5ff68	0.0060424097
66	0x3d143302	0.036181457
67	0xbd255b19	-0.04037008
68	0xbe421c74	-0.18956167
69	0xbc1337c1	-0.008985461
70	0xbe2410d7	-0.16022049
71	0xbe3dfaac	-0.18552655
72	0xbdd9c0f1	-0.10632504
73	0x3ceae8f8	0.028675541
74	0xbe0cab95	-0.13737328
75	0xbe0cbaeb	-0.13743179
76	0xbe67e50b	-0.22645967
77	0xbe0d7635	-0.13814624
78	0xbc6129c2	-0.013742866
79	0xbe27957a	-0.16365615
80	0x3dee26fb	0.11628529
81	0xbe09ebd7	-0.13468872
82	0xbdd0d719	-0.101972766
83	0xbe2b6921	-0.16739322
84	0xbd71f0cb	-0.05906753
85	0x3d4553c8	0.048175603
86	0xbddfa6f9	-0.109205194
87	0xbd9c4c56	-0.076317474
88	0xbe58d386	-0.2117444
89	0xbd76563f	-0.060140844
90	0xbdaee13a	-0.08539052
91	0x3de1bc62	0.11022259
92	0x3dca441a	0.098762706
93	0xbc536277	-0.012901894
94	0xbe2d336f	-0.16914152
95	0xbd881ec6	-0.066464946
96	0x3e38d1cf	0.18048786
97	0x3df1b102	0.1180134
98	0xbe2447ce	-0.16043016
99	0x3d0c1a63	0.03420485
100	0x3f5a20c5	0.8520625
101	0x3b9dfedf	0.004821643
102	0xbe93f3a0	-0.2889681
103	0x3ce68416	0.028139155
104	0xbd8b624a	-0.068058565
105	0x3f0de8cf	0.5543336
106	0x3dd44dc4	0.10366395
107	0xbd4ff518	-0.05077085
108	0x3e1417b0	0.14462161
109	0x3dc0cf1c	0.09414503
110	0x3e016a81	0.12638284
111	0xbd927cd9	-0.07152719
112	0xbe39e35a	-0.18153134
113	0xbeeb5956	-0.45966595
114	0x3e59ae7e	0.2125797
115	0xbe2920de	-0.16516444
116	0xbebeba6e	-0.3725161
117	0x3d914f74	0.070952326
118	0xbd6234cd	-0.055226136
119	0x3c769130	0.015049264
120	0xbdd481e3	-0.103763364
121	0x3d56cbb8	0.052440375
122	0x3e1de9f8	0.15421283
123	0x3cc2a670	0.023761004
124	0xbdab4115	-0.08362023
125	0x3c979ff1	0.018508883
126	0x3ddf24bd	0.10895679
127	0x3e2ab714	0.16671401
128	0xbd538b3f	-0.051646467
129	0x3d0af217	0.03392228
130	0xbe239d8e	-0.15978071
131	0xbd901ff1	-0.07037342
132	0x3dfbae56	0.12289111
133	0xbe50d201	-0.2039261
134	0x3e4333cd	0.19062729
135	0x3dc2d4e1	0.0951326
136	0xbd82a706	-0.063795134
137	0x3e974908	0.29547906
138	0xbdcf27c8	-0.101150095
139	0xbe2b99d6	-0.16757903
140	0xbda41e61	-0.08013607
141	0xbdf6afab	-0.12045225
142	0xbdb8d7de	-0.090255484
143	0x3d90d45e	0.07071756
144	0xbd897c05	-0.06713108
145	0x3efd259d	0.4944276
146	0xbe194c04	-0.14970404
147	0xbb9303e6	-0.0044865487
148	0x3ebd045f	0.36917397
149	0xbd9b62ee	-0.07587229
150	0xbd8d521c	-0.06900427
151	0x3dd9e2fc	0.10638997
152	0x3dfa883f	0.12233018
153	0xba98c388	-0.0011654953
154	0xbe41b9a1	-0.18918468
155	0xbcf4ae95	-0.029868403
156	0x3dd694b5	0.10477582
157	0x3cc46d11	0.023977788
158	0xbcc50fa8	-0.024055317
159	0x3de3fc19	0.11132068
160	0x3d755f5f	0.059905406
161	0xbe0de9a5	-0.1385866
162	0xbd895525	-0.06705693
163	0x3e5472ea	0.20746961
164	0xbe446f27	-0.19183026
165	0x3dd536e4	0.1041086
166	0x3ed8fb1d	0.42379084
167	0x3ae9d2bd	0.0017839294
168	0x3dc47e4b	0.09594401
169	0xbdafa141	-0.085756786
170	0xbe9130b6	-0.28357476
171	0x3db4880a	0.0881501
172	0x3d17d42d	0.03706758
173	0x3e330101	0.17480852
174	0x3c48d1ba	0.012257034
175	0x3e4632c2	0.193553
176	0x3d9dfa7e	0.07713793
177	0x3f226e95	0.63449985
178	0xbc94b523	-0.018152779
179	0x3e29f66e	0.16597912
180	0x3eefc9b7	0.46833584
181	0x3e2cc7ef	0.16873144
182	0x3ddc881c	0.10768148
183	0xbdc51ef8	-0.096250474
184	0x3d51e6ff	0.051245686
185	0xbd71b910	-0.05901438
186	0xbf7e69ac	-0.9937999
187	0x3ea0325a	0.31288415
188	0x3dcf53bc	0.10123393
189	0x3b85760a	0.0040729092
190	0x3e1b376b	0.15157859
191	0x3f324f40	0.69652176
192	0x3d5b658c	0.05356364
193	0xbccf6a93	-0.025319373
194	0x3caa2ed7	0.020774288
195	0xbe13d18c	-0.14435405
196	0x3f2f1e21	0.6840535
197	0x3e1f39fe	0.15549466
198	0xbe5f57c6	-0.21810827
199	0x3e026c40	0.12736607
200	0x3e003d56	0.12523398
201	0x3f178678	0.5918956
202	0x3d7f0ea3	0.062269818
203	0x3e3ca0b6	0.18420681
204	0x3dc0cdee	0.09414278
205	0x3e1098df	0.14120816
206	0xbd638148	-0.055543214
207	0xbdbe2600	-0.09284592
208	0x3da6cfaa	0.081450775
209	0xbea18e2d	-0.31553784
210	0x3dfde203	0.12396624
211	0xbe6fd277	-0.2342013
212	0xbfbe103d	-1.4848706
213	0xbce00812	-0.027347598
214	0xbd21249b	-0.03934155
215	0x3e2ded20	0.16984987
216	0x3d732ef7	0.05937096
217	0xbd809cbe	-0.06279896
218	0x3e41c715	0.189236
219	0x3e065d71	0.13121583
220	0x3cbee9f6	0.02330492
221	0x3d80a85a	0.062821105
222	0xbc522de9	-0.012828329
223	0x3c6dbf71	0.014510975
224	0x3cd4efd4	0.025993265
225	0xbe082ed2	-0.1329911
226	0x3ddbf7e1	0.107406385
227	0xbc48f389	-0.012265095
228	0xbd9dbdad	-0.077021934
229	0xbdf4920c	-0.11941919
230	0x3e8e7bfe	0.27828974
231	0x3dd1b080	0.10238743
232	0xbe0ad471	-0.13557602
233	0x3e40e8d3	0.18838815
234	0xbd38aec4	-0.045088544
235	0x3d60b2c9	0.054858003
236	0xbd66ca2d	-0.056345154
237	0xbe908247	-0.28224394
238	0x3d521ac7	0.051295068
239	0x3d2d1ce2	0.042263873
240	0x3d11c4b7	0.035587993
241	0x3f1532c6	0.582806
242	0xbd8db170	-0.06918609
243	0x3de23a84	0.11046317
244	0x3eac907f	0.33703992
245	0xbd8b6d1a	-0.06807919
246	0xbdd5729f	-0.10422253
247	0x3dd79d94	0.105281025
248	0x3d3c1cb2	0.045925803
249	0x3d98bf92	0.07458414
250	0x3d77cd1e	0.06049835
251	0x3e662193	0.22473745
252	0xbdbf684c	-0.09346065
253	0xbcbf8594	-0.023379125
254	0x3df1fd00	0.11815834
255	0xbdefaa17	-0.11702364

bias f4 [32]
0	0x3dbbcccb	0.091699205
1	0x3e131fc8	0.14367592
2	0x3ddaa778	0.106764734
3	0xbbe623b0	-0.0070232973
4	0x3e047f96	0.12939295
5	0xbdde3f7c	-0.108519524
6	0x3d341dfb	0.043973904
7	0x3dfbc536	0.122934744
8	0x3e2b63cb	0.16737287
9	0xbca86221	-0.020554604
10	0xbe14dc5b	-0.14537184
11	0xbe62be6f	-0.22142957
12	0xbd419a7d	-0.047266472
13	0x3e356bdb	0.17716925
14	0xbce3092f	-0.02771434
15	0xbeba1f64	-0.36352074
16	0x3ca87c32	0.020567033
17	0x3d989788	0.07450777
18	0xbd9a8815	-0.07545487
19	0x3e21efd2	0.1581414
20	0x3db5acc7	0.08870845
21	0x3d643c7a	0.055721737
22	0xbdaef7e7	-0.08543377
23	0xbe23147e	-0.15925786
24	0x3de5855e	0.112070784
25	0x3d85bed7	0.065305404
26	0x3e3b134e	0.18269083
27	0x3e287c23	0.16453604
28	0x3d13d974	0.03609605
29	0xbdd97684	-0.10618308
30	0x3dce4f6c	0.10073742
31	0xbe88d4ab	-0.26724753

weight f4 [1, 32]
0	0xbd25de62	-0.040495284
1	0x3ce96c29	0.028493958
2	0x3d7a7c03	0.061153423
3	0xbe1e4739	-0.15456857
4	0x3dfae581	0.12250806
5	0x3df3a8a2	0.118973985
6	0xbe56bec1	-0.20971204
7	0x3dbc842f	0.092048995
8	0x3e0750ae	0.1321437
9	0xbe3a9ae0	-0.18223143
10	0xbd64fb96	-0.055903994
11	0xbbe6b459	-0.007040542
12	0xbd911fc9	-0.07086141
13	0xbe301662	-0.17196038
14	0x3c4e93c9	0.012608477
15	0x3d6f3697	0.05840167
16	0x3eeeba24	0.4662639
17	0xbe134fda	-0.1438593
18	0x3e81f311	0.25380757
19	0xbd6d2bda	-0.05790315
20	0x3dea7402	0.11447908
21	0xbdfcf241	-0.12350894
22	0x3d63545f	0.055500384
23	0x3f6a31e3	0.9148237
24	0xbe1eb1a2	-0.15497449
25	0x3d05eda8	0.03269735
26	0x3db2c381	0.08728696
27	0xbd8664ce	-0.06562196
28	0xbd51f779	-0.0512614
29	0xbe53437d	-0.20631213
30	0x3d8cac79	0.06868834
31	0xbda84ecc	-0.08218154

z0 f4 [2]
0	0x00000000	0.0
1	0x00000000	0.0
